Hamming74/Result/Model/SLNN_edgedeleted43_output.weight_cpu/SLNN7_edgedeleted43_order14.pth (torch, 3056 bytes, 4 tensors)

hidden.weight f4 [7, 7]
000000 00 00 00 00 00 00 00 00 00 00 00 00 00 00 00 00
       0.0 0.0 0.0 0.0
000010 00 00 00 00 4e ed 5d 3f 00 00 00 00 00 00 00 00
       0.0 0.86690223 0.0 0.0
000020 00 00 00 00 00 00 00 00 c5 06 6b 3f 00 00 00 00
       0.0 0.0 0.91807204 0.0
000030 00 00 00 80 00 00 00 00 00 00 00 00 00 00 00 00
       -0.0 0.0 0.0 0.0
000040 00 00 00 00 00 00 00 00 b9 0f 35 bf 00 00 00 00
       0.0 0.0 -0.70727116 0.0
000050 00 00 00 00 00 00 00 00 00 00 00 00 00 00 00 00
       0.0 0.0 0.0 0.0
000060 00 00 00 00 00 00 00 00 00 00 00 00 cf a4 43 bf
       0.0 0.0 0.0 -0.7642335
000070 00 00 00 00 df 8a 4f 3f 00 00 00 00 00 00 00 00
       0.0 0.81071275 0.0 0.0
000080 00 00 00 00 00 00 00 00 00 00 00 00 00 00 00 00
       0.0 0.0 0.0 0.0
000090 00 00 00 00 f6 8b 66 3f 00 00 00 00 00 00 00 00
       0.0 0.90057313 0.0 0.0
0000a0 00 00 00 00 00 00 00 00 e1 66 49 bf 00 00 00 00
       0.0 0.0 -0.78672606 0.0
0000b0 00 00 00 00 00 00 00 00 00 00 00 00 00 00 00 00
       0.0 0.0 0.0 0.0
0000c0 00 00 00 00
       0.0

hidden.bias f4 [7]
000000 60 2b f1 3f 15 a5 f6 3f 1c e0 e7 3f a0 55 d2 3f
       1.8841362 1.9269129 1.8115268 1.6432381
000010 78 87 d8 3f aa f7 f0 3f d3 11 d4 3f
       1.6916342 1.8825581 1.656794

output.weight f4 [16, 7]
000000 1a 7d 99 bf 35 6d b3 bf 1f de ca 3f 24 b9 b8 3f
       -1.1991303 -1.4017702 1.5849036 1.44315
000010 27 bf c4 bf 00 00 00 00 13 cc bb 3f 55 e0 a9 bf
       -1.5370835 0.0 1.4671654 -1.3271586
000020 00 00 00 00 6b f2 c8 3f d5 d9 c4 bf cd 44 c6 3f
       0.0 1.569898 -1.5378977 1.5489746
000030 00 00 00 00 4a 63 c2 bf 52 94 a1 3f 00 00 00 00
       0.0 -1.5186551 1.2623389 0.0
000040 87 fb ce 3f 6d 57 b9 3f 1c dd c0 3f 00 00 00 00
       1.617051 1.4479805 1.5067477 0.0
000050 6d e5 c1 3f a9 f1 a9 3f a7 5a b2 bf 41 c3 cc 3f
       1.514814 1.3276874 -1.3933915 1.5997087
000060 d7 93 c3 bf 35 e5 be bf 00 00 00 00 e5 2a bc bf
       -1.5279492 -1.4913698 0.0 -1.470059
000070 11 a1 9c bf 00 00 00 00 72 8e e1 bf 80 37 c0 3f
       -1.2236654 0.0 -1.7621596 1.5016937
000080 0b 51 be bf 00 00 00 00 b9 c5 c0 bf dd 88 9f bf
       -1.4868482 0.0 -1.506034 -1.2463642
000090 d4 f8 b5 bf 62 38 da bf d3 d7 c5 bf ff 40 c5 3f
       -1.4216561 -1.7048457 -1.5456489 1.541046
0000a0 00 00 00 00 06 e1 bd 3f 68 98 a2 3f 5f dc ae bf
       0.0 1.4834297 1.2702761 -1.3661002
0000b0 ef 5a e5 bf 76 67 bc 3f 7e 11 c0 3f 00 00 00 00
       -1.7918376 1.4719074 1.5005338 0.0
0000c0 da 9a c2 bf 88 40 9d 3f 00 00 00 00 43 9a df bf
       -1.5203507 1.2285318 0.0 -1.7468952
0000d0 dc 04 c9 bf 5d 3d c0 bf 00 00 00 00 5d e0 be 3f
       -1.5704608 -1.5018727 0.0 1.491222
0000e0 b4 bc a0 bf a6 c3 b8 bf 66 91 ce 3f f1 56 c2 3f
       -1.2557588 -1.4434707 1.6138122 1.5182782
0000f0 0f d2 bb 3f 8a 1d c2 3f 59 6f bf bf ab 60 a7 bf
       1.467348 1.5165265 -1.4955856 -1.3076376
000100 00 00 00 00 bc 21 cb 3f 4a e9 c5 bf 85 6d ba bf
       0.0 1.586967 -1.5461819 -1.4564673
000110 7e 46 bf 3f 8d 88 bc 3f c6 02 9f 3f 92 47 99 3f
       1.4943388 1.4729172 1.2422721 1.1974967
000120 ed cc cc 3f 8a 91 bd 3f b7 8f bc bf ff f3 b6 3f
       1.6000038 1.481004 -1.4731358 1.4293212
000130 af dd c4 bf ab 52 a8 3f 34 54 b6 bf 83 40 cc 3f
       -1.5380152 1.3150228 -1.4244447 1.5957187
000140 68 3b c6 bf 62 e1 bf 3f 6a 26 b5 3f 0d 78 bb 3f
       -1.5486879 1.4990656 1.4152348 1.4646012
000150 44 b8 a3 bf 00 00 00 00 5e b7 dc bf 55 0e bb 3f
       -1.2790608 0.0 -1.7243459 1.4613749
000160 a6 38 c2 3f 76 86 bd 3f af 45 bd 3f 0a 31 a2 bf
       1.5173538 1.4806659 1.4786891 -1.2671216
000170 69 dd b1 bf 02 9b df bf 35 aa c5 bf c2 4d c0 bf
       -1.3895694 -1.746918 -1.5442568 -1.502373
000180 00 e5 c0 3f 68 7c c1 bf 07 26 a6 3f e4 51 bc bf
       1.5069885 -1.5116091 1.2980355 -1.4712491
000190 06 fd df bf 62 eb b9 3f 52 03 c6 bf 39 0e b9 3f
       -1.7499092 1.4524958 -1.5469763 1.4457465
0001a0 57 c4 be 3f 29 41 9b 3f 00 00 00 00 b6 63 df bf
       1.4903668 1.212926 0.0 -1.7452304
0001b0 6d 2d c3 bf ae 05 c4 3f 5e f7 ae 3f 7b 75 bd bf
       -1.5248238 1.5314233 1.366924 -1.4801477

output.bias f4 [16]
000000 50 19 cc 3f 57 37 e5 3f b6 91 4d c1 fc 87 dd 40
       1.5945225 1.7907513 -12.848074 6.9228497
000010 b4 7a fe 40 a2 e8 f9 40 93 55 46 40 d9 53 5c 40
       7.9524784 7.8096476 3.098973 3.4426177
000020 0e c3 5a c0 f1 aa 48 c0 d6 bf fb c0 24 55 fb c0
       -3.4181552 -3.1354334 -7.8671675 -7.854143
000030 69 e2 de c0 fb 85 4c 41 0d b9 e0 bf aa 46 c9 bf
       -6.965138 12.78271 -1.7556473 -1.572469
