Result/Hamming74/Model/SLNN_CPU/SLNN_model_hiddenlayer1_BER0.pth (torch, 2488 bytes, 3 tensors)

hidden.weight f4 [1, 7]
-0.43153432 -0.3937425 -0.4458703 -0.18938541 -0.0028587054 0.55708504 0.24408922
00000000: 11f2 dcbe 9e98 c9be 1d49 e4be 40ee 41be
00000010: 1e59 3bbb 209d 0e3f 86f2 793e

output.weight f4 [16, 1]
0.7615325 -0.9412021 0.8091346 1.7775028 -0.584596 0.5198001 0.2920228 2.4085991
-2.3015916 -0.13172579 -0.33780754 0.6973015 -1.6082021 -0.651336 1.0708405 -0.61950797
00000000: cbf3 423f 9ff2 70bf 7223 4f3f 3685 e33f
00000010: 15a8 15bf 9f11 053f 0384 953e 7d26 1a40
00000020: 474d 13c0 20e3 06be 1cf5 acbe 5a82 323f
00000030: 91d9 cdbf f5bd 26bf 4d11 893f 1398 1ebf

output.bias f4 [16]
-1.6000506 2.864885 -1.7927372 -5.422208 2.0807667 -0.6863739 -0.10451108 -8.271762
4.82534 1.0749726 1.5284476 -1.3803982 4.0819445 2.3129401 -2.7511966 2.1667933
00000000: 75ce ccbf 475a 3740 6a78 e5bf ba82 adc0
00000010: 482b 0540 33b6 2fbf e809 d6bd 2359 04c1
00000020: 2f69 9a40 b498 893f 2ca4 c33f e3b0 b0bf
00000030: 4a9f 8240 3607 1440 9b13 30c0 beac 0a40
