Result/Model/Parity26_10/26_ft_cpu/SLNN_deleted643_order7.pth (torch, 115656 bytes, 4 tensors)

hidden.weight f4 [26, 26]
0.0 0.0 0.0 0.0 -0.78472865 0.0 0.0 0.0
0.0 0.0 0.0 0.0 0.0 0.0 0.0 0.0
0.0 0.0 0.0 0.0 0.0 0.0 0.0 0.0
0.0 0.0 0.0 0.0 0.0 0.0 0.0 0.396892
0.0 0.0 0.0 0.0 0.0 0.0 0.0 0.0
0.0 0.0 0.0 0.0 0.0 0.0 0.0 -0.578319
0.0 0.0 0.0 0.0 0.0 0.0 0.0 0.8088438
0.0 0.0 0.0 0.0 0.0 0.0 0.0 0.0
0.0 0.0 0.0 0.0 0.0 0.0 0.0 0.0
0.0 0.0 0.0 0.0 0.0 0.0 0.0 0.0
0.0 0.0 -0.07861464 0.0 0.0 0.85536826 0.0 0.0
0.0 0.0 0.0 0.0 0.0 0.0 0.0 0.0
0.0 0.0 0.0 -0.0 0.0 0.0 0.0 0.0
0.0 0.0 0.0 0.0 0.0 0.0 0.0 0.0
0.0 0.0 0.0 0.0 0.0 0.0 0.8139733 0.0
0.0 0.0 0.0 0.0 0.0 0.0 0.0 0.0
0.0 0.0 0.0 0.0 0.0 0.0 0.0 -0.7400532
0.0 0.0 0.0 0.0 0.0 0.0 0.0 0.0
0.0 0.0 0.0 0.0 0.0 0.0 0.0 0.0
0.0 0.0 0.0 0.0 0.0 0.0 0.0 0.0
0.0 0.0 0.0 0.0 0.0 0.0 0.0 0.0
0.0 0.0 0.0 0.0 0.0 0.76498973 0.0 0.0
0.0 0.0 0.0 0.0 0.0 0.0 0.0 0.0
0.0 0.0 0.0 0.0 0.0 0.0 0.0 0.0
0.0 0.0 0.0 0.0 0.0 -0.0 0.0 0.0
-0.7699235 0.0 0.0 0.0 0.0 0.0 0.0 0.0
0.0 0.0 0.0 0.0 0.0 0.0 0.0 0.0
0.0 0.0 0.0 0.0 0.0 -0.7839664 0.0 0.0
0.0 0.0 0.0 0.0 0.0 0.0 0.0 0.0
0.0 0.0 -0.7395318 0.0 0.0 0.0 0.0 0.0
0.0 0.0 0.0 0.0 0.0 0.0 0.0 0.0
0.0 0.0 0.0 0.0 -0.1766036 0.0 0.0 0.0
00000000: 0000 0000 0000 0000 0000 0000 0000 0000
00000010: fae3 48bf 0000 0000 0000 0000 0000 0000
00000020: 0000 0000 0000 0000 0000 0000 0000 0000
00000030: 0000 0000 0000 0000 0000 0000 0000 0000
00000040: 0000 0000 0000 0000 0000 0000 0000 0000
00000050: 0000 0000 0000 0000 0000 0000 0000 0000
00000060: 0000 0000 0000 0000 0000 0000 0000 0000
00000070: 0000 0000 0000 0000 0000 0000 6e35 cb3e
00000080: 0000 0000 0000 0000 0000 0000 0000 0000
00000090: 0000 0000 0000 0000 0000 0000 0000 0000
000000a0: 0000 0000 0000 0000 0000 0000 0000 0000
000000b0: 0000 0000 0000 0000 0000 0000 b70c 14bf
000000c0: 0000 0000 0000 0000 0000 0000 0000 0000
000000d0: 0000 0000 0000 0000 0000 0000 6310 4f3f
000000e0: 0000 0000 0000 0000 0000 0000 0000 0000
000000f0: 0000 0000 0000 0000 0000 0000 0000 0000
00000100: 0000 0000 0000 0000 0000 0000 0000 0000
00000110: 0000 0000 0000 0000 0000 0000 0000 0000
00000120: 0000 0000 0000 0000 0000 0000 0000 0000
00000130: 0000 0000 0000 0000 0000 0000 0000 0000
00000140: 0000 0000 0000 0000 b600 a1bd 0000 0000
00000150: 0000 0000 6af9 5a3f 0000 0000 0000 0000
00000160: 0000 0000 0000 0000 0000 0000 0000 0000
00000170: 0000 0000 0000 0000 0000 0000 0000 0000
00000180: 0000 0000 0000 0000 0000 0000 0000 0080
00000190: 0000 0000 0000 0000 0000 0000 0000 0000
000001a0: 0000 0000 0000 0000 0000 0000 0000 0000
000001b0: 0000 0000 0000 0000 0000 0000 0000 0000
000001c0: 0000 0000 0000 0000 0000 0000 0000 0000
000001d0: 0000 0000 0000 0000 8e60 503f 0000 0000
000001e0: 0000 0000 0000 0000 0000 0000 0000 0000
000001f0: 0000 0000 0000 0000 0000 0000 0000 0000
00000200: 0000 0000 0000 0000 0000 0000 0000 0000
00000210: 0000 0000 0000 0000 0000 0000 2074 3dbf
00000220: 0000 0000 0000 0000 0000 0000 0000 0000
00000230: 0000 0000 0000 0000 0000 0000 0000 0000
00000240: 0000 0000 0000 0000 0000 0000 0000 0000
00000250: 0000 0000 0000 0000 0000 0000 0000 0000
00000260: 0000 0000 0000 0000 0000 0000 0000 0000
00000270: 0000 0000 0000 0000 0000 0000 0000 0000
00000280: 0000 0000 0000 0000 0000 0000 0000 0000
00000290: 0000 0000 0000 0000 0000 0000 0000 0000
000002a0: 0000 0000 0000 0000 0000 0000 0000 0000
000002b0: 0000 0000 5ed6 433f 0000 0000 0000 0000
000002c0: 0000 0000 0000 0000 0000 0000 0000 0000
000002d0: 0000 0000 0000 0000 0000 0000 0000 0000
000002e0: 0000 0000 0000 0000 0000 0000 0000 0000
000002f0: 0000 0000 0000 0000 0000 0000 0000 0000
00000300: 0000 0000 0000 0000 0000 0000 0000 0000
00000310: 0000 0000 0000 0080 0000 0000 0000 0000
00000320: b519 45bf 0000 0000 0000 0000 0000 0000
00000330: 0000 0000 0000 0000 0000 0000 0000 0000
00000340: 0000 0000 0000 0000 0000 0000 0000 0000
00000350: 0000 0000 0000 0000 0000 0000 0000 0000
00000360: 0000 0000 0000 0000 0000 0000 0000 0000
00000370: 0000 0000 06b2 48bf 0000 0000 0000 0000
00000380: 0000 0000 0000 0000 0000 0000 0000 0000
00000390: 0000 0000 0000 0000 0000 0000 0000 0000
000003a0: 0000 0000 0000 0000 f551 3dbf 0000 0000
000003b0: 0000 0000 0000 0000 0000 0000 0000 0000
000003c0: 0000 0000 0000 0000 0000 0000 0000 0000
000003d0: 0000 0000 0000 0000 0000 0000 0000 0000
000003e0: 0000 0000 0000 0000 0000 0000 0000 0000
000003f0: 93d7 34be 0000 0000 0000 0000 0000 0000

hidden.bias f4 [26]
2.4312782 3.8626428 2.438965 2.585535 2.5057943 2.9490182 2.286098 2.520869
2.3869996 2.3732328 2.633102 2.451378 2.2619293 2.6686764 2.535049 2.4202318
2.7192993 2.3847027 2.4442961 2.4654956 2.4943466 2.5195453 2.7549636 3.3767335
2.6538405 2.3321438
00000000: 109a 1b40 8a35 7740 0118 1c40 6879 2540
00000010: ef5e 2040 b7bc 3c40 6e4f 1240 eb55 2140
00000020: 9ac4 1840 0ce3 1740 be84 2840 61e3 1c40
00000030: 73c3 1040 98cb 2a40 3e3e 2240 14e5 1a40
00000040: 0009 2e40 f89e 1840 596f 1c40 aeca 1d40
00000050: 60a3 1f40 3b40 2140 5351 3040 671c 5840
00000060: 86d8 2940 d841 1540

output.weight f4 [1024, 26]
0.9868834 -0.23195232 -0.88383704 -0.87017226 -0.902878 0.8650166 -1.0366755 0.742398
0.9631104 1.0823399 -0.17841132 -0.85470015 1.1055944 -0.72000957 0.8475774 0.994543
0.52058965 1.0050149 0.8803158 1.0912153 -0.98161304 0.9435076 -1.369389 -1.2454357
-0.81083405 -1.0054295 1.0555898 0.040174145 -0.835159 -0.9522379 1.0229045 1.0196038
-0.9243902 0.85947615 -0.91190916 0.9640714 0.6765777 -0.958435 1.0108951 1.3537458
0.93838286 0.9172827 -0.46706882 0.915664 -0.9626392 -1.0478437 -1.0977534 -0.8950169
1.2549475 -0.8757064 -1.1282555 -1.021322 1.1021185 -1.9138384 -1.0304712 -0.85597277
-0.9015699 0.030162448 -1.0484776 -1.3289653 1.086677 1.1780295 -0.985289 0.9486865
1.0781788 0.7145951 0.95127666 -1.0493294 0.5176667 0.97722834 0.96062785 0.954576
1.0065721 -1.0332723 -1.3113582 -0.55603737 1.1108576 1.0362947 1.0090556 -1.2167573
-1.0208968 -0.8830796 0.9113934 0.43206754 -0.9576052 -1.1926646 -0.9640007 1.0372772
-0.31383443 0.8556505 0.8743064 -1.3045902 0.95106393 -0.88103 -0.5570123 0.9343257
-0.90363234 -0.99620706 0.9867867 0.94452906 1.3417851 -0.044416443 0.73091495 1.1066552
0.8489176 -1.5871977 -0.8760752 0.8618619 0.86426777 0.052056186 1.0276177 0.71467453
0.9650263 1.1026194 -1.383341 0.9728177 1.1164693 -0.7279515 1.0192522 0.9084582
-1.3361459 1.0131124 -0.9804799 1.0397469 -0.994521 -0.9672188 -0.46224713 -2.3240945
0.72809786 0.9868948 0.88210064 -2.426806 -0.9802671 0.8197742 -0.9417805 -0.29011485
1.1328107 0.881726 -1.0132377 1.1393989 -2.784458 0.89582103 0.9076427 1.26731
0.90534717 0.98167413 1.2050426 0.9078012 1.012426 -1.0584168 -1.028129 0.8482527
0.42519057 -3.0181162 1.1299151 1.0315075 0.9227529 -1.7961402 -1.0113789 0.89385206
0.94303316 0.09451979 0.9969244 -1.213144 0.93769556 1.0727912 0.046690818 -1.0079222
1.1278306 0.64947975 0.94503224 -1.0232605 -1.1873988 0.96885973 -0.9113895 0.9601324
0.9688233 0.929728 -0.43993577 -0.2627848 -1.1099291 -0.93757063 0.87694764 -1.0371022
-0.9945059 0.9687648 -0.9024424 0.44371808 1.0427624 -1.3451734 -1.0191175 1.0089391
1.3273832 -0.8983244 0.97906107 -1.1710055 0.90513885 -0.957717 1.2392466 0.81374145
0.9998781 -0.9654036 0.94399935 -0.99373895 0.49319202 0.35259065 -0.8414384 -1.0198156
1.0561441 -1.2544734 -0.9955843 -0.9872521 0.93352854 0.3943866 1.0547163 -1.2350202
-0.9952734 0.97636765 -0.70336807 -1.0178845 1.1436346 -1.263945 -0.900513 0.98849267
1.2348427 0.9959087 0.98396844 0.9319916 1.0057923 -0.92042243 0.57891977 -1.9524316
0.74353564 0.96093774 1.0680033 -0.33683488 -0.93376374 -0.9300572 -0.931389 0.81501293
1.0874119 -1.2619278 0.9650737 1.0993876 -0.3186048 -1.0284382 0.91908336 0.7659982
-0.90480435 0.9636896 -1.2811455 0.89635444 -0.9381256 -0.9374817 1.0619266 0.9191459
00000000: 64a4 7c3f e984 6dbe 2543 62bf 9cc3 5ebf
00000010: 0323 67bf ba71 5d3f c8b1 84bf cc0d 3e3f
00000020: 678e 763f 1d8a 8a3f 75b1 36be a1cd 5abf
00000030: 1e84 8d3f 8c52 38bf d5fa 583f 5f9a 7e3f
00000040: 5d45 053f 54a4 803f 605c 613f f1ac 8b3f
00000050: fe4a 7bbf b789 713f 2448 afbf 706a 9fbf
00000060: d292 4fbf eab1 80bf 911d 873f a58d 243d
00000070: fbcc 55bf ddc5 73bf 89ee 823f 6182 823f
00000080: d6a4 6cbf a106 5c3f e172 69bf 62cd 763f
00000090: 3234 2d3f ff5b 75bf 0365 813f 8b47 ad3f
000000a0: dc39 703f 0ad3 6a3f a523 efbe f568 6a3f
000000b0: 866f 76bf be1f 86bf 2f83 8cbf d41f 65bf
000000c0: 1fa2 a03f 4b2e 60bf ad6a 90bf aeba 82bf
000000d0: 3812 8d3f a8f8 f4bf 7be6 83bf 0821 5bbf
000000e0: 49cd 66bf 3d17 f73c 8434 86bf 891b aabf
000000f0: 3b18 8b3f acc9 963f e63b 7cbf 1edd 723f
00000100: c301 8a3f b4ef 363f de86 733f 6d50 86bf
00000110: ce85 043f a32b 7a3f b5eb 753f 185f 743f
00000120: 5bd7 803f 4442 84bf 96da a7bf 7758 0ebf
00000130: 9530 8e3f 4ea5 843f bc28 813f b4be 9bbf
00000140: bfac 82bf 8111 62bf 1451 693f f537 dd3e
00000150: 9d25 75bf 3ca9 98bf c0c8 76bf 80c5 843f
00000160: e8ae a0be e90b 5b3f 8bd2 5f3f d0fc a6bf
00000170: ed78 733f 2f8b 61bf 5c98 0ebf f82f 6f3f
00000180: 7354 67bf 6d07 7fbf 0e9e 7c3f a8cc 713f
00000190: 9dbf ab3f 04ee 35bd 3e1d 3b3f e1a6 8d3f
000001a0: aa52 593f 4b29 cbbf 7746 60bf fba2 5c3f
000001b0: a740 5d3f de38 553d fa88 833f e9f4 363f
000001c0: f70b 773f a222 8d3f 5111 b1bf 950a 793f
000001d0: 77e8 8e3f 085b 3abf db76 823f b790 683f
000001e0: d406 abbf abad 813f bb00 7bbf 6d16 853f
000001f0: ee98 7ebf a79b 77bf a8ab ecbe f7bd 14c0
00000200: 9f64 3a3f 23a5 7c3f 59d1 613f ca50 1bc0
00000210: c9f2 7abf b9dc 513f 8718 71bf ef89 94be
00000220: f1ff 903f ccb8 613f c6b1 81bf d3d7 913f
00000230: 8f34 32c0 8754 653f 465b 683f 3737 a23f
00000240: d5c4 673f ff4e 7b3f d63e 9a3f a965 683f
00000250: 2d97 813f 347a 87bf bb99 83bf 1727 593f
00000260: 94b2 d93e d128 41c0 0fa1 903f 7008 843f
00000270: 8939 6c3f ece7 e5bf dd74 81bf 7dd3 643f
00000280: 9f6a 713f 9793 c13d 7036 7f3f 4d48 9bbf
00000290: d10c 703f 3951 893f df3e 3f3d 9803 81bf
000002a0: c15c 903f 4e44 263f a2ed 713f 33fa 82bf
000002b0: affc 97bf 3107 783f d350 69bf 3dcb 753f
000002c0: ce04 783f a702 6e3f 433f e1be bb8b 86be
000002d0: 2812 8ebf a104 70bf a47f 603f c4bf 84bf
000002e0: f097 7ebf f800 783f 7706 67bf 042f e33e
000002f0: 3d79 853f a42e acbf 7172 82bf eb24 813f
00000300: b1e7 a93f 96f8 65bf bfa3 7a3f 82e3 95bf
00000310: 2eb7 673f f12c 75bf a29f 9e3f 5c51 503f
00000320: 03f8 7f3f b124 77bf f1a9 713f ad65 7ebf
00000330: aa83 fc3e c386 b43e 8268 57bf 5189 82bf
00000340: bb2f 873f 9692 a0bf 9dde 7ebf 8ebc 7cbf
00000350: bafb 6e3f 0aed c93e f200 873f 2415 9ebf
00000360: 3dca 7ebf 3bf3 793f ee0f 34bf 0a4a 82bf
00000370: 9e62 923f f3c8 a1bf 0588 66bf db0d 7d3f
00000380: 530f 9e3f dff3 7e3f 5be5 7b3f 0097 6e3f
00000390: cdbd 803f cea0 6bbf 1634 143f 47e9 f9bf
000003a0: 5a58 3e3f 0400 763f 55b4 883f 9f75 acbe
000003b0: 240b 6fbf 3b18 6ebf 826f 6ebf b0a4 503f
000003c0: 5030 8b3f da86 a1bf 120f 773f bcb8 8c3f
000003d0: 2b20 a3be dda3 83bf 0c49 6b3f 7518 443f
000003e0: 42a1 67bf 5db4 763f 93fc a3bf 7c77 653f
000003f0: 0029 70bf cdfe 6fbf 36ed 873f 254d 6b3f

output.bias f4 [1024]
-0.239007 0.09430983 -0.48226446 -0.22014368 -0.4834143 -0.6902241 -0.038195137 0.30147654
-0.4369362 -0.03654468 -0.3345289 0.3653863 0.15009968 0.09412114 -0.16488205 -0.3538473
-0.0025869298 -0.17368968 -0.3769636 0.017289292 -0.411617 -0.6983923 -0.0047597573 0.0430845
-0.15983666 -0.14868687 0.11273592 0.24339972 0.031955976 0.101440124 -0.40992677 0.20490973
0.3194589 -0.301001 -0.38214734 -0.33054247 -0.43316832 0.00555121 -0.18121815 0.41025713
-0.23527287 -0.19286516 0.47407734 0.5367419 0.30696392 0.010380389 -0.14298369 0.10093425
-0.062103998 0.14751412 -0.42886 0.00810487 -0.29512718 -0.36939687 -0.21872056 0.039099988
0.19858877 -0.15998548 0.5409606 0.6522941 0.16511357 0.08808756 -0.016763499 0.18347816
-0.6502028 -0.43147963 -0.4249009 -0.14499299 -0.6277125 -0.3942153 -0.1968017 -0.7610471
-0.21918182 -0.13033919 -0.14373241 -0.538856 -0.77837086 0.020642482 -0.37023056 -0.17608781
-0.6547882 -0.60065013 -0.113999985 -0.4978249 -1.0689402 -0.3604628 -0.4844457 -0.39087954
-0.49502704 -0.0673111 -0.42351758 -0.3056734 -0.8474191 0.029744353 -0.1585838 -0.42393842
-0.62617123 0.0023327179 -0.30300632 -0.29657814 -0.46804535 -0.21289961 -0.40611887 -0.2898319
-0.16003601 -0.31841975 0.110633224 -0.03696382 -0.5884797 -0.18941827 0.035252996 -0.31383902
-0.60421455 -0.25992903 -0.2994385 -0.39796764 -0.63777 0.0075646406 -0.3448857 -0.47259763
-0.6163247 -0.004301046 0.03162526 0.07499666 -0.2879863 -0.53372574 0.021104388 -0.5301101
-0.42830333 0.12893103 -0.25056833 0.1105064 -0.44053456 0.35321912 -0.04623469 0.06071831
0.28918308 0.14422181 0.74009293 -0.29334962 -0.06563406 0.13835405 -0.04254907 -0.10734849
-0.5490148 0.063445576 0.35770094 0.26195925 -0.6460145 0.09683231 -0.14575303 0.14522636
0.21466759 0.3146514 0.3531002 -0.0040097097 -0.014922208 -0.033399627 0.2036792 -0.30498016
0.05715616 0.35133842 0.09557456 0.16362046 -0.008208049 -0.43692622 0.48911834 -0.26470414
-0.019168196 0.49644697 0.32852718 0.5719848 -0.25537813 0.43938944 0.38722357 0.38786724
0.16491863 0.13501473 0.25540298 -0.087175585 0.06149704 -0.0066481074 0.21145473 -0.19093727
-0.39091066 0.7139802 0.21616174 0.6513141 -0.04739671 0.289759 0.54947925 0.64639366
-0.47765192 -0.015802497 -0.38408804 -0.2587666 -0.72056633 -0.5523373 -0.6419033 0.23016985
0.093596555 -0.4967209 0.056411717 0.31761467 0.3076902 -0.09306833 -0.36416498 -0.66567177
-0.4427898 -0.13819636 -0.96423244 0.3814908 -0.6588313 -0.66477394 -0.08013073 -0.09323661
-0.1483721 -0.27772373 0.29005563 0.17030816 0.2487935 -0.18789743 -0.2834141 -0.58041215
0.36201453 -0.35188824 -0.10210425 -0.40401682 -0.44131425 -0.61503375 -0.12695628 0.12100804
-0.57772833 0.019614674 0.038757846 0.7343759 -0.03616145 0.036617197 -0.3595795 0.3518414
0.2068814 -0.009645308 -0.32674485 -0.31720033 -0.13139655 -0.81264573 -0.2782034 0.07631191
-0.2957927 -0.49461636 0.030285217 0.34426752 -0.46476364 0.27879685 -0.3890512 0.55018187
00000000: 40be 74be 8325 c13d 5eeb f6be 586d 61be
00000010: 1482 f7be 87b2 30bf 8172 1cbd 225b 9a3e
00000020: 1ab6 dfbe e0af 15bd 5f47 abbe ea13 bb3e
00000030: bbb3 193e 96c2 c03d d7d6 28be 792b b5be
00000040: 7b89 29bb b5db 31be 5f01 c1be 46a2 8d3c
00000050: 77bf d2be d6c9 32bf bdf7 9bbb 5f79 303d
00000060: 39ac 23be 5f41 18be 17e2 e63d c73d 793e
00000070: 45e4 023d d7bf cf3d ece1 d1be dbd3 513e
00000080: 1e90 a33e ce1c 9abe d1a8 c3be dd3c a9be
00000090: 3dc8 ddbe ede6 b53b 4091 39be 390d d23e
000000a0: 5feb 70be 727e 45be 44ba f23e eb67 093f
000000b0: 602a 9d3e 8212 2a3c 516a 12be 9eb6 ce3d
000000c0: c360 7ebd f10d 173e 8a93 dbbe 4aca 043c
000000d0: e91a 97be 9621 bdbe 48f8 5fbe 4f27 203d
000000e0: db5a 4b3e 3cd3 23be 657c 0a3f bffc 263f
000000f0: 8813 293e 4067 b43d 9b53 89bc b3e1 3b3e
00000100: b173 26bf e6ea dcbe 9c8c d9be 0b79 14be
00000110: c4b1 20bf 96d6 c9be 6386 49be fcd3 42bf
00000120: 3371 60be a377 05be 972e 13be 78f2 09bf
00000130: 5043 47bf 6c1a a93c dc8e bdbe 5d50 34be
00000140: 33a0 27bf 35c4 19bf d378 e9bd e8e2 febe
00000150: 08d3 88bf 958e b8be 4409 f8be 5d21 c8be
00000160: 2f74 fdbe 67da 89bd 4cd7 d8be 3981 9cbe
00000170: 75f0 58bf 6eaa f33c cb63 22be 750e d9be
00000180: c24c 20bf 83e0 183b a523 9bbe 17d9 97be
00000190: a4a3 efbe 5b02 5abe d0ee cfbe d964 94be
000001a0: 7be0 23be ea07 a3be ac93 e23d 6067 17bd
000001b0: 9ba6 16bf ddf6 41be 7265 103d 82af a0be
000001c0: cead 1abf 6b15 85be 0150 99be 6ac2 cbbe
000001d0: e544 23bf cee0 f73b dc94 b0be 51f8 f1be
000001e0: 75c7 1dbf caef 8cbb 7d89 013d d997 993d
000001f0: f172 93be 40a2 08bf 1ce3 ac3c 4cb5 07bf
00000200: 934a dbbe 7f06 043e 7e4a 80be 2e51 e23d
00000210: bf8d e1be 23d9 b43e 9660 3dbd c3b3 783d
00000220: ce0f 943e e2ae 133e bb76 3d3f ec31 96be
00000230: 266b 86bd afac 0d3e ef47 2ebd 86d9 dbbd
00000240: 3c8c 0cbf c1ef 813d 9424 b73e 861f 863e
00000250: 3561 25bf 0550 c63d 4840 15be 38b6 143e
00000260: d2d1 5b3e fd19 a13e 8dc9 b43e e263 83bb
00000270: 477c 74bc 0cce 08bd 4891 503e 5c26 9cbe
00000280: 941c 6a3d a1e2 b33e 98bc c33d 1f8c 273e
00000290: 0e7b 06bc cbb4 dfbe b86d fa3e 4d87 87be
000002a0: 9f06 9dbc 4c2e fe3e b734 a83e 996d 123f
000002b0: ecc0 82be a7f7 e03e 2b42 c63e 8996 c63e
000002c0: 6ee0 283e 4d41 0a3e 2ec4 823e 1d89 b2bd
000002d0: 52e4 7b3d 5ed8 d9bb 9787 583e 0f85 43be
000002e0: 7125 c8be 68c7 363f 8159 5d3e 85bc 263f
000002f0: 0d23 42bd 4b5b 943e acaa 0c3f 0e7a 253f
00000300: cb8e f4be 3d74 81bc 30a7 c4be 0e7d 84be
00000310: 0977 38bf fa65 0dbf c653 24bf a5b1 6b3e
00000320: 8daf bf3d 3452 febe f90f 673d 649e a23e
00000330: 9289 9d3e 9c9a bebd d573 babe 7769 2abf
00000340: 58b5 e2be 5983 0dbe f0d7 76bf c352 c33e
00000350: 2ba9 28bf a02e 2abf 951b a4bd d6f2 bebd
00000360: dbee 17be ce31 8ebe 2c82 943e 4365 2e3e
00000370: b9c3 7e3e 2f68 40be a71b 91be e495 14bf
00000380: f859 b93e b22a b4be 081c d1bd 4bdb cebe
00000390: f1f3 e1be da72 1dbf d400 02be 10d3 f73d
000003a0: 01e6 13bf f4ae a03c 8cc0 1e3d 0f00 3c3f
000003b0: 071e 14bd eafb 153d ce1a b8be 8e24 b43e
000003c0: b8d8 533e 5b07 1ebc 1a4b a7be 1568 a2be
000003d0: d18c 06be 8d09 50bf ad70 8ebe 6b49 9c3d
000003e0: 2472 97be 5b3e fdbe b418 f83c d543 b03e
000003f0: 80f5 edbe 76be 8e3e b831 c7be b8d8 0c3f
