Result/Model/Parity26_10/26_ft_cpu/SLNN_deleted620_order16.pth (torch, 115664 bytes, 4 tensors)

hidden.weight f4 [26, 26]
000000 00 00 00 00 00 00 00 00 00 00 00 00 00 00 00 00
       0.0 0.0 0.0 0.0
000010 fa d3 54 bf 00 00 00 00 1d 7b 6f 3c 00 00 00 00
       -0.8313595 0.0 0.014616755 0.0
000020 00 00 00 00 00 00 00 00 00 00 00 00 00 00 00 00
       0.0 0.0 0.0 0.0
000030 00 00 00 00 00 00 00 00 00 00 00 00 00 00 00 00
       0.0 0.0 0.0 0.0
000040 00 00 00 00 00 00 00 00 00 00 00 00 00 00 00 00
       0.0 0.0 0.0 0.0
000050 00 00 00 00 00 00 00 00 00 00 00 00 00 00 00 00
       0.0 0.0 0.0 0.0
000060 00 00 00 00 00 00 00 00 00 00 00 00 00 00 00 00
       0.0 0.0 0.0 0.0
000070 00 00 00 00 00 00 00 00 00 00 00 00 12 e1 da 3e
       0.0 0.0 0.0 0.4274984
000080 00 00 00 00 00 00 00 00 00 00 00 00 00 00 00 00
       0.0 0.0 0.0 0.0
000090 00 00 00 00 00 00 00 00 00 00 00 00 00 00 00 00
       0.0 0.0 0.0 0.0
0000a0 00 00 00 00 00 00 00 00 00 00 00 00 00 00 00 00
       0.0 0.0 0.0 0.0
0000b0 00 00 00 00 00 00 00 00 00 00 00 00 4c 63 19 bf
       0.0 0.0 0.0 -0.5991714
0000c0 00 00 00 00 00 00 00 00 00 00 00 00 00 00 00 00
       0.0 0.0 0.0 0.0
0000d0 00 00 00 00 00 00 00 00 00 00 00 00 1b 55 59 3f
       0.0 0.0 0.0 0.84895486
0000e0 00 00 00 00 00 00 00 00 00 00 00 00 00 00 00 00
       0.0 0.0 0.0 0.0
0000f0 00 00 00 00 00 00 00 00 00 00 00 00 00 00 00 00
       0.0 0.0 0.0 0.0
000100 00 00 00 00 00 00 00 00 00 00 00 00 00 00 00 00
       0.0 0.0 0.0 0.0
000110 00 00 00 00 00 00 00 00 00 00 00 00 00 00 00 00
       0.0 0.0 0.0 0.0
000120 00 00 00 00 00 00 00 00 00 00 00 00 00 00 00 00
       0.0 0.0 0.0 0.0
000130 00 00 00 00 00 00 00 00 00 00 00 00 00 00 00 00
       0.0 0.0 0.0 0.0
000140 00 00 00 00 00 00 00 00 b3 a9 c3 bd 00 00 00 00
       0.0 0.0 -0.09553852 0.0
000150 00 00 00 00 f8 5e 65 3f 00 00 00 00 00 00 00 00
       0.0 0.89598036 0.0 0.0
000160 00 00 00 00 00 00 00 00 00 00 00 00 00 fe 98 bc
       0.0 0.0 0.0 -0.018675804
000170 00 00 00 00 00 00 00 00 00 00 00 00 00 00 00 00
       0.0 0.0 0.0 0.0
000180 00 00 00 00 00 00 00 00 00 00 00 00 62 1a 05 bd
       0.0 0.0 0.0 -0.032495864
000190 00 00 00 00 00 00 00 00 00 00 00 00 00 00 00 00
       0.0 0.0 0.0 0.0
0001a0 00 00 00 00 00 00 00 00 00 00 00 00 00 00 00 00
       0.0 0.0 0.0 0.0
0001b0 00 00 00 00 00 00 00 00 00 00 00 00 00 00 00 00
       0.0 0.0 0.0 0.0
0001c0 00 00 00 00 00 00 00 00 00 00 00 00 00 00 00 00
       0.0 0.0 0.0 0.0
0001d0 00 00 00 00 00 00 00 00 e8 84 56 3f 00 00 00 00
       0.0 0.0 0.8379655 0.0
0001e0 00 00 00 00 00 00 00 00 00 00 00 00 00 00 00 00
       0.0 0.0 0.0 0.0
0001f0 00 00 00 00 00 00 00 00 00 00 00 00 57 37 4c 3e
       0.0 0.0 0.0 0.19942985
000200 00 00 00 00 00 00 00 00 00 00 00 00 00 00 00 00
       0.0 0.0 0.0 0.0
000210 00 00 00 00 00 00 00 00 00 00 00 00 1a 29 45 bf
       0.0 0.0 0.0 -0.7701584
000220 00 00 00 00 00 00 00 00 00 00 00 00 00 00 00 00
       0.0 0.0 0.0 0.0
000230 00 00 00 00 00 00 00 00 00 00 00 00 00 00 00 00
       0.0 0.0 0.0 0.0
000240 00 00 00 00 00 00 00 00 00 00 00 00 00 00 00 00
       0.0 0.0 0.0 0.0
000250 00 00 00 00 00 00 00 00 00 00 00 00 00 00 00 00
       0.0 0.0 0.0 0.0
000260 00 00 00 00 00 00 00 00 00 00 00 00 00 00 00 00
       0.0 0.0 0.0 0.0
000270 00 00 00 00 00 00 00 00 00 00 00 00 00 00 00 00
       0.0 0.0 0.0 0.0
000280 00 00 00 00 00 00 00 00 00 00 00 00 00 00 00 00
       0.0 0.0 0.0 0.0
000290 00 00 00 00 00 00 00 00 00 00 00 00 00 00 00 00
       0.0 0.0 0.0 0.0
0002a0 00 00 00 00 00 00 00 00 00 00 00 00 00 00 00 00
       0.0 0.0 0.0 0.0
0002b0 3e c8 3d 3e 08 81 4f 3f 00 00 00 00 18 39 3e bd
       0.18533418 0.8105626 0.0 -0.046441168
0002c0 00 00 00 00 00 00 00 00 00 00 00 00 00 00 00 00
       0.0 0.0 0.0 0.0
0002d0 00 00 00 00 00 00 00 00 00 00 00 00 00 00 00 00
       0.0 0.0 0.0 0.0
0002e0 00 00 00 00 00 00 00 00 00 00 00 00 00 00 00 00
       0.0 0.0 0.0 0.0
0002f0 00 00 00 00 00 00 00 00 00 00 00 00 00 00 00 00
       0.0 0.0 0.0 0.0
000300 00 00 00 00 00 00 00 00 00 00 00 00 00 00 00 00
       0.0 0.0 0.0 0.0
000310 00 00 00 00 94 11 d1 bd 00 00 00 00 00 00 00 00
       0.0 -0.10208431 0.0 0.0
000320 00 00 00 80 00 00 00 00 00 00 00 00 00 00 00 00
       -0.0 0.0 0.0 0.0
000330 00 00 00 00 00 00 00 00 00 00 00 00 00 00 00 00
       0.0 0.0 0.0 0.0
000340 00 00 00 00 00 00 00 00 00 00 00 00 00 00 00 00
       0.0 0.0 0.0 0.0
000350 00 00 00 00 00 00 00 00 00 00 00 00 00 00 00 00
       0.0 0.0 0.0 0.0
000360 00 00 00 00 00 00 00 00 00 00 00 00 00 00 00 00
       0.0 0.0 0.0 0.0
000370 00 00 00 00 2f 53 51 bf 00 00 00 00 00 00 00 00
       0.0 -0.81767553 0.0 0.0
000380 00 00 00 00 00 00 00 00 00 00 00 00 00 00 00 00
       0.0 0.0 0.0 0.0
000390 00 00 00 00 00 00 00 00 00 00 00 00 00 00 00 00
       0.0 0.0 0.0 0.0
0003a0 00 00 00 00 00 00 00 00 28 2b 49 bf 00 00 00 00
       0.0 0.0 -0.78581476 0.0
0003b0 00 00 00 00 00 00 00 00 00 00 00 00 00 00 00 00
       0.0 0.0 0.0 0.0
0003c0 00 00 00 00 00 00 00 00 00 00 00 00 00 00 00 00
       0.0 0.0 0.0 0.0
0003d0 00 00 00 00 00 00 00 00 00 00 00 00 00 00 00 00
       0.0 0.0 0.0 0.0
0003e0 00 00 00 00 00 00 00 00 00 00 00 00 00 00 00 00
       0.0 0.0 0.0 0.0
0003f0 39 60 62 be 00 00 00 00 00 00 00 00 00 00 00 00
       -0.22107019 0.0 0.0 0.0

hidden.bias f4 [26]
000000 98 50 26 40 10 4d 7a 40 6a ee 21 40 ea 8a 2b 40
       2.598669 3.9109535 2.5301766 2.6803536
000010 f4 14 25 40 c0 f6 3f 40 4a e9 28 40 e4 d4 29 40
       2.5794039 2.9994354 2.6392388 2.6536188
000020 6b bc 1f 40 92 e5 28 40 74 cf 3d 40 c6 11 21 40
       2.4958751 2.6390119 2.965787 2.5167098
000030 8f 6d 27 40 9e c8 31 40 79 3f 25 40 82 fc 22 40
       2.616062 2.7778697 2.581999 2.5466619
000040 24 71 32 40 a6 3c 2a 40 a9 a6 22 40 86 27 29 40
       2.7881556 2.6599517 2.5414221 2.6430373
000050 fe 65 24 40 a6 4a 29 40 2c db 34 40 d0 20 5a 40
       2.568725 2.6451812 2.8258772 3.4082527
000060 28 7c 35 40 ab e4 2a 40
       2.835703 2.6702068

output.weight f4 [1024, 26]
000000 6a de 90 3f 1e 9b 00 be a7 cf 74 bf 7d df 64 bf
       1.1317875 -0.12559173 -0.9562935 -0.89403516
000010 4f 01 5b bf f9 a4 5a 3f d2 3d 91 bf 93 e4 39 3f
       -0.8554887 0.8540798 -1.1346991 0.726144
000020 07 67 58 3f 4f ec 2e 3f c2 77 b6 bd f2 e5 6c bf
       0.8453221 0.6832933 -0.08909561 -0.9253837
000030 87 ad 63 3f 93 2a 15 bf ae e0 65 3f c5 55 69 3f
       0.88936657 -0.5826809 0.8979596 0.911465
000040 b5 8a 17 3f 37 92 75 3f 4d 23 5c 3f c8 34 45 3f
       0.59196025 0.9592623 0.85991365 0.7703366
000050 9c c3 79 bf 67 86 56 3f ce 9c a9 bf b9 3a 8e bf
       -0.975641 0.8379883 -1.3250978 -1.1111671
000060 49 af 26 bf 95 e1 30 bf 38 36 90 3f 40 83 ec 3d
       -0.65111214 -0.6909421 1.1266546 0.115484715
000070 a4 30 5b bf b4 be 6e bf 1f 9d 65 3f e1 e4 54 3f
       -0.85621095 -0.9325974 0.8969287 0.8316174
000080 a4 d2 93 bf e5 32 67 3f 78 89 4e bf 21 d9 2b 3f
       -1.1548657 0.90312034 -0.8067851 0.6712819
000090 b9 05 2a 3f 8a 29 58 bf 37 9a 8e 3f 58 06 94 3f
       0.6641498 -0.84438384 1.1140813 1.1564436
0000a0 d5 0d 7b 3f 37 07 62 3f 64 12 04 bf 66 fb 5e 3f
       0.9806798 0.8829226 -0.5159056 0.87102354
0000b0 b7 ef 57 bf 4d 36 88 bf 8b 5e 5e bf c4 2e 78 bf
       -0.8435015 -1.0641571 -0.8686301 -0.9694636
0000c0 d0 e2 9f 3f 08 49 6c bf 05 0b 8a bf 40 90 37 bf
       1.2491093 -0.92298937 -1.0784613 -0.71704483
0000d0 42 fd 43 3f c6 52 f6 bf 3d 6f 6e bf c0 76 4b bf
       0.76558316 -1.924401 -0.93138486 -0.79478073
0000e0 10 97 79 bf cb 6b 6c 3e c8 8e 97 bf 31 64 8b bf
       -0.9749613 0.23087995 -1.1840448 -1.0889951
0000f0 c4 bf 3f 3f d2 75 12 3f 73 43 74 bf 45 3d 56 3f
       0.74901986 0.5721103 -0.9541542 0.8368724
000100 07 3d a6 3f 47 c9 1c 3f df e0 5f 3f 62 e2 69 bf
       1.2987374 0.61244625 0.874525 -0.9136106
000110 65 22 16 3f e6 eb 6b 3f e3 20 76 3f ce fd 87 3f
       0.5864623 0.9215683 0.9614393 1.062433
000120 ce c1 81 3f a5 16 55 bf 7b ab 9f bf 4b c6 23 bf
       1.013727 -0.8323768 -1.2474207 -0.63974446
000130 96 82 92 3f 48 88 a6 3f 7b 4c 4b 3f ea 0e 98 bf
       1.1446102 1.301034 0.79413575 -1.1879551
000140 66 8b 86 bf e8 c3 3b bf d8 fd 4f 3f 3b f8 c7 3e
       -1.0511291 -0.73345804 0.8124671 0.39056572
000150 6b e1 aa bf 04 64 97 bf 51 a6 55 bf c9 3e 41 3f
       -1.3350042 -1.1827397 -0.83456904 0.7548643
000160 da 46 9f be 38 73 57 3f 44 94 23 3f a0 bd 9c bf
       -0.31108743 0.84160185 0.6389811 -1.2245369
000170 98 00 7b 3f c9 0b 53 bf 73 33 c7 be 0c 30 76 3f
       0.9804778 -0.8243986 -0.3890644 0.96167064
000180 ee a0 4c bf fa 8e 56 bf 66 24 6a 3f 2e 76 6c 3f
       -0.7993306 -0.83811915 0.9146179 0.9236783
000190 73 3e a1 3f f0 67 a5 bd 3d 18 48 3f 5f 1d a3 3f
       1.2597183 -0.08076465 0.78161985 1.2743338
0001a0 f1 bf 2d 3f 77 4a b6 bf 92 ba 7b bf c5 9e 5f 3f
       0.67871004 -1.4241475 -0.9833156 0.8735164
0001b0 6c af 6d 3f ea d7 4c 3e cc 96 36 3f e8 00 33 3f
       0.928458 0.2000424 0.7132385 0.6992326
0001c0 fb b5 30 3f 6c ee 39 3f b6 ba 9e bf 3f 1d 8b 3f
       0.6902768 0.7262943 -1.240073 1.08683
0001d0 a1 53 82 3f 63 59 ff be 40 94 79 3f 57 41 6c 3f
       1.0181772 -0.49872884 0.97491837 0.922872
0001e0 8d 1f a9 bf 50 43 72 3f 05 8c 76 bf ab 1f 82 3f
       -1.3212754 0.9463396 -0.963074 1.0165914
0001f0 86 99 80 bf fe 6d 70 bf b3 c1 01 bf 48 e8 0a c0
       -1.0046852 -0.93917835 -0.50686187 -2.1704273
000200 c0 5b 2f 3f 00 81 23 3f a9 da 3c 3f 76 54 19 c0
       0.68499374 0.63868713 0.7377115 -2.39578
000210 45 25 65 bf 1c 1d 3a 3f ec e4 81 bf b4 09 e0 bd
       -0.89509994 0.7270067 -1.0147986 -0.10939351
000220 34 88 32 3f 1c ba 3a 3f e4 5a 52 bf de f5 28 3f
       0.6973908 0.7294023 -0.8216994 0.66000164
000230 64 12 2c c0 42 3b 88 3f 77 7a 78 3f fb 48 a3 3f
       -2.6886225 1.0643084 0.97061867 1.2756647
000240 00 94 65 3f 87 f1 7b 3f 3b 03 9d 3f bc 48 5e 3f
       0.89678955 0.98415416 1.2266611 0.86829734
000250 7d ea 59 3f 93 09 50 bf fe 5b 83 bf 03 f7 61 3f
       0.85123426 -0.8126461 -1.0262449 0.88267535
000260 ef e6 f9 3e 38 5f 37 c0 92 8e 96 3f 86 df 39 3f
       0.48809 -2.8651867 1.1762259 0.72606695
000270 f6 c3 73 3f 12 41 ca bf c5 ee 4f bf 9c ca 5b 3f
       0.9522089 -1.5801108 -0.8122371 0.8585603
000280 1d 7c 67 3f 17 ff 89 bd 7a cd 2b 3f ad 91 97 bf
       0.90423757 -0.06738108 0.6711041 -1.1841332
000290 3e 19 43 3f 26 44 0d 3f 8f 52 53 3e d8 07 84 bf
       0.7621039 0.5518211 0.20636962 -1.0314894
0002a0 0f e8 9b 3f 0e f7 1e 3f 2c c6 5f 3f f9 0d 73 bf
       1.2180194 0.62095726 0.8741176 -0.94943196
0002b0 b1 38 95 bf a4 63 7f 3f f5 36 7e bf 89 48 54 3f
       -1.1657926 0.99761415 -0.9930261 0.8292318
0002c0 d7 07 7a 3f 47 a6 46 3f 95 b4 d6 be bc cb 92 3d
       0.9766821 0.7759747 -0.41934648 0.071677655
0002d0 8b b3 9a bf e4 98 7c bf 34 b9 81 3f 7c e9 73 bf
       -1.2086042 -0.9867079 1.0134645 -0.95278144
0002e0 13 8f 7a bf a2 34 5b 3f a9 b5 70 bf dc b0 da 3e
       -0.97874564 0.85627186 -0.9402719 0.42713058
0002f0 3a 52 45 3f df 73 94 bf 90 e4 60 bf ad d6 52 3f
       0.7707859 -1.1597861 -0.8784876 0.8235882
000300 f0 f4 b0 3f 6d 99 82 bf 56 16 24 3f e6 ff 93 bf
       1.3824749 -1.0203072 0.6409658 -1.1562469
000310 01 19 55 3f f1 c8 6a bf 09 f7 92 3f 01 17 6d 3f
       0.8324128 -0.9171286 1.1481639 0.92613226
000320 49 52 65 3f f0 4a 73 bf ea 7b 72 3f dd 30 57 bf
       0.8957868 -0.9503622 0.9472033 -0.84058934
000330 d9 60 dd 3e 82 b9 cb 3e a3 16 37 bf 41 d2 6e bf
       0.4323795 0.3978997 -0.71518916 -0.9328957
000340 4b 0d 5b 3f 45 20 86 bf 76 4d 8a bf a0 1f 67 bf
       0.8556716 -1.0478598 -1.0804889 -0.9028263
000350 b3 24 77 3f 9b 56 25 3f 43 55 5b 3f e0 c6 8f bf
       0.96540374 0.64585274 0.85676974 -1.1232567
000360 e8 7e 7c bf 78 ad 38 3f 3d a6 07 bf 19 4f 8a bf
       -0.98631144 0.7213969 -0.52988034 -1.0805389
000370 19 f5 74 3f 0f 38 9c bf 1b 0c 4e bf 61 c0 57 3f
       0.9568649 -1.2204608 -0.8048722 0.8427792
000380 be df 97 3f 64 d6 63 3f 39 0d 74 3f 41 8e 65 3f
       1.1865156 0.8899901 0.95332676 0.8967019
000390 69 73 6f 3f 30 b7 5a bf 7e 91 d1 3e f0 be e2 bf
       0.93535477 -0.8543577 0.40931314 -1.771452
0003a0 5b c7 33 3f a9 1f 26 3f 75 ab 73 3f 3d 9b e6 be
       0.7022607 0.6489206 0.951835 -0.45040312
0003b0 8a 38 60 bf 35 dc 6f bf 0f 24 6c bf f3 e0 69 3f
       -0.8758627 -0.93695384 -0.9224252 0.9135887
0003c0 0c 7c 3e 3f 96 74 98 bf 5f 86 97 3f 44 4c 3d 3f
       0.7440803 -1.1910579 1.1837882 0.739445
0003d0 ad 0f af be a2 b6 8e bf e7 1d 81 3f 0f 3d 2f 3f
       -0.34191647 -1.1149485 1.008725 0.68452543
0003e0 af 53 60 bf e6 0b 63 3f 1c de 9a bf 49 42 6d 3f
       -0.8762769 0.8869003 -1.2099032 0.9267927
0003f0 5c 92 62 bf aa f1 37 bf f1 40 7f 3f 6f d7 75 3f
       -0.88504577 -0.71853125 0.9970847 0.9603185

output.bias f4 [1024]
000000 9d 96 4a be 4b 2e ad 3d 24 89 ed be 10 14 5d be
       -0.19784017 0.08456095 -0.46393692 -0.21589684
000010 93 ee d3 be 2a c0 22 bf 64 59 0f 3d f7 4b a5 3e
       -0.41392955 -0.6357447 0.03499736 0.3228452
000020 55 fb b4 be da 46 34 bd 75 c8 a8 be 54 a4 b5 3e
       -0.35348 -0.04401288 -0.32965437 0.35476935
000030 0b 72 30 3e d5 f8 1d 3e 9f d2 26 be d4 c3 a5 be
       0.17231004 0.15426953 -0.16291283 -0.32375968
000040 dc 32 a5 3c 28 de 06 be f9 1e c1 be e1 a9 fd 3b
       0.020165853 -0.13170683 -0.37718943 0.0077411984
000050 6b 87 8b be 21 4d 16 bf 30 48 06 3c 08 a4 98 3d
       -0.27251753 -0.5871144 0.008195922 0.074531615
000060 39 a4 e9 bd bd 49 0e be 25 94 f7 3d 2f 84 90 3e
       -0.11408276 -0.13895316 0.12088803 0.28225848
000070 d9 ae 9d 3d 68 aa bf 3d 82 00 c0 be 32 59 65 3e
       0.07699365 0.09358674 -0.37500387 0.22397307
000080 d7 9a bf 3e 62 8c 4e be f5 bf c4 be 1f e5 92 be
       0.3742282 -0.2017074 -0.38427702 -0.2869043
000090 d7 d6 b8 be b5 be 08 3a 8e a1 0a be 75 02 c4 3e
       -0.3610141 0.0005216406 -0.1353819 0.38283125
0000a0 b5 3a 77 be a4 08 82 be bd 45 eb 3e f1 92 03 3f
       -0.24143489 -0.25397217 0.45951644 0.5139609
0000b0 d2 2b b3 3e f3 b3 8a 3d 57 ba cb bd 2d c9 43 3e
       0.3499437 0.06772604 -0.09947651 0.19119711
0000c0 3c d3 ea bc 72 e1 02 3e 3e c4 c8 be 0a 9b f8 3c
       -0.028665178 0.12781313 -0.3921222 0.030347366
0000d0 dc 4a 86 be a8 b8 c0 be 9f 31 4e be 60 31 9c 3d
       -0.26228988 -0.37640882 -0.20136116 0.07626605
0000e0 a3 bd 64 3e 1d 6a 4e be d0 c6 0b 3f 3b 1b 23 3f
       0.22337966 -0.20157667 0.5460024 0.63713425
0000f0 a3 4e 58 3e fd 94 e6 3d 6a 29 cd 3b 3a 52 7e 3e
       0.21123748 0.11258886 0.0062610405 0.24836054
000100 e8 47 30 bf 91 70 db be 7e c8 9f be 62 eb 1e be
       -0.6885972 -0.4285932 -0.3120765 -0.15519479
000110 c2 06 0f bf 3a 52 b7 be 82 e9 91 bd b7 29 39 bf
       -0.55869687 -0.3580492 -0.07124616 -0.72329277
000120 a0 cc 27 be ef 4e 0e bd e6 ab d7 bd 2d e9 12 bf
       -0.16386652 -0.034743246 -0.10530834 -0.5738705
000130 fa bd 2e bf 2d 81 bb 3d 43 45 95 be aa 9d 39 be
       -0.6825863 0.09155498 -0.29154405 -0.1812655
000140 23 b6 28 bf 8c 30 0b bf a5 14 65 bd 2f b7 f0 be
       -0.6590292 -0.5437095 -0.05592789 -0.47014758
000150 0c dd 6d bf cd e8 9c be 38 b4 d5 be b6 64 c7 be
       -0.92915416 -0.30646363 -0.41739058 -0.38944024
000160 bc 83 e4 be 38 b7 48 bd 48 b1 c8 be 38 eb a4 be
       -0.44631755 -0.049002856 -0.39197755 -0.32210708
000170 3a 8c 4b bf c7 81 90 3c 17 ef df bd 17 99 e4 be
       -0.79510844 0.017640008 -0.10934275 -0.44648048
000180 4d be 13 bf e2 1e 58 3d 07 5a 6a be 93 44 9a be
       -0.5771225 0.052763827 -0.22885905 -0.30130443
000190 9e bf da be 8a d7 01 be 48 fc be be 98 83 94 be
       -0.42724317 -0.12679878 -0.3730185 -0.29006648
0001a0 fd 2e e4 bd a8 38 a1 be 27 8f 01 3e 84 62 2e bd
       -0.11141775 -0.31488538 0.12652265 -0.04257442
0001b0 a8 2d 0c bf 0a e6 00 be f9 1a 1b 3e f4 6f 83 be
       -0.54757166 -0.12587753 0.15147008 -0.2567135
0001c0 60 e6 15 bf 21 37 76 be 51 9e 53 be c2 00 c4 be
       -0.5855465 -0.24044468 -0.20665862 -0.38281828
0001d0 ef 82 0f bf bb 64 fd 3c 0a 3d a3 be 87 37 e7 be
       -0.56059164 0.030931821 -0.31882507 -0.45159552
0001e0 85 c4 07 bf a4 7b 88 3d 85 e4 b2 3b 2f 79 23 3c
       -0.5303424 0.066642076 0.0054593706 0.009977623
0001f0 92 47 91 be b6 3d f9 be f7 97 78 3d 16 f4 f7 be
       -0.28374916 -0.48679894 0.0606918 -0.4842841
000200 dc c2 c0 be 49 1d 06 3e bb 60 6f be 08 b6 e5 3d
       -0.37648666 0.13097109 -0.23376743 0.1121636
000210 97 d8 cb be 03 86 af 3e 88 80 ad bc c0 52 ba 3c
       -0.39813682 0.3428193 -0.021179453 0.022744536
000220 70 1b 8f 3e f2 a0 17 3e 30 e6 20 3f ce 7e 9a be
       0.2795062 0.1480749 0.6285124 -0.3017487
000230 aa 40 55 bd ac f2 19 3e 3e 8f 7d 3a cc 2f b2 bd
       -0.05206362 0.15033978 0.0009672529 -0.08700523
000240 79 67 0d bf 49 47 67 3d 83 a3 c5 3e 9a 80 81 3e
       -0.5523601 0.056464467 0.38601312 0.25293428
000250 1a d3 20 bf ff 25 d2 3d 8f f6 2a be 69 d2 58 3d
       -0.62822115 0.102611534 -0.16695617 0.052935038
000260 76 a1 44 3e 23 de b4 3e 90 9f b1 3e 01 00 53 bd
       0.19202217 0.35325727 0.3469205 -0.051513676
000270 ba 5b ce bc 7f f1 fe bc b4 de 88 3e b2 51 72 be
       -0.025190223 -0.031121014 0.2673241 -0.23663977
000280 9e 15 41 3d c9 57 aa 3e 1e c9 05 3e 0c 4f ec 3d
       0.047139756 0.332701 0.13065001 0.115385145
000290 ec 2a 79 3c de 83 b1 be 5f c9 ef 3e 2a f3 86 be
       0.015207987 -0.3467092 0.4683332 -0.26357394
0002a0 17 5e dc 3c 77 36 f5 3e dd 1a be 3e 98 77 0d 3f
       0.026900334 0.47893116 0.3712987 0.5526061
0002b0 d1 d9 7d be 64 c0 d8 3e 98 4f cf 3e 3d c3 c2 3e
       -0.24790122 0.42334282 0.40490413 0.3803958
0002c0 9d bf 1c 3e f7 19 0d 3e 9d 72 7c 3e e6 d6 aa bd
       0.1530747 0.13779436 0.24653096 -0.0834177
0002d0 23 8f 95 3d 9d a8 ef 3c a4 b8 3e 3e c4 d1 59 be
       0.07302692 0.029255206 0.18625122 -0.21271425
0002e0 16 07 a9 be 04 cb 3b 3f 1e 52 57 3e f8 27 14 3f
       -0.3301322 0.7335665 0.21027419 0.5787349
0002f0 87 8a 9b bd 0c da 69 3e 9a 54 0b 3f 4f a8 17 3f
       -0.07594781 0.22837085 0.54425967 0.59241194
000300 69 e8 da be 21 fd 9b bb 27 63 be be 64 db 49 be
       -0.4275544 -0.0047604 -0.37185022 -0.19712597
000310 6c 81 2a bf f8 01 19 bf e6 63 1d bf 47 25 49 3e
       -0.6660373 -0.5976863 -0.6148056 0.19643126
000320 54 71 0c 3e 86 49 eb be 39 6e f5 3c 77 d2 8d 3e
       0.13715106 -0.4595453 0.029959785 0.27699634
000330 2d be c8 3e df 5a 7a bd e9 35 c2 be 8b b7 24 bf
       0.39207593 -0.061121818 -0.37931755 -0.64342564
000340 58 b3 be be d8 a0 db bd c8 36 6a bf 0e d9 bd 3e
       -0.37246203 -0.10724038 -0.9148984 0.37079662
000350 2d a7 27 bf 0f 00 1d bf 5b 13 ae bd ba fb b8 bd
       -0.65489465 -0.61328214 -0.084997855 -0.09032388
000360 e2 d2 0c be 29 1b 8d be 1d f7 6e 3e 20 08 2e 3e
       -0.1375232 -0.27559784 0.23336454 0.16995287
000370 da e9 7f 3e 12 b9 24 be 54 70 6b be 78 89 10 bf
       0.24991551 -0.16086224 -0.22992069 -0.5645976
000380 1b 3d cb 3e 4f 19 ab be e0 ea fa bd 9f d2 c8 be
       0.39695057 -0.33417746 -0.1225183 -0.3922319
000390 54 6d a9 be e4 ca 0a bf c9 d8 32 be 1b 6b da 3d
       -0.33091223 -0.54215837 -0.1746551 0.1066496
0003a0 3f 18 08 bf 38 ed 87 bb c8 95 14 3d 06 cd 32 3f
       -0.53161997 -0.0041481517 0.036275655 0.6984409
0003b0 0f 10 9a bc 95 b4 90 3c c6 a4 bc be b6 7e a6 3e
       -0.018806485 0.017664233 -0.36844462 0.32518548
0003c0 84 b4 32 3e 90 45 0c bb 1b 16 c5 be ca 32 88 be
       0.17451674 -0.0021403767 -0.38493428 -0.2660125
0003d0 1e f8 ee bd ed 48 45 bf ec 64 85 be 63 96 8e 3d
       -0.11668418 -0.770644 -0.2605356 0.06962278
0003e0 55 36 8c be 0a 87 e3 be 4c a9 65 3d ec cc a6 3e
       -0.27385202 -0.44438964 0.056069657 0.32578218
0003f0 83 11 c9 be 67 ef 6a 3e 21 5c b1 be d4 15 ff 3e
       -0.39271173 0.22942887 -0.346406 0.4982134
