Result/Model/Parity26_10/26_ft_cpu/SLNN_deleted643_order26_trained.pth (torch, 115728 bytes, 4 tensors)

hidden.weight f4 [26, 26]
0.0 0.0 0.0 0.0 -0.7114344 0.0 0.0 0.0
0.0 0.0 0.0 0.0 0.0 0.0 0.0 0.0
0.0 0.0 0.0 0.0 0.0 0.0 0.0 0.0
0.0 0.0 0.0 0.0 0.0 0.0 0.0 0.36524642
0.0 0.0 0.0 0.0 0.0 0.0 0.0 0.0
0.0 0.0 0.0 0.0 0.0 0.0 0.0 -0.52044475
0.0 0.0 0.0 0.0 0.0 0.0 0.0 0.72596407
0.0 0.0 0.0 0.0 0.0 0.0 0.0 0.0
0.0 0.0 0.0 0.0 0.0 0.0 0.0 0.0
0.0 0.0 0.0 0.0 0.0 0.0 0.0 0.0
0.0 0.0 -0.04543124 0.0 0.0 0.77248585 0.0 0.0
0.0 0.0 0.0 0.0 0.0 0.0 0.0 0.0
0.0 0.0 0.0 -0.0 0.0 0.0 0.0 0.0
0.0 0.0 0.0 0.0 0.0 0.0 0.0 0.0
0.0 0.0 0.0 0.0 0.0 0.0 0.7563915 0.0
0.0 0.0 0.0 0.0 0.0 0.0 0.0 0.085934244
0.0 0.0 0.0 0.0 0.0 0.0 0.0 -0.663116
0.0 0.0 0.0 0.0 0.0 0.0 0.0 0.0
0.0 0.0 0.0 0.0 0.0 0.0 0.0 0.0
0.0 0.0 0.0 0.0 0.0 0.0 0.0 0.0
0.0 0.0 0.0 0.0 0.0 0.0 0.0 0.0
0.0 0.0 0.0 0.0 0.0 0.7043054 0.0 0.0
0.0 0.0 0.0 0.0 0.0 0.0 0.0 0.0
0.0 0.0 0.0 0.0 0.0 0.0 0.0 0.0
0.0 0.0 0.0 0.0 0.0 0.0 0.0 0.0
-0.6942193 0.0 0.0 0.0 0.0 0.0 0.0 0.0
0.0 0.0 0.0 0.0 0.0 0.0 0.0 0.0
0.0 0.0 0.0 0.0 0.0 -0.7083495 0.0 0.0
0.0 0.0 0.0 0.0 0.0 0.0 0.0 0.0
0.0 0.0 -0.7146656 0.0 0.0 0.0 0.0 0.0
0.0 0.0 0.0 0.0 0.0 0.0 0.0 0.0
0.0 0.0 0.0 0.0 -0.09722023 0.0 0.0 0.0
00000000: 0000 0000 0000 0000 0000 0000 0000 0000
00000010: 9120 36bf 0000 0000 0000 0000 0000 0000
00000020: 0000 0000 0000 0000 0000 0000 0000 0000
00000030: 0000 0000 0000 0000 0000 0000 0000 0000
00000040: 0000 0000 0000 0000 0000 0000 0000 0000
00000050: 0000 0000 0000 0000 0000 0000 0000 0000
00000060: 0000 0000 0000 0000 0000 0000 0000 0000
00000070: 0000 0000 0000 0000 0000 0000 9401 bb3e
00000080: 0000 0000 0000 0000 0000 0000 0000 0000
00000090: 0000 0000 0000 0000 0000 0000 0000 0000
000000a0: 0000 0000 0000 0000 0000 0000 0000 0000
000000b0: 0000 0000 0000 0000 0000 0000 de3b 05bf
000000c0: 0000 0000 0000 0000 0000 0000 0000 0000
000000d0: 0000 0000 0000 0000 0000 0000 c8d8 393f
000000e0: 0000 0000 0000 0000 0000 0000 0000 0000
000000f0: 0000 0000 0000 0000 0000 0000 0000 0000
00000100: 0000 0000 0000 0000 0000 0000 0000 0000
00000110: 0000 0000 0000 0000 0000 0000 0000 0000
00000120: 0000 0000 0000 0000 0000 0000 0000 0000
00000130: 0000 0000 0000 0000 0000 0000 0000 0000
00000140: 0000 0000 0000 0000 1c16 3abd 0000 0000
00000150: 0000 0000 a2c1 453f 0000 0000 0000 0000
00000160: 0000 0000 0000 0000 0000 0000 0000 0000
00000170: 0000 0000 0000 0000 0000 0000 0000 0000
00000180: 0000 0000 0000 0000 0000 0000 0000 0080
00000190: 0000 0000 0000 0000 0000 0000 0000 0000
000001a0: 0000 0000 0000 0000 0000 0000 0000 0000
000001b0: 0000 0000 0000 0000 0000 0000 0000 0000
000001c0: 0000 0000 0000 0000 0000 0000 0000 0000
000001d0: 0000 0000 0000 0000 e0a2 413f 0000 0000
000001e0: 0000 0000 0000 0000 0000 0000 0000 0000
000001f0: 0000 0000 0000 0000 0000 0000 4bfe af3d
00000200: 0000 0000 0000 0000 0000 0000 0000 0000
00000210: 0000 0000 0000 0000 0000 0000 f8c1 29bf
00000220: 0000 0000 0000 0000 0000 0000 0000 0000
00000230: 0000 0000 0000 0000 0000 0000 0000 0000
00000240: 0000 0000 0000 0000 0000 0000 0000 0000
00000250: 0000 0000 0000 0000 0000 0000 0000 0000
00000260: 0000 0000 0000 0000 0000 0000 0000 0000
00000270: 0000 0000 0000 0000 0000 0000 0000 0000
00000280: 0000 0000 0000 0000 0000 0000 0000 0000
00000290: 0000 0000 0000 0000 0000 0000 0000 0000
000002a0: 0000 0000 0000 0000 0000 0000 0000 0000
000002b0: 0000 0000 5c4d 343f 0000 0000 0000 0000
000002c0: 0000 0000 0000 0000 0000 0000 0000 0000
000002d0: 0000 0000 0000 0000 0000 0000 0000 0000
000002e0: 0000 0000 0000 0000 0000 0000 0000 0000
000002f0: 0000 0000 0000 0000 0000 0000 0000 0000
00000300: 0000 0000 0000 0000 0000 0000 0000 0000
00000310: 0000 0000 0000 0000 0000 0000 0000 0000
00000320: 5bb8 31bf 0000 0000 0000 0000 0000 0000
00000330: 0000 0000 0000 0000 0000 0000 0000 0000
00000340: 0000 0000 0000 0000 0000 0000 0000 0000
00000350: 0000 0000 0000 0000 0000 0000 0000 0000
00000360: 0000 0000 0000 0000 0000 0000 0000 0000
00000370: 0000 0000 6556 35bf 0000 0000 0000 0000
00000380: 0000 0000 0000 0000 0000 0000 0000 0000
00000390: 0000 0000 0000 0000 0000 0000 0000 0000
000003a0: 0000 0000 0000 0000 53f4 36bf 0000 0000
000003b0: 0000 0000 0000 0000 0000 0000 0000 0000
000003c0: 0000 0000 0000 0000 0000 0000 0000 0000
000003d0: 0000 0000 0000 0000 0000 0000 0000 0000
000003e0: 0000 0000 0000 0000 0000 0000 0000 0000
000003f0: 661b c7bd 0000 0000 0000 0000 0000 0000

hidden.bias f4 [26]
2.220404 3.2843657 2.2897427 2.4064338 2.324313 2.6145446 2.2071652 2.1940622
2.2244494 2.2517834 2.7745545 2.331001 2.2033591 2.213145 2.2336419 2.2499423
2.4971874 2.2742016 2.2924383 2.3444383 0.58026916 2.3248649 2.5709417 2.9445603
2.254078 2.2202785
00000000: 191b 0e40 0c33 5240 258b 1240 0303 1a40
00000010: 8bc1 1440 b354 2740 3242 0d40 846b 0c40
00000020: 615d 0e40 381d 1040 4d92 3140 1f2f 1540
00000030: d603 0d40 2ba4 0d40 fdf3 0e40 0eff 0f40
00000040: ebd1 1f40 858c 1140 4fb7 1240 470b 1640
00000050: 858c 143f 96ca 1440 4f8a 2440 ad73 3c40
00000060: d042 1040 0b19 0e40

output.weight f4 [1024, 26]
1.0032736 -0.42469174 -1.1545327 -0.9702775 -0.992774 1.0003251 -1.1797059 0.96696943
1.0889705 1.1730746 -0.32340118 -1.0056152 1.1209791 -1.0831062 1.0182617 0.97536993
0.7372059 1.0651087 1.0115026 1.0612421 -0.9315755 0.94002587 -1.3032005 -1.3962102
-0.9776835 -1.1636585 1.1399007 -0.12380501 -1.0433277 -1.0212556 0.98872054 1.1728759
-1.0654953 1.0258105 -1.0358654 0.99498934 0.5488333 -1.0121496 1.00451 1.3511864
1.0557045 1.0735495 -0.6867957 1.1511184 -1.0312295 -1.0109079 -0.99986327 -1.0178242
1.3793578 -1.0995165 -1.2234432 -1.0505656 1.057191 -1.8963157 -1.1169016 -1.0128629
-1.0428993 0.10053542 -1.0945464 -1.339815 1.0559769 1.1017566 -0.9875123 1.0005275
1.2074666 1.0318372 1.0580285 -1.1162473 0.74533063 1.079631 1.0846685 1.0927848
0.9791453 -1.1426657 -1.3880633 -0.31858447 1.0648133 1.092655 1.215345 -1.1719756
-1.1588959 -1.1002665 0.9336895 0.53858966 -1.0890148 -1.284845 -1.2098155 1.0373266
-0.24363148 1.0937015 1.0993562 -1.1932108 1.0296844 -1.0410434 -0.7000568 1.0000551
-1.1372002 -1.0083858 0.9003793 1.0729719 1.2580466 0.22278288 0.9780014 1.0745133
0.97537076 -1.8709084 -1.020346 0.9397111 0.97922885 0.07139505 1.0491682 0.8670082
1.0041305 1.0790114 -1.6882969 1.0260313 1.1567533 -0.97333586 1.0444821 0.9957772
-1.3071579 1.1287951 -1.0160735 1.023331 -0.99314016 -1.076386 -0.6245923 -2.6961305
0.9518433 1.0457513 0.9454299 -2.6586342 -1.0944424 0.9734521 -1.0959091 -0.38910127
1.0258219 0.9741643 -1.12798 1.0088212 -3.109509 1.0835488 1.0089228 1.2423931
1.0673242 1.0429623 1.2325441 1.0904584 1.0300342 -0.9420648 -0.98844343 0.972725
0.5995431 -3.3048494 1.1735146 0.99031067 0.95736825 -1.7001423 -1.1212358 0.9298879
1.025894 0.21580015 0.97635263 -1.2963046 1.1322079 1.1720635 0.009242117 -0.96884316
1.0950899 0.9610053 1.021781 -1.1041585 -1.2656639 1.0584921 -1.0833316 0.9964334
0.96224236 1.0522249 -0.6253748 -0.14449835 -1.274376 -1.1634797 1.0596484 -1.1566793
-1.0855566 0.9901823 -1.0500495 0.4997048 1.1592444 -1.2524315 -1.0623271 1.1678083
1.214181 -1.0760126 1.1017038 -1.2411199 1.0829285 -1.0281487 1.3702301 1.1033119
1.0664523 -1.0686164 0.75695586 -1.0955107 0.50346255 0.35799316 -0.9745376 -1.0523587
1.1531523 -1.3500303 -1.1009082 -0.95148456 1.0766484 0.45291632 1.1213988 -1.2597989
-1.1376753 1.1335317 -0.86670357 -1.0459807 1.1999454 -1.1368603 -1.075666 1.1056709
1.2801665 1.0419903 1.0257276 1.0428375 0.7953668 -1.0494331 0.63450783 -2.238587
0.99714345 1.2317616 1.1335596 -0.10080188 -1.0100366 -1.0146691 -1.0473938 1.0546257
1.1098559 -1.2211055 0.9679553 1.0318791 -0.2784131 -1.0048977 1.0498018 0.96517557
-0.9601486 1.0409428 -1.3323761 0.9684084 -1.1024538 -0.9876945 1.0257566 1.0489278
00000000: 456b 803f 3271 d9be bac7 93bf 1b64 78bf
00000010: 7026 7ebf a70a 803f 9a00 97bf 4f8b 773f
00000020: 6363 8b3f 4f27 963f d794 a5be 00b8 80bf
00000030: 3e7c 8f3f 39a3 8abf 6656 823f d8b1 793f
00000040: 87b9 3c3f 7b55 883f eb78 813f c8d6 873f
00000050: bb7b 6ebf 89a5 703f 46cf a6bf 04b7 b2bf
00000060: 7749 7abf c3f2 94bf 44e8 913f 7b8d fdbd
00000070: c38b 85bf 81b8 82bf ca1c 7d3f cc20 963f
00000080: 2662 88bf c24d 833f 3d97 84bf 9fb7 7e3f
00000090: 5780 0c3f 1e8e 81bf c993 803f adf3 ac3f
000000a0: 5321 873f 126a 893f d8d1 2fbf d957 933f
000000b0: 54ff 83bf 6e65 81bf 0af7 7fbf 1048 82bf
000000c0: cc8e b03f f5bc 8cbf c999 9cbf ef78 86bf
000000d0: 0952 873f 79ba f2bf a2f6 8ebf 7ea5 81bf
000000e0: b97d 85bf 84e5 cd3d 191a 8cbf 0f7f abbf
000000f0: 402a 873f 5c06 8d3f 9bcd 7cbf 4911 803f
00000100: 448e 9a3f 3e13 843f 7a6d 873f 31e1 8ebf
00000110: fdcd 3e3f 5931 8a3f 6bd6 8a3f 5fe0 8b3f
00000120: 44a9 7a3f df42 92bf 0fac b1bf 811d a3be
00000130: cd4b 883f 1edc 8b3f 6d90 9b3f 4c03 96bf
00000140: b356 94bf 88d5 8cbf 4606 6f3f 03e1 093f
00000150: d664 8bbf cd75 a4bf 3cdb 9abf 1ec7 843f
00000160: 887a 79be 69fe 8b3f b4b7 8c3f 22bb 98bf
00000170: b3cc 833f e940 85bf ec36 33bf ce01 803f
00000180: c78f 91bf c912 81bf 427f 663f 2557 893f
00000190: ac07 a13f 3221 643e 4d5e 7a3f a789 893f
000001a0: e6b1 793f ed79 efbf b39a 82bf e890 703f
000001b0: beae 7a3f 9137 923d 254b 863f 40f4 5d3f
000001c0: 5987 803f 0c1d 8a3f 1d1a d8bf fe54 833f
000001d0: 7e10 943f 8a2c 79bf 97b1 853f 41eb 7e3f
000001e0: f350 a7bf 5c7c 903f b20e 82bf 83fc 823f
000001f0: 6f3e 7ebf 04c7 89bf 48e5 1fbf 678d 2cc0
00000200: 01ac 733f 2edb 853f b207 723f 1027 2ac0
00000210: b016 8cbf 2834 793f c046 8cbf 4838 c7be
00000220: 224e 833f d562 793f a661 90bf 0e21 813f
00000230: 3202 47c0 bab1 8a3f 6224 813f bd06 9f3f
00000240: 149e 883f ca7f 853f 01c4 9d3f 2494 8b3f
00000250: 29d8 833f 292b 71bf a10a 7dbf 8104 793f
00000260: a87b 193f a782 53c0 ba35 963f 0085 7d3f
00000270: 1616 753f 439e d9bf a884 8fbf 220d 6e3f
00000280: 7f50 833f b7fa 5c3e 3ff2 793f 4fed a5bf
00000290: 30ec 903f 2d06 963f 406c 173c 1b06 78bf
000002a0: e82b 8c3f 7104 763f b8c9 823f 1155 8dbf
000002b0: 4601 a2bf ab7c 873f 9caa 8abf 4216 7f3f
000002c0: 8455 763f 4eaf 863f 9018 20bf 60f7 13be
000002d0: c11e a3bf e7ec 94bf 8fa2 873f 110e 94bf
000002e0: 85f3 8abf 967c 7d3f 0668 86bf 4fd9 ff3e
000002f0: 1f62 943f ad4f a0bf 56fa 87bf be7a 953f
00000300: 486a 9b3f c8ba 89bf a104 8d3f 04dd 9ebf
00000310: 679d 8a3f 609a 83bf b363 af3f 5339 8d3f
00000320: 8281 883f 6cc8 88bf dcc7 413f b239 8cbf
00000330: ece2 003f e14a b73e 4c7b 79bf b1b3 86bf
00000340: 7f9a 933f cbcd acbf 8fea 8cbf 7e94 73bf
00000350: 9dcf 893f a6e4 e73e ff89 8f3f 1741 a1bf
00000360: 589f 91bf 9117 913f 49e0 5dbf b2e2 85bf
00000370: d097 993f a384 91bf 6caf 89bf a086 8d3f
00000380: 7fdc a33f f05f 853f 0b4b 833f b37b 853f
00000390: 299d 4b3f d353 86bf 1b6f 223f 0245 0fc0
000003a0: cb44 7f3f 5daa 9d3f 7b18 913f 3771 cebd
000003b0: e148 81bf ade0 81bf 0011 86bf fafd 863f
000003c0: c20f 8e3f 2f4d 9cbf ebcb 773f 9d14 843f
000003d0: 298c 8ebe 7da0 80bf e85f 863f bf15 773f
000003e0: 4ccc 75bf 9d3d 853f 4d8b aabf 9de9 773f
000003f0: 351d 8dbf 8cd9 7cbf fe4b 833f 4443 863f

output.bias f4 [1024]
-0.31015605 0.04113398 -0.48820823 -0.19371171 -0.6397929 -0.87435865 -0.050261732 0.26463804
-0.5175519 -0.02098904 -0.4412224 0.38273942 0.13462281 0.08347294 -0.21402802 -0.42716247
-0.03850798 -0.14011309 -0.4926648 0.0022630196 -0.52088475 -0.8542869 -0.057362348 -0.06044968
-0.25993413 -0.2057382 0.17911346 0.27151155 -0.018689398 0.07929548 -0.4521624 0.28480217
0.35682043 -0.29919896 -0.44112682 -0.44384265 -0.5451747 0.0054552113 -0.27806106 0.39130732
-0.31655273 -0.27408403 0.58128446 0.66416234 0.2325772 -0.0293683 -0.23934412 0.1578684
-0.17648706 0.1444692 -0.45185998 0.062481202 -0.32235187 -0.44322616 -0.20140754 0.10808128
0.2252634 -0.23033358 0.6483806 0.7285374 0.13345492 0.15207162 -0.08078233 0.14522022
-0.877557 -0.5267712 -0.52851945 -0.13799438 -0.8393716 -0.71159005 -0.14437586 -0.8111491
-0.2957453 -0.16053441 -0.17133226 -0.72205824 -0.81323177 -0.00016202683 -0.51177275 -0.21023203
-0.6188104 -0.6458885 -0.15826657 -0.67338 -1.2714368 -0.48872733 -0.71099526 -0.45163062
-0.56748146 -0.22211416 -0.46997708 -0.352216 -0.98538476 -0.06519439 -0.15105629 -0.42167768
-0.7536488 0.005476285 -0.39916715 -0.38922825 -0.48143956 -0.2609947 -0.466757 -0.3682814
-0.1599965 -0.42358848 0.17474198 0.014230681 -0.7794009 -0.21641089 -0.0017918105 -0.34920898
-0.7497352 -0.37510788 -0.39286363 -0.37662068 -0.8237611 -0.1130986 -0.37873366 -0.4992401
-0.7207672 0.1359813 0.07436398 0.14090191 -0.2887384 -0.61298347 -0.030805778 -0.6272125
-0.50240743 0.04664418 -0.30585447 0.13056728 -0.6187868 0.28566512 -0.033631463 0.12863795
0.4089726 0.0917944 0.8280081 -0.32785314 -0.09723078 0.10797576 -0.18154447 -0.1908133
-0.679032 0.040104434 0.36243573 0.20220177 -0.72820896 0.11891094 -0.24959955 0.14873831
0.21082182 0.33357546 0.467475 0.16160005 -0.021505589 -0.10180466 0.28450853 -0.39716876
0.11081852 0.43620652 0.069345295 0.07800667 0.0017568773 -0.6048653 0.50497 -0.35676453
-0.096384086 0.45257804 0.35605893 0.7272906 -0.34087497 0.5056253 0.45515016 0.5155179
0.23613764 0.115609966 0.34791404 -0.047874536 -0.16052862 -0.113564804 0.22668126 -0.21711443
-0.3998495 0.8289084 0.21746078 0.7501375 -0.024647456 0.3514843 0.51209706 0.7001382
-0.63173556 -0.12777501 -0.40850285 -0.27663088 -0.8795912 -0.71183264 -0.6870211 0.31334683
0.058045458 -0.43977636 0.06760744 0.33168384 0.37873533 -0.13767037 -0.44217503 -0.8771652
-0.6644024 -0.09669516 -1.1308525 0.46612063 -0.79991657 -0.7391639 -0.14456615 -0.18065977
-0.18321003 -0.28644457 0.36544314 0.23642682 0.2074542 -0.3123503 -0.33639377 -0.6870431
0.4621665 -0.43217975 -0.16217428 -0.5000063 -0.5329282 -0.6811311 -0.22377497 0.028865362
-0.73605937 -0.027196663 0.038563862 0.7988128 -0.05403519 -0.019713813 -0.4108039 0.4752496
0.2284663 0.0126514975 -0.3348032 -0.302061 -0.24983145 -0.9946659 -0.2576378 0.09483791
-0.28233323 -0.50317985 -0.015119952 0.28984407 -0.5421159 0.46329576 -0.4782966 0.6145416
00000000: c6cc 9ebe 1b7c 283d 6ef6 f9be 5d5c 46be
00000010: 78c9 23bf f8d5 5fbf 3fdf 4dbd a37e 873e
00000020: 487e 04bf 35f1 abbc e7e7 e1be 6cf6 c33e
00000030: 90da 093e dcf3 aa3d 292a 5bbe 0ab5 dabe
00000040: 8bba 1dbd ce79 0fbe 903e fcbe 2b4f 143b
00000050: b458 05bf 8cb2 5abf c8f4 6abd 159a 77bd
00000060: 1616 85be 09ad 52be 8569 373e 9003 8b3e
00000070: 821a 99bc ab65 a23d d581 e7be 97d1 913e
00000080: 2bb1 b63e 9b30 99be 60db e1be 583f e3be
00000090: 9290 0bbf a1c1 b23b 055e 8ebe 6f59 c83e
000000a0: 3313 a2be be54 8cbe 0fcf 143f 8b06 2a3f
000000b0: b828 6e3e ca95 f0bc a016 75be 41a8 213e
000000c0: 06b9 34be bcef 133e 315a e7be 4aec 7f3d
000000d0: 4e0b a5be 8aee e2be c73d 4ebe b859 dd3d
000000e0: 73ab 663e 91dc 6bbe 45fc 253f 6d81 3a3f
000000f0: 68a8 083e aab8 1b3e 3571 a5bd 9cb4 143e
00000100: 93a7 60bf 7ada 06bf 0d4d 07bf 664e 0dbe
00000110: 0fe1 56bf c42a 36bf 44d7 13be 78a7 4fbf
00000120: ee6b 97be 2263 24be b971 2fbe cfd8 38bf
00000130: f52f 50bf bfe5 29b9 8a03 03bf 1147 57be
00000140: 5c6a 1ebf f358 25bf a210 22be a262 2cbf
00000150: 71be a2bf 783a fabe c903 36bf 213c e7be
00000160: 7746 11bf e571 63be d6a0 f0be a855 b4be
00000170: 2d42 7cbf a384 85bd 80ae 1abe 23e6 d7be
00000180: 21ef 40bf 6872 b33b a35f ccbe ed48 c7be
00000190: 3f7f f6be 19a1 85be c6fa eebe 618f bcbe
000001a0: 1fd6 23be 97e0 d8be 90ef 323e cd27 693c
000001b0: d186 47bf d19a 5dbe 2fdb eaba 85cb b2be
000001c0: a5ee 3fbf 240e c0be 6c25 c9be 6dd4 c0be
000001d0: 02e2 52bf 3da0 e7bd 61e9 c1be 669c ffbe
000001e0: 3384 38bf af3e 0b3e 244c 983d 9748 103e
000001f0: 85d5 93be 7cec 1cbf 665c fcbc 0091 20bf
00000200: c69d 00bf f80d 3f3d f598 9cbe 6eb3 053e
00000210: d068 1ebf b342 923e 25c1 09bd abb9 033e
00000220: db64 d13e b4fe bb3d 57f8 533f 5edc a7be
00000230: ee20 c7bd 6522 dd3d cbe6 39be 9064 43be
00000240: 0bd5 2dbf 8c44 243d 2d91 b93e fb0d 4f3e
00000250: e76b 3abf 9487 f33d 0697 7fbe db4e 183e
00000260: ade1 573e 67ca aa3e e258 ef3e 7c7a 253e
00000270: 7d2c b0bc f67e d0bd 1aab 913e b459 cbbe
00000280: d2f4 e23d 7656 df3e e804 8e3d f6c1 9f3d
00000290: 0547 e63a 74d8 1abf b745 013f d7a9 b6be
000002a0: 0565 c5bd 4fb8 e73e 5b4d b63e b72f 3a3f
000002b0: 2a87 aebe a970 013f 7109 e93e fbf8 033f
000002c0: 11ce 713e ebc4 ec3d ca21 b23e 1718 44bd
000002d0: 9d61 24be aa94 e8bd 221f 683e 3f53 5ebe
000002e0: 13b9 ccbe 5733 543f 0aae 5e3e 0309 403f
000002f0: 76e9 c9bc c0f5 b33e cb18 033f 423c 333f
00000300: 6cb9 21bf 74d7 02be 4927 d1be 90a2 8dbe
00000310: e42c 61bf aa3a 36bf 9de0 2fbf ff6e a03e
00000320: 13c1 6d3d 5e2a e1be c575 8a3d 77d2 a93e
00000330: 99e9 c13e 76f9 0cbe c464 e2be e68d 60bf
00000340: 4716 2abf 1d08 c6bd c6bf 90bf 5da7 ee3e
00000350: 55c7 4cbf d839 3dbf 2609 14be e0fe 38be
00000360: 699b 3bbe dda8 92be 5d1b bb3e df19 723e
00000370: e06e 543e 61ec 9fbe ce3b acbe 0ee2 2fbf
00000380: 16a1 ec3e aa46 ddbe 0411 26be 6a00 00bf
00000390: fc6d 08bf 9c5e 2ebf 4425 65be 0d77 ec3c
000003a0: 636e 3cbf 89cb debc 24f5 1d3d ff7e 4c3f
000003b0: 0154 5dbd dd7e a1bc e454 d2be ea53 f33e
000003c0: 12f3 693e 3a48 4f3c 536b abbe bda7 9abe
000003d0: d1d3 7fbe 6da2 7ebf 1ae9 83be 613a c23d
000003e0: fb8d 90be 65d0 00bf adb9 77bc 7166 943e
000003f0: 1cc8 0abf 1a35 ed3e 4be3 f4be 9952 1d3f
