Result/Model/SLNN/SLNN_model_BER2.5.pth (torch, 2976 bytes, 4 tensors)

hidden.weight f4 [7, 7]
000000 e7 bc 79 3f ef 6d 2e 3f 87 2c 6a 3f d9 00 44 40
       0.9755387 0.68136495 0.91474193 3.0625517
000010 59 39 8a bd f1 1b 0b c0 6a eb 88 bb 26 1c 89 bf
       -0.067492194 -2.1735804 -0.004178454 -1.0711715
000020 58 bc 58 bf 8b d6 61 bf cb d2 60 3f a6 9d 32 be
       -0.8466239 -0.8821799 0.87821645 -0.1744295
000030 7e d3 5d 3d 19 9f 6a c0 5b 7c 15 c0 37 06 d5 3e
       0.054156773 -3.6659606 -2.335715 0.41606304
000040 8d c3 1a c0 fe aa f2 3e 42 bd 0c c0 34 37 d6 be
       -2.4181855 0.47396082 -2.1990514 -0.41838992
000050 5c e7 e6 3f 69 7b a3 3f af 3b 3f 40 d2 b5 cf 3e
       1.8039355 1.2772037 2.9880178 0.40568405
000060 74 4d 88 3d 29 65 00 c0 50 53 be 3f 82 dd 85 bf
       0.06655398 -2.0061743 1.4869175 -1.0458224
000070 cc f4 0e c0 64 93 34 3f 6b f3 05 40 9a aa ff bf
       -2.2336912 0.705374 2.092982 -1.9973938
000080 0c e2 93 be 44 c1 12 c0 81 e7 1e bf 36 0c a3 bf
       -0.28883398 -2.293046 -0.62071997 -1.2738101
000090 0e e9 13 40 d0 25 85 bf fd 4b 2a 3f 0a 72 2e 40
       2.3110995 -1.0402164 0.665222 2.7257104
0000a0 a5 e9 f5 3e 9e 00 44 be 0c 98 05 40 f8 5d c6 3e
       0.4802982 -0.1914086 2.0874052 0.38743567
0000b0 7d bb 13 c0 2e c0 02 c0 f8 9b 20 3c cb 61 1b c0
       -2.3083184 -2.0429797 0.009802811 -2.4278438
0000c0 8b f3 a1 be
       -0.3163112

hidden.bias f4 [7]
000000 61 a9 1e 40 d3 ff 19 40 1b fc ff 3f 10 f4 13 40
       2.479088 2.4062393 1.9998811 2.3117714
000010 84 c0 03 40 80 3f 22 40 d7 48 f6 3f
       2.0586252 2.5351257 1.9240979

output.weight f4 [16, 7]
000000 88 8b b7 bf d9 5d 51 3f ca 4d b6 3e f4 40 a1 bf
       -1.4339457 0.81783825 0.35606223 -1.2597947
000010 b6 14 11 3e 5f 58 e5 bf 16 ba 68 3e bd 5b 66 3f
       0.14168057 -1.7917594 0.22727236 0.8998373
000020 34 ef d6 bf 4a 6c 04 3f 07 32 35 3e 71 5c e6 bf
       -1.6791749 0.51727736 0.17694865 -1.7996961
000030 a6 04 08 bf 5a 24 bd 3e 6c 8f f8 be 42 3d 4d 3f
       -0.5313209 0.36941797 -0.48546922 0.80171597
000040 b3 21 1b 3f 7a bc 29 3f aa 1d 9a bf f9 12 f8 3d
       0.60598296 0.6630322 -1.2040303 0.12112994
000050 fe 4a d6 bf 97 51 04 c0 f2 da 4f bf f0 3e c5 bd
       -1.6741636 -2.0674798 -0.8119346 -0.09631145
000060 4e a7 32 be 4a 98 08 c0 c9 da 05 c0 7c bf a2 bd
       -0.17446634 -2.134295 -2.0914786 -0.07946679
000070 81 ec 96 3e 72 21 bc 3e a2 74 a3 bf 54 e1 0b c0
       0.29477313 0.36744267 -1.2769969 -2.185628
000080 b7 7b 03 c0 e6 b7 27 be b8 45 62 3e af 1d 5f bf
       -2.054426 -0.16378745 0.22096908 -0.8715467
000090 90 19 ec bf dc de 1a 3e 95 bc b4 bf 48 49 86 3e
       -1.8445301 0.15124077 -1.4120051 0.26227784
0000a0 41 c5 72 3f 62 38 b1 3e ed 50 0e c0 e1 dc cc bd
       0.94832236 0.3461333 -2.2236893 -0.10003067
0000b0 dd 56 04 c0 74 6b 1f 3e c5 95 c2 bf b8 cb e8 3e
       -2.0678017 0.15568334 -1.5201956 0.45467925
0000c0 67 a0 8a 3e 69 7d fb be 83 9b 8b be 00 0f 1e 3c
       0.27075502 -0.49119118 -0.27267084 0.009647131
0000d0 6b fc 25 c0 17 57 0f c0 fa 41 fc 3d 20 6a d5 bf
       -2.5935314 -2.2396905 0.123172715 -1.6673012
0000e0 eb 99 79 bd 80 47 b8 be b5 68 02 c0 29 fd 5b 3f
       -0.060937803 -0.3599205 -2.0376408 0.85933167
0000f0 2e 32 21 3f bc 9c d3 bf 4d 1f a8 3e a2 15 c4 3e
       0.62967193 -1.6532207 0.3283638 0.38297755
000100 02 39 18 bf 85 67 02 3e 65 42 c9 bf d0 b1 a0 bc
       -0.59461987 0.12734802 -1.5723387 -0.019616038
000110 d1 4f fa bf 30 b6 07 c0 b7 dd 04 be fc 16 85 3d
       -1.9555608 -2.1204948 -0.12975203 0.064985245
000120 fb af a8 bf eb 36 f8 3b e6 1a a0 bf 34 04 23 c0
       -1.3178705 0.007574906 -1.2508209 -2.5471315
000130 09 04 ce bf 1f b1 f3 bf a7 29 04 c0 aa 87 84 bd
       -1.6094981 -1.9038428 -2.0650423 -0.06471188
000140 96 b6 b5 3e f3 ea 67 3e 99 55 c7 be f1 29 0d c0
       0.35490865 0.2264822 -0.38932493 -2.205685
000150 e5 e1 3c 3f 51 22 b0 3d 41 f9 a2 bf 47 3e fc be
       0.7378219 0.08600295 -1.2732316 -0.49266264
000160 56 f7 0b 3f a5 b4 3e 3f c8 5b c2 bf b4 32 28 be
       0.5467428 0.7449439 -1.518426 -0.16425592
000170 ad 1a 17 c0 b4 a6 0d c0 5c 02 07 c0 cb 3e bc bd
       -2.3610032 -2.2132998 -2.109519 -0.09191664
000180 06 87 2a bf 44 a6 88 bd 19 d9 1a c0 9c 7c 50 3d
       -0.6661228 -0.06672338 -2.4195006 0.050900087
000190 d1 a0 f8 bf cb 33 5f bf f4 8e e5 bc ed 47 31 be
       -1.9424077 -0.87188405 -0.028022267 -0.17312594
0001a0 aa b4 c5 bf 2d 47 1d 3d 8c 75 13 c0 95 93 c3 bf
       -1.5445759 0.038397957 -2.3040495 -1.5279413
0001b0 00 76 71 bd 93 3d a4 bf 10 b0 dd 3d 15 19 bc bf
       -0.058950424 -1.2831291 0.10824597 -1.4695154

output.bias f4 [16]
000000 ce d4 ac 3c cf 17 b0 be 92 1b a2 be 26 b5 90 be
       0.021097567 -0.34393165 -0.3166166 -0.28263205
000010 ed 24 83 3e cf cc 21 be b7 c9 52 be 57 af bc be
       0.2561411 -0.15800785 -0.2058476 -0.36852524
000020 62 0a ba be 2e 4b 52 3d ef f7 75 bc ac a1 15 3e
       -0.36336046 0.05134123 -0.015012725 0.14612454
000030 72 4d 97 3e 2a cf 8c 3e 73 d1 36 3d 94 85 85 3e
       0.29551274 0.27501804 0.04463334 0.26078475
