Result/Model/SLNN/SLNN_model_BER4.5.pth (torch, 2976 bytes, 4 tensors)

hidden.weight f4 [7, 7]
0	0xbfbaafb8	-1.4584875
1	0x40595db8	3.3963451
2	0xc03bea6a	-2.9361825
3	0xbebe114b	-0.37122568
4	0xc00236ab	-2.0345867
5	0xc044443f	-3.0666654
6	0xbfd3198f	-1.6492175
7	0x400ccdd3	2.2000625
8	0xbed73107	-0.42029592
9	0xc0a65155	-5.197428
10	0x3f89b0c5	1.0757071
11	0x3f88ad46	1.0677879
12	0x3ee64a73	0.44978675
13	0x3fbcf8e1	1.4763452
14	0x4007ccbb	2.1218708
15	0xc07c943d	-3.9465477
16	0x3e1d8a3d	0.15384765
17	0x3e22484c	0.15847892
18	0xc03ae030	-2.9199333
19	0xc05e4819	-3.4731505
20	0xbf8582bc	-1.0430522
21	0x3cc021fa	0.023453701
22	0x3f55b12b	0.8347346
23	0x3d7b1a76	0.061304532
24	0x405a4a59	3.4107878
25	0xc0889309	-4.2679486
26	0x400045ce	2.0042605
27	0x4021783f	2.5229642
28	0xc08353de	-4.1039877
29	0xc02f3ec6	-2.7382064
30	0xbfad1696	-1.3522518
31	0xc0073197	-2.1124017
32	0xbf79dc04	-0.9760134
33	0x3ebcfbb8	0.36910796
34	0x40297afe	2.6481318
35	0xbf60ab66	-0.87761533
36	0x3e309423	0.1724401
37	0x3f04eb3a	0.5192143
38	0x403dcc6b	2.9656017
39	0x401fe914	2.498601
40	0xc05925c1	-3.3929293
41	0x403b72a0	2.9288712
42	0xc0226065	-2.5371335
43	0xc001ba61	-2.0270007
44	0xbf827924	-1.0193219
45	0x404d1a57	3.2047327
46	0x3f87c8ae	1.0608118
47	0x3f98d0d4	1.1938729
48	0xc058258b	-3.3772914

hidden.bias f4 [7]
0	0x40373cf5	2.8630955
1	0x403e405c	2.9726782
2	0x40242402	2.5646977
3	0x402c8bf7	2.6960428
4	0x40247132	2.569409
5	0x40231366	2.548059
6	0x40422029	3.033213

output.weight f4 [16, 7]
0	0x3f3d4fbf	0.7394981
1	0xbf14822b	-0.5801112
2	0x3f393e69	0.72360855
3	0xbff818e7	-1.93826
4	0x3f5d8b7c	0.8654096
5	0xc00dd519	-2.2161314
6	0x3d75a37f	0.059970375
7	0x3f1966c9	0.5992246
8	0x3f025c77	0.5092234
9	0x3d53da82	0.051722057
10	0x3f7aef40	0.98021317
11	0xc02b3255	-2.674947
12	0x3f17cbf4	0.5929558
13	0xc0547550	-3.3196602
14	0x3f07d38b	0.53057164
15	0xbf124e3f	-0.57150644
16	0xc02774ad	-2.6164963
17	0x3eccbac0	0.3998623
18	0xbf2a1210	-0.6643381
19	0xc02f0a84	-2.7350168
20	0x3f8281ee	1.0195901
21	0xc000f5fd	-2.015014
22	0x3f1e38eb	0.618056
23	0x3e757aef	0.23972677
24	0xbe188949	-0.1489612
25	0x3eb628b7	0.35577938
26	0xc07121ad	-3.7676804
27	0xc0180cad	-2.3757737
28	0xbf49f639	-0.7889133
29	0x3f6c7823	0.92370814
30	0x3f265400	0.64971924
31	0xc0445c5d	-3.0681374
32	0xc03b7bee	-2.929439
33	0xbd875530	-0.06608045
34	0x3f1c724a	0.6111189
35	0x3ebfdbdf	0.37472436
36	0xbdab6dfa	-0.08370586
37	0xc0438147	-3.0547655
38	0xc03303ce	-2.7971072
39	0x3ef40089	0.47656658
40	0x3ead2aae	0.33821625
41	0xc01e7b18	-2.476263
42	0xbe698b46	-0.22807035
43	0x3ddde9fc	0.108356446
44	0xbff8910d	-1.9419266
45	0xc00ba954	-2.18221
46	0xbfb702bf	-1.4297713
47	0xc02362c5	-2.5529034
48	0xbe767580	-0.2406826
49	0xc0355b9f	-2.833717
50	0x3f4d9a9d	0.80314046
51	0xc0403076	-3.0029578
52	0xbe3d31fc	-0.18476099
53	0x3f16e068	0.58936167
54	0x3e8654d5	0.26236597
55	0x3f69ac57	0.91278595
56	0x3d0f9de2	0.03506268
57	0xc01fbab2	-2.49577
58	0xbcd52fd3	-0.02602378
59	0xbefd1fea	-0.4943841
60	0xc02ab708	-2.6674213
61	0xbf65f441	-0.89825827
62	0xc0110bc0	-2.2663422
63	0xbf720bf5	-0.94549495
64	0xc0622cb6	-3.533979
65	0x3f2d5194	0.67702603
66	0x3f36a4d7	0.71345276
67	0x3eca7b49	0.39547184
68	0x3f919477	1.1373433
69	0xbe9c821b	-0.30568013
70	0xc0467d7c	-3.101409
71	0xbf99c739	-1.2013923
72	0x3e2b9d0f	0.16759132
73	0x3e4f0a3b	0.20218746
74	0xbff9a8e2	-1.9504664
75	0xc010fec3	-2.2655494
76	0x3dab99b8	0.08378929
77	0xbeb3b293	-0.3509718
78	0xc028d99e	-2.6382823
79	0xc0162993	-2.3462875
80	0x3d9ca9c7	0.0764957
81	0x3db4319d	0.087985255
82	0xbf82d971	-1.0222608
83	0xc013397c	-2.3003836
84	0xbd38703e	-0.045028917
85	0xc052457e	-3.2854915
86	0xbf942a3c	-1.1575389
87	0xbfa0f5f8	-1.2575064
88	0xc00d44ad	-2.2073166
89	0x3ebf63ad	0.37380734
90	0x3e24607d	0.16052432
91	0xc034dd97	-2.8260248
92	0xbf046702	-0.5171968
93	0x3da26737	0.07929843
94	0xc0463d07	-3.0974748
95	0xbe23020c	-0.1591875
96	0x3d3def79	0.046370957
97	0xc0411f35	-3.0175297
98	0xc01936f5	-2.3939793
99	0xc005886a	-2.086451
100	0xbefdb771	-0.49554017
101	0xc048ddd3	-3.138539
102	0xbe1f36a9	-0.15548195
103	0xbf71ab49	-0.94401985
104	0x3d6cac41	0.05778146
105	0xc0356cd2	-2.8347669
106	0xbe8bd371	-0.27309754
107	0xc0552b75	-3.3307774
108	0x3d940aa3	0.07228591
109	0xc047bdb7	-3.1209543
110	0x3dbeb6d5	0.09312216
111	0xbf36d39c	-0.7141664

output.bias f4 [16]
0	0xbe76cbb4	-0.24101144
1	0x3e6ecdf2	0.2332075
2	0xbd35bff2	-0.044372506
3	0x3e547ebd	0.20751472
4	0xbe815efa	-0.25267774
5	0x3d2cd8a1	0.04219878
6	0x3d7394a0	0.05946791
7	0xbeb7bd13	-0.3588644
8	0xbea4ce82	-0.32188803
9	0xbe2a7c26	-0.16648921
10	0x3d7882be	0.06067156
11	0xbe0778e9	-0.13229717
12	0x3e737220	0.23774004
13	0x3d3db6b0	0.046316803
14	0xbe4481b9	-0.1919011
15	0xbdb50cca	-0.0884033
