Result/Model/Parity26_10/SLNN_24_deleted_cpu/SLNN_deleted310.pth (torch, 107152 bytes, 4 tensors)

hidden.weight f4 [24, 26]
0	0xbef055ab	-0.4694036
1	0x00000000	0.0
2	0x00000000	0.0
3	0x3e286407	0.16444407
4	0x3ea3412f	0.3188567
5	0x3e3333e1	0.17500259
6	0x3e785009	0.24249281
7	0x00000000	0.0
8	0x00000000	0.0
9	0x00000000	0.0
10	0x00000000	0.0
11	0x00000000	0.0
12	0x00000000	0.0
13	0xbf0caa7c	-0.5494764
14	0x00000000	0.0
15	0x00000000	0.0
16	0x00000000	0.0
17	0x00000000	0.0
18	0x3f2669dd	0.65005285
19	0xbee8a079	-0.4543493
20	0xbed77ab5	-0.42085806
21	0xbe2ab161	-0.16669227
22	0x00000000	0.0
23	0x3f1e9a72	0.61954415
24	0x3e78b668	0.24288332
25	0x00000000	0.0
26	0x00000000	0.0
27	0x00000000	0.0
28	0x00000000	0.0
29	0xbe6360de	-0.2220492
30	0x00000000	0.0
31	0x3eda6d4b	0.4266151
32	0x00000000	0.0
33	0x00000000	0.0
34	0x3e6a2efd	0.22869487
35	0x3e4a4869	0.19754185
36	0x00000000	0.0
37	0x00000000	0.0
38	0x00000000	0.0
39	0xbe9228b2	-0.28546673
40	0x00000000	0.0
41	0x3f011e91	0.50437266
42	0xbedc114c	-0.42981946
43	0x00000000	0.0
44	0x3ecd6621	0.4011698
45	0x3eee063e	0.46489137
46	0x00000000	0.0
47	0xbe2d89d7	-0.16947113
48	0x3ebd1cfe	0.36936182
49	0x3f0f54d8	0.55988836
50	0x00000000	0.0
51	0xbf10808e	-0.5644616
52	0x00000000	0.0
53	0x3e30d8d1	0.17270209
54	0x00000000	0.0
55	0x00000000	0.0
56	0x3f32a6ac	0.6978557
57	0x00000000	0.0
58	0x00000000	0.0
59	0xbea2e173	-0.3181263
60	0x00000000	0.0
61	0x3e967c65	0.2939178
62	0x00000000	0.0
63	0xbe36ed8e	-0.17864057
64	0x00000000	0.0
65	0xbea8c9c4	-0.32966435
66	0x3e865159	0.26233938
67	0x3f181ea2	0.5942174
68	0x00000000	0.0
69	0x3ee3164c	0.4435295
70	0x00000000	0.0
71	0x00000000	0.0
72	0xbe936668	-0.28789067
73	0x3e868673	0.26274452
74	0x00000000	0.0
75	0x3f2b6cc7	0.66962856
76	0x00000000	0.0
77	0x00000000	0.0
78	0x00000000	0.0
79	0x00000000	0.0
80	0x3e6747a3	0.22585921
81	0x00000000	0.0
82	0x3e94745f	0.28995034
83	0x00000000	0.0
84	0x00000000	0.0
85	0x00000000	0.0
86	0xbe2d2044	-0.1690684
87	0x3eb05fcc	0.34448087
88	0x00000000	0.0
89	0x3e81f2d3	0.25380573
90	0x00000000	0.0
91	0xbe76e278	-0.24109828
92	0x00000000	0.0
93	0xbe28738d	-0.16450329
94	0x3e331368	0.17487872
95	0x00000000	0.0
96	0x3e45c9d1	0.19315268
97	0x3eb65339	0.3561037
98	0xbee70575	-0.4512135
99	0x00000000	0.0
100	0x3f45b468	0.77228403
101	0x3f3ba393	0.7329647
102	0x00000000	0.0
103	0x3e9335b2	0.28751904
104	0x00000000	0.0
105	0x00000000	0.0
106	0xbe8f10c7	-0.27942488
107	0x00000000	0.0
108	0x3e64511d	0.22296567
109	0x00000000	0.0
110	0x3efcde04	0.49388134
111	0xbf093031	-0.5358916
112	0x00000000	0.0
113	0x3f072a51	0.52798945
114	0x00000000	0.0
115	0x3e313704	0.17306143
116	0x00000000	0.0
117	0x00000000	0.0
118	0x3eb13ced	0.34616795
119	0x00000000	0.0
120	0x00000000	0.0
121	0x3e29e7c3	0.16592316
122	0x3f4a45ab	0.79012555
123	0x00000000	0.0
124	0xbe3533b5	-0.17695506
125	0x00000000	0.0
126	0x00000000	0.0
127	0x3ed5e5b2	0.41776806
128	0xbe634966	-0.22195968
129	0x00000000	0.0
130	0xbe58c4c7	-0.21168815
131	0x00000000	0.0
132	0x00000000	0.0
133	0x3e8998da	0.2687443
134	0x00000000	0.0
135	0x00000000	0.0
136	0x00000000	0.0
137	0x00000000	0.0
138	0x00000000	0.0
139	0x3ebc0cf9	0.36728647
140	0x00000000	0.0
141	0xbe6b0c03	-0.22953801
142	0x00000000	0.0
143	0x00000000	0.0
144	0x3f429d42	0.76021206
145	0x00000000	0.0
146	0xbe579c70	-0.2105577
147	0x00000000	0.0
148	0x3f04a797	0.5181822
149	0x3ef0fb6d	0.47066823
150	0xbe2e9f38	-0.17052925
151	0x00000000	0.0
152	0xbe3ec494	-0.18629676
153	0x3f157f45	0.5839732
154	0x3ef5f7bb	0.48040566
155	0x00000000	0.0
156	0x00000000	0.0
157	0xbe4a77d0	-0.19772267
158	0xbf1c78c1	-0.61121756
159	0x3e328a86	0.17435655
160	0x00000000	0.0
161	0x00000000	0.0
162	0x00000000	0.0
163	0xbe60a3c9	-0.21937479
164	0xbe747350	-0.23872113
165	0x3f004c0b	0.5011603
166	0x00000000	0.0
167	0xbe340f01	-0.17583849
168	0x00000000	0.0
169	0x00000000	0.0
170	0x00000000	0.0
171	0x3e4a1a6e	0.19736645
172	0xbea5f05a	-0.32409936
173	0xbef939b0	-0.48676825
174	0x00000000	0.0
175	0x3e446da4	0.1918245
176	0x00000000	0.0
177	0x00000000	0.0
178	0x00000000	0.0
179	0x3f5d5987	0.8646473
180	0x00000000	0.0
181	0x3e1f8205	0.15576942
182	0x00000000	0.0
183	0x00000000	0.0
184	0xbeb3b116	-0.35096043
185	0x3e295590	0.16536546
186	0x00000000	0.0
187	0x00000000	0.0
188	0xbe5ce6ab	-0.21572368
189	0xbe3bd683	-0.18343548
190	0x3e530877	0.20608698
191	0x00000000	0.0
192	0x00000000	0.0
193	0x3e556f7c	0.20843309
194	0x00000000	0.0
195	0x00000000	0.0
196	0x3e8e94ab	0.278478
197	0x3eaad77c	0.33367527
198	0x00000000	0.0
199	0xbe7645ae	-0.24050018
200	0x3f028c62	0.5099546
201	0x3ebd4f6d	0.3697466
202	0xbf7f4fdb	-0.99731225
203	0x3e2ffd7a	0.17186537
204	0x00000000	0.0
205	0x3e67a994	0.22623283
206	0x00000000	0.0
207	0x00000000	0.0
208	0x3eb47418	0.35244823
209	0x00000000	0.0
210	0x00000000	0.0
211	0x00000000	0.0
212	0x3e85e22a	0.26149112
213	0x3f27b3ce	0.65508735
214	0x00000000	0.0
215	0x00000000	0.0
216	0x00000000	0.0
217	0x00000000	0.0
218	0x00000000	0.0
219	0x00000000	0.0
220	0x00000000	0.0
221	0x00000000	0.0
222	0x00000000	0.0
223	0x3e3ca149	0.184209
224	0x3e81fda3	0.25388822
225	0x00000000	0.0
226	0x3efb85c5	0.49125496
227	0x00000000	0.0
228	0x00000000	0.0
229	0x00000000	0.0
230	0xbe711585	-0.23543365
231	0x3f710c5c	0.94159484
232	0x00000000	0.0
233	0x3e8a86e2	0.27056032
234	0x00000000	0.0
235	0x00000000	0.0
236	0x00000000	0.0
237	0x3eb9e8a6	0.3631031
238	0x3eadcc7e	0.33945078
239	0x00000000	0.0
240	0x3f5cc621	0.8623982
241	0x00000000	0.0
242	0x00000000	0.0
243	0x3e3bf01c	0.18353313
244	0x00000000	0.0
245	0x3e5fa5e6	0.21840629
246	0x00000000	0.0
247	0x00000000	0.0
248	0x00000000	0.0
249	0x3f39f639	0.7264133
250	0x00000000	0.0
251	0xbe7e98bd	-0.24862953
252	0x3e965470	0.29361296
253	0x3e7378fd	0.23776622
254	0x00000000	0.0
255	0x3e49f8f2	0.19723871

hidden.bias f4 [24]
0	0x40a23fa1	5.070267
1	0x40a2ac11	5.083504
2	0x409d7329	4.9203076
3	0x409eb218	4.95924
4	0x40a2cfd6	5.0878706
5	0x40a0d6c7	5.026218
6	0x40a0695e	5.012862
7	0x409e8227	4.9533877
8	0x409f33e6	4.9750853
9	0x409d4547	4.9147067
10	0x409c984c	4.893591
11	0x409f15ad	4.971396
12	0x40a41d8f	5.128608
13	0x40a1178c	5.0341244
14	0x40a3b2b4	5.1155643
15	0x409e34dc	4.9439526
16	0x40a11c08	5.034672
17	0x40a03763	5.006761
18	0x409a7ec9	4.8279767
19	0x40a4a542	5.145173
20	0x40a20a20	5.063736
21	0x409f97ab	4.987264
22	0x40a16bf6	5.044429
23	0x40a10ebb	5.033048

output.weight f4 [1024, 24]
0	0x3f999b7e	1.2000577
1	0x3e1ebcdc	0.15501732
2	0x3b0ef1ed	0.002181168
3	0xbf5c125d	-0.8596552
4	0xbddffee4	-0.109372884
5	0xbf3fe2fe	-0.7495574
6	0x3fa90783	1.3205417
7	0x3f594b9f	0.84881014
8	0xbf663dc4	-0.89937997
9	0xbfc56c61	-1.54237
10	0xbf103ea5	-0.5634559
11	0x3d94968f	0.07255279
12	0xbee928c5	-0.45538917
13	0x3ed9004c	0.4238304
14	0xbe9225e9	-0.28544548
15	0xbdfcde28	-0.123470604
16	0x3ed53f06	0.41649646
17	0x3edb516b	0.42835554
18	0x3e6581ce	0.22412798
19	0x3eb4f50c	0.35343206
20	0x3cd2cc24	0.025732107
21	0xbe088a33	-0.13333969
22	0xbf55ecd2	-0.83564484
23	0xbeb4f0cc	-0.35339963
24	0xbf652d67	-0.89522403
25	0xbebab2d8	-0.36464572
26	0xbf67d33e	-0.90556705
27	0xbeb7a5a5	-0.35868564
28	0x3e19cd88	0.1501981
29	0x3f73096d	0.9493626
30	0x3fa1c967	1.2639588
31	0xbd9705bb	-0.0737414
32	0xbf624685	-0.88388854
33	0xbf447ddd	-0.7675455
34	0xbedc9867	-0.43085024
35	0x3eff160f	0.49821517
36	0x3f7edaa8	0.9955239
37	0xbcdf32fd	-0.027245993
38	0xbe95dfcb	-0.29272303
39	0x3f078502	0.5293733
40	0x3f760817	0.96106094
41	0x3d6ebbf6	0.058284722
42	0xbf47a357	-0.7798361
43	0x3f944839	1.1584541
44	0xbf65499e	-0.89565456
45	0x3da01587	0.07816606
46	0xbeceed6b	-0.4041551
47	0xbebea4e0	-0.37235165
48	0x3f380c95	0.718942
49	0x3eacb799	0.33733824
50	0xbe7a0c51	-0.24418761
51	0xbede6119	-0.43433455
52	0xbeb8797c	-0.36030185
53	0xbfc51fc4	-1.5400319
54	0xbe2fb8fc	-0.1716041
55	0x3f3f47c7	0.747189
56	0xbecd597d	-0.40107337
57	0xbf22cb2f	-0.63591284
58	0x3e091949	0.13388552
59	0xbee19b56	-0.44063824
60	0x3f01fddd	0.5077799
61	0xbdda9560	-0.10673022
62	0xbcaa6d88	-0.020804182
63	0xbed81493	-0.42203197
64	0x3f69e3a0	0.91362953
65	0x3e6e5e1e	0.2327809
66	0x3e2b1a62	0.16709283
67	0x3f1b08fe	0.60560596
68	0x3e22633e	0.1585817
69	0x3fb2b924	1.396275
70	0x3ee6787e	0.45013803
71	0xbf0d1e33	-0.55124205
72	0xbfab77a6	-1.3395889
73	0xbe8d3e1c	-0.27586448
74	0xbdd7f613	-0.10544982
75	0xbf031388	-0.5120168
76	0x3ecc14ec	0.39859712
77	0x3c770032	0.01507573
78	0x3f66a885	0.9010089
79	0x3e357e01	0.17723848
80	0xbe281789	-0.16415228
81	0xbf03305a	-0.51245654
82	0x3ecdf3ab	0.40224966
83	0xbf173868	-0.59070444
84	0x3f342acf	0.7037782
85	0xbe815a43	-0.25264177
86	0x3f2a6a19	0.6656814
87	0xbfac0240	-1.3438187
88	0x3f6ae88c	0.9176109
89	0x3e3c08df	0.18362759
90	0x3ebf9dc0	0.3742504
91	0x3f2d189d	0.6761568
92	0x3e457002	0.19281009
93	0xbe8b02bd	-0.27150527
94	0x3f6ab308	0.9167943
95	0xbe91e554	-0.28495276
96	0x3e8fbe4c	0.28074872
97	0x3f59c06e	0.8505925
98	0x3f6d5825	0.9271262
99	0xbedfd9d2	-0.4372087
100	0xbe71f8aa	-0.23630014
101	0x3e8194a4	0.25308716
102	0x3f015271	0.5051642
103	0x3e76f3c4	0.24116427
104	0x3ee649bb	0.44978127
105	0xbeb7e28e	-0.35915035
106	0xbf1df1e3	-0.61697215
107	0xbe5e8a14	-0.2173236
108	0xbf197830	-0.59949017
109	0xbfbcc985	-1.4748999
110	0xbd354ed5	-0.044264633
111	0xbf9b5c2c	-1.2137504
112	0x3fa8c167	1.3184022
113	0xbf38fecf	-0.7226381
114	0xbf189135	-0.5959657
115	0x3fa83fae	1.3144433
116	0xbf0d951f	-0.55305666
117	0x3ed1390e	0.40863842
118	0xbe7cb973	-0.24680118
119	0x3e40cffa	0.18829337
120	0x3eece847	0.46270964
121	0xbf55b2c2	-0.8347589
122	0x3f0a4bf5	0.5402215
123	0xbea03e90	-0.3129773
124	0xbf31330f	-0.69218534
125	0xbdaf7e26	-0.08568983
126	0x3f639ef7	0.88914436
127	0xbea36e56	-0.31920117
128	0xbdcb3380	-0.09921932
129	0xbf367762	-0.71275914
130	0x3e01a045	0.12658794
131	0x3ed8f7fc	0.42376697
132	0x3f903f8f	1.1269397
133	0xbea4eb6b	-0.3221086
134	0xbf5096fa	-0.8148037
135	0xbf5e6d26	-0.868853
136	0x3f48c410	0.7842417
137	0xbf3e8cc0	-0.7443352
138	0x3f8dae0b	1.1068739
139	0x3dcc21b1	0.099673636
140	0xbf641397	-0.8909239
141	0x3f16e423	0.5894186
142	0xbf12473b	-0.5713994
143	0x3f9c1713	1.2194542
144	0x3e3bf0cd	0.18353577
145	0x3f8217ba	1.0163491
146	0xbeb903f2	-0.36135823
147	0xbf0f5771	-0.559928
148	0xbe059a72	-0.13047197
149	0x3f4d1f2a	0.8012568
150	0xbee30638	-0.44340682
151	0x3e7c286d	0.24624796
152	0xbf58cf50	-0.84691334
153	0xbf6a852c	-0.91609454
154	0xbeedaef9	-0.46422556
155	0xbec7652b	-0.38944373
156	0xbed04724	-0.40679276
157	0x3e2e8554	0.17043048
158	0xbc21c56c	-0.009873729
159	0xbf0f619f	-0.5600833
160	0x3f808182	1.0039523
161	0xbe093590	-0.13399339
162	0x3e6722a9	0.22571816
163	0xbe392293	-0.18079595
164	0xbef5f70a	-0.48040038
165	0x3da9fda0	0.08300328
166	0x400ee880	2.2329407
167	0xbf169f5d	-0.5883692
168	0x3e020cce	0.12700197
169	0xbe9bd83e	-0.30438417
170	0xbf414421	-0.7549458
171	0x3d9372fb	0.07199665
172	0x3f549d94	0.83052945
173	0xbf66dda3	-0.9018194
174	0x3e1d2d96	0.15349421
175	0x3f5bd167	0.858664
176	0xbf4fb7d9	-0.81139904
177	0xbf69434b	-0.91118306
178	0x3e5d850e	0.21632788
179	0x3e1f7ea6	0.15575656
180	0x3f84b257	1.0366925
181	0xbf393737	-0.72349876
182	0xbf56fb24	-0.8397696
183	0x3da1d35c	0.07901642
184	0xbeb39bef	-0.35079905
185	0xbecafd26	-0.39646262
186	0x3f5f2299	0.87162167
187	0x3e583def	0.21117376
188	0xbf1189a4	-0.5685065
189	0xbf03363a	-0.5125462
190	0x3fe19427	1.7623338
191	0x3ec4b228	0.38417172
192	0x3f16c1c2	0.588894
193	0xbf5eefd3	-0.8708469
194	0xbeeec8b6	-0.46637505
195	0x3f2aa82a	0.6666285
196	0x3fdf9636	1.7467716
197	0xbea0420c	-0.3130039
198	0x3dc8e2f9	0.098089166
199	0x3eb553cf	0.35415503
200	0xbc88fab2	-0.016721103
201	0xbf1736ee	-0.5906819
202	0xbf30ba27	-0.69034046
203	0xbec42bbb	-0.38314614
204	0x3e6dd4b5	0.23225673
205	0xbd88d250	-0.06680739
206	0xbe0baccd	-0.13640137
207	0xbf1d316f	-0.61403555
208	0x3f0342d2	0.51273835
209	0xbfa2336a	-1.267194
210	0x3f16c5b3	0.58895415
211	0x3fb54f17	1.4164761
212	0xbe851243	-0.25990495
213	0x3e68d32b	0.22736804
214	0xbe913426	-0.283601
215	0xbe76aa8d	-0.24088497
216	0x3f16b9c6	0.5887722
217	0x3f51b0a2	0.81910145
218	0xbdc2150d	-0.09476671
219	0x3f23affb	0.639404
220	0x3f867c26	1.0506637
221	0x3e5911c7	0.21198188
222	0x3f2ebcdb	0.6825692
223	0xbf85bb2d	-1.0447747
224	0xbf4999fd	-0.7875059
225	0xbf15cdca	-0.58517134
226	0xbed07eb8	-0.4072168
227	0xbf5acb5d	-0.8546656
228	0x3e34cf7b	0.17657273
229	0x3e3d4918	0.18484914
230	0xbe6c1723	-0.23055701
231	0xbf8d4f64	-1.1039853
232	0x3fa0d275	1.2564226
233	0x3e5ebd79	0.21751966
234	0x3d3ef637	0.046621528
235	0xbf0bce2d	-0.54611474
236	0xbf2a2196	-0.664575
237	0x3f530ef6	0.82444704
238	0xbd49d847	-0.049278524
239	0x3d5686d7	0.052374687
240	0xbe995a0d	-0.29951516
241	0xbf2836a5	-0.6570838
242	0x3ebb71dd	0.36610308
243	0xbfd38d7b	-1.6527551
244	0x3d6841e5	0.056703467
245	0x3e1d719a	0.15375367
246	0xbe1e95b8	-0.154868
247	0x3eaea4c5	0.34110084
248	0xbf59a50b	-0.8501746
249	0x3e8eecca	0.2791503
250	0xbfa9269f	-1.3214911
251	0x3e485228	0.1956259
252	0x3f6a8a1a	0.91616976
253	0x3f5a320f	0.85232633
254	0xbefde673	-0.4958988
255	0xbd7afb91	-0.06127507

output.bias f4 [1024]
0	0x40cc8530	6.3912582
1	0x40320caa	2.782023
2	0xc08cc2fe	-4.3988028
3	0xc0766e82	-3.8504949
4	0x3ffefbec	1.992063
5	0xbf2167d7	-0.6304907
6	0x3fdd574d	1.7292267
7	0x3f8a2e34	1.079535
8	0xbfafdb42	-1.3738787
9	0xbfebe4cd	-1.84292
10	0x4016f734	2.358838
11	0x402b2598	2.6741695
12	0x40538e76	3.3055701
13	0xc00659a1	-2.0992205
14	0x3fdbc7fb	1.7170404
15	0xbfad6e61	-1.354931
16	0x3fdf86bc	1.7462993
17	0x4012600a	2.2871118
18	0xc09482e8	-4.64098
19	0xc033da98	-2.810217
20	0x3fd9a1d8	1.7002516
21	0xc05327db	-3.2993076
22	0x406f7f83	3.7421577
23	0x3f0071a2	0.5017339
24	0xbf03012b	-0.5117366
25	0xc03c50db	-2.942435
26	0x3f1af899	0.6053558
27	0x3f65b071	0.89722353
28	0x3ff47775	1.9098955
29	0xbfe1ec04	-1.7650151
30	0xbd3417b8	-0.043967932
31	0xbffec80c	-1.99048
32	0x3f5b42fe	0.85649097
33	0xc0423388	-3.0343952
34	0x3fa47825	1.2849165
35	0xc006e56e	-2.1077533
36	0xc007a860	-2.1196518
37	0xc06052ec	-3.5050611
38	0x3f4f6d9a	0.81026614
39	0x4010e49c	2.2639532
40	0xbf986526	-1.1905868
41	0xc04ef020	-3.233406
42	0xbf8591b8	-1.0435095
43	0xbf8c7d85	-1.0975806
44	0x409e8a0d	4.954352
45	0x401e08f3	2.4692962
46	0xc07a4231	-3.91029
47	0xc07d2eac	-3.9559736
48	0x3fcf552a	1.6197865
49	0xc03594fb	-2.837218
50	0xbfa035dc	-1.2516437
51	0xc03d3872	-2.9565701
52	0xbfed153b	-1.8522104
53	0xc056fd49	-3.3592093
54	0xbf397094	-0.72437406
55	0xbf9b6107	-1.2138985
56	0xbf7aa3e2	-0.97906315
57	0xc0b44708	-5.633671
58	0xbd29c174	-0.041444257
59	0xc04f6048	-3.2402515
60	0x4023812b	2.5547588
61	0x4022bc1f	2.542732
62	0xc0a40169	-5.125172
63	0xc0476a10	-3.1158485
64	0x3e8092e9	0.25112084
65	0xbea97934	-0.33100283
66	0x3f407c8d	0.7519005
67	0xc0197e0c	-2.3983183
68	0x40751cd7	3.8298852
69	0x408eaa75	4.4583077
70	0xbf06c001	-0.52636725
71	0xc01ba83c	-2.4321432
72	0x4061abba	3.5261064
73	0xbf2ad05b	-0.66724175
74	0x3fc97388	1.5738382
75	0xc05bcf66	-3.4345336
76	0xc08663de	-4.199691
77	0xc01c0bce	-2.4382205
78	0x407cd0a2	3.950234
79	0x406fc706	3.7465224
80	0xbea8ddd1	-0.32981732
81	0xc0195640	-2.3958893
82	0x3f263380	0.6492233
83	0xc04e7194	-3.2256823
84	0x3fd90cab	1.6956991
85	0x4063c2fd	3.5587761
86	0xbff1ee24	-1.89008
87	0xc00cae50	-2.1981392
88	0x40097fe8	2.1484318
89	0x3ea297c8	0.31756425
90	0xbf87e0b3	-1.0615448
91	0xc08bd410	-4.3696365
92	0xc02719b2	-2.6109433
93	0xc060869f	-3.5082166
94	0x408ae81f	4.340835
95	0xbe79b0ec	-0.24383897
96	0xc0998143	-4.797029
97	0xc03e29ed	-2.971309
98	0x40105190	2.2549782
99	0x3fe025fc	1.7511592
100	0x401ebce0	2.480278
101	0xbfb04853	-1.3772072
102	0x3f4398bf	0.7640495
103	0xc09602cf	-4.687843
104	0xbd06e755	-0.03293546
105	0x3f983839	1.1892158
106	0xc060e830	-3.5141716
107	0xc0a1e7e5	-5.0595574
108	0x3f7a05cb	0.9766509
109	0xbeb1af69	-0.3470414
110	0xbe8de35c	-0.27712524
111	0xc0306ca0	-2.75663
112	0xc07db358	-3.9640713
113	0xc08f9b30	-4.487694
114	0x4002f56b	2.0462291
115	0xbe6cdb08	-0.23130429
116	0xbcf291e8	-0.02961059
117	0xbf87dc7c	-1.0614161
118	0xc0165748	-2.3490772
119	0xc0955aa0	-4.6673126
120	0xc025d6e4	-2.591241
121	0xbf0c4dad	-0.54806024
122	0xc0881e94	-4.2537327
123	0xc085fc84	-4.1870747
124	0xbf30b52e	-0.6902646
125	0xc02afa03	-2.6715095
126	0x3f3d46dd	0.73936254
127	0xc05bcce0	-3.4343796
128	0x3e99b4d3	0.3002077
129	0x3df1281a	0.11775227
130	0x40632893	3.5493515
131	0x3f8bf865	1.0935179
132	0x40bdce2c	5.9314175
133	0x40c558f7	6.16711
134	0xbff7abd2	-1.934931
135	0xc05c773e	-3.444778
136	0x3fc023f7	1.5010976
137	0xc01e1213	-2.4698532
138	0x4036b12e	2.8545642
139	0xc00ab111	-2.1670573
140	0xbf90cb73	-1.1312088
141	0x3e03d222	0.12873128
142	0x409912cd	4.783545
143	0x406286ab	3.5394695
144	0x3e7e873b	0.24856274
145	0xc01376b7	-2.3041208
146	0x40825996	4.073436
147	0xbf929bf3	-1.1453842
148	0x3ff656a2	1.9245188
149	0x40cf3bbb	6.4760413
150	0xc06280ed	-3.539119
151	0xc01e7789	-2.4760458
152	0x3f3acf5f	0.72972673
153	0xbf371205	-0.7151187
154	0x3cdc4229	0.026887016
155	0xc052dfe7	-3.294916
156	0x3d3d8c4d	0.04627638
157	0xbf006e42	-0.5016824
158	0x402bbc34	2.683362
159	0x3f451838	0.7699008
160	0xc047bdc0	-3.1209564
161	0xc017c319	-2.3712828
162	0x3f5f06f2	0.8711997
163	0x3df78a30	0.12086904
164	0x3ff68ec5	1.926232
165	0xbf91d0fd	-1.1391903
166	0x4061fa4a	3.5309014
167	0xc00ea05a	-2.228537
168	0x407b2174	3.9239168
169	0x406baa0d	3.682254
170	0xc07305c2	-3.7972264
171	0xc0a5d575	-5.182307
172	0xbf4f7364	-0.8103545
173	0xbfb4c3d6	-1.4122264
174	0x3f80b37c	1.0054774
175	0xbfb01a78	-1.3758078
176	0xc0384649	-2.8792899
177	0xc0444b26	-3.0670867
178	0x3f523d01	0.82124335
179	0xc008d755	-2.1381428
180	0x3fa558fa	1.2917778
181	0xbf41993c	-0.7562444
182	0x3fbb7383	1.4644626
183	0xc0209678	-2.509184
184	0x3e2aaee1	0.16668274
185	0x4049a6f4	3.150815
186	0xc0979fdb	-4.7382636
187	0xc07837ce	-3.878406
188	0xc0006097	-2.0058954
189	0xc0781d3e	-3.8767848
190	0x4027e85e	2.6235576
191	0xc017de7f	-2.372955
192	0x40971c9e	4.7222433
193	0x40536829	3.3032324
194	0xc020345f	-2.5031965
195	0xbf9a3ae9	-1.2049228
196	0x4046a394	3.103734
197	0x3d40c95b	0.047067028
198	0x3ec81319	0.3907707
199	0xbf485e59	-0.78268963
200	0xc050ade2	-3.260613
201	0xc05af06e	-3.4209247
202	0x3fee6133	1.8623413
203	0x40781bf7	3.8767068
204	0x40e4942e	7.1430883
205	0xbf7100e4	-0.94141984
206	0x3fe65241	1.7993852
207	0xbfef9669	-1.8717777
208	0x3fa4ec70	1.2884655
209	0x3fd1901b	1.6372102
210	0xc011fe3f	-2.281143
211	0xbf615f15	-0.8803571
212	0x401277b3	2.2885559
213	0xc01ead36	-2.479322
214	0x3fe5fc87	1.796769
215	0xbf53afbe	-0.82690036
216	0xc009eb90	-2.1550026
217	0xc09fd6fe	-4.994994
218	0x402540e8	2.5820866
219	0x3fba5d47	1.4559716
220	0x408b6141	4.355622
221	0x3f21c588	0.63192034
222	0xbf8625c9	-1.0480281
223	0xc0170a7f	-2.3600156
224	0x403688e9	2.8521063
225	0xc064ddd6	-3.5760398
226	0xbf104ee9	-0.5637041
227	0xc08b4d9c	-4.353224
228	0xc03a199d	-2.9078133
229	0xc059651f	-3.396797
230	0x403e2393	2.9709213
231	0x40b897e7	5.768543
232	0x3fea4f3f	1.8305434
233	0xbfc41c44	-1.5321126
234	0xbf985fd9	-1.190425
235	0xbfd8723d	-1.6909863
236	0x3ff3c055	1.904307
237	0x3f980d37	1.1879033
238	0xc0648839	-3.5708144
239	0xc03724ad	-2.8616135
240	0x3ff53c2c	1.9158988
241	0xc007b0a4	-2.1201563
242	0xc066f350	-3.6086006
243	0xc099cb2d	-4.8060517
244	0xbfb61c1c	-1.4227328
245	0xc083688d	-4.1065125
246	0x4006e9e7	2.1080263
247	0x3f71f09a	0.94507754
248	0xbc0b4cae	-0.008502169
249	0xc05942cf	-3.3947027
250	0xbf6e8cbe	-0.93183506
251	0xc02f4f1e	-2.739204
252	0x3d82dc20	0.06389642
253	0xbdbc832d	-0.09204707
254	0xc09a01c5	-4.812716
255	0xc0214482	-2.5198064
