Hamming74/Result/Model/SLNN_modified_threshold0.05_cpu_hidden/SLNN_model_modified_hiddenlayer13_BER0.pth (torch, 3784 bytes, 4 tensors)

hidden.weight f4 [13, 7]
00000000: f999 22be c35c bebe e608 c3be 60be 15bf
00000010: ef1d 053f 6c17 febe b5df 4abe 0000 0000
00000020: bd73 af3d 21fb 0a3e afdf e13d fd83 693e
00000030: 0000 0000 6563 82bf 94e8 a43e 5bba a33e
00000040: 83b6 d53e 0000 0000 0000 0000 1a65 4bbf
00000050: 0000 0000 dbce ae3f 6f0b cc3e 0000 0000
00000060: 9c9e 8abf 0000 0000 ca47 0e3f 7649 60be
00000070: 35f9 21be d72f 423f 8b82 18bf dad2 783e
00000080: 6d82 883e 67d9 a03e 9ccf 9d3e 686d 68be
00000090: ce93 913e f568 5e3f 9471 8dbe f3c5 033e
000000a0: 0000 0000 aee3 d83e 1597 1b3f 7336 37bf
000000b0: 0000 0000 170d b23e 0000 0000 0000 0000
000000c0: 051b d23e fa92 1a3f 0000 0000 c4b9 0bbf
000000d0: 5dce 173f d197 1fbe 34ae e9be 0000 0000
000000e0: 7a52 e1bd 0000 0000 131e bebe 75b3 abbe
000000f0: bb55 31bf 132a 7bbe 5c3f d83e 67ae 9ebe
00000100: f7d9 ddbe 0000 0000 d773 7fbe 0000 0000
00000110: 51df 5b3f 5ab2 e23d fa06 d4bd 0000 0000
00000120: 0000 0000 0000 0000 1cf5 78bf 7864 5c3e
00000130: ce6d dcbe d6cd e33e c692 5b3e a0f0 0e3f
00000140: 6885 133f d752 f23d 59ec a13e 94a4 09be
00000150: 7c8a a8bf 74d3 edbe 0000 0000 c008 8d3f
00000160: 0000 0000 2a37 09bf 5e4e 693e
-0.15879048 -0.37180147 -0.38092726 -0.58493614 0.519988 -0.49627244 -0.198119 0.0
0.08566997 0.1357236 0.110289924 0.22804256 0.0 -1.0186583 0.32208693 0.31978115
0.41740808 0.0 0.0 -0.79451144 0.0 1.3656877 0.39852473 0.0
-1.0829654 0.0 0.5557829 -0.21903023 -0.15817721 0.7585425 -0.5957419 0.24299183
0.26662007 0.31415865 0.30822456 -0.22697985 0.2843308 0.868789 -0.27625716 0.1286848
0.0 0.42361206 0.6077741 -0.7156746 0.0 0.34775612 0.0 0.0
0.4103624 0.6038052 0.0 -0.5458033 0.5929926 -0.15585257 -0.4564072 0.0
-0.11002059 0.0 -0.3713232 -0.33535352 -0.6927144 -0.24527769 0.4223584 -0.30992433
-0.43330356 0.0 -0.24946533 0.0 0.8588763 0.11069174 -0.10352893 0.0
0.0 0.0 -0.9724901 0.21522701 -0.43052524 0.44492978 0.21442708 0.55835915
0.57625437 0.11832207 0.3162563 -0.13441688 -1.3167262 -0.46450388 0.0 1.1018295
0.0 -0.535998 0.22783801

hidden.bias f4 [13]
00000000: 7324 0040 62a3 ee3f 6e49 cb3f cc09 e73b
00000010: a0dc 1340 c9cd fd3f a98f 0c40 112d 5a3f
00000020: fc08 c53f 13ad ba3f 5124 0340 8944 803f
00000030: b262 eabd
2.0022247 1.864361 1.5881784 0.0070507284 2.310341 1.9828426 2.1962683 0.85225016
1.5393367 1.4584068 2.0490916 1.0020915 -0.11444606

output.weight f4 [16, 13]
00000000: 3721 c13f ce56 a33d dd05 d2be e7c4 aabe
00000010: b625 7dbf d50a 4cbf 8d44 29bf bbda cebd
00000020: c53f 6a3f e78f a3be c156 6f3f 1441 afbe
00000030: 1144 9e3e bdfa 30bf 23ca 1bbf 0396 493f
00000040: 2caa 383d 14dd 063f e2a7 f3be 4ed1 583c
00000050: e7ba 9a3f c1aa 333f 116c 02bf ec97 42be
00000060: 203f a1bd a495 1ebd 4d64 17bf 7bbd 9e3e
00000070: c72c 1ebf 24cd c0be 9615 943f a882 4dbf
00000080: fe25 50bf 8b16 36bd 14d9 d5be fa84 dfbd
00000090: 257f a93f 022a 34be f0db 9d3e 6d1a 5ebe
000000a0: 4cfc 1ebf e7dd 19bf 7263 403f 3f58 83be
000000b0: ae06 32bf 8f62 803f 5966 11be 05d8 a83f
000000c0: c8b4 003f cb5a 4ebd 951d 8cbe 849d 3cbf
000000d0: b1b8 433f 6e76 553f 9648 bebe 40f8 19be
000000e0: 227b efbe 1d78 31bf 81b7 3e3f 11a9 9b3f
000000f0: 5ae9 04bf 5155 dfbe 3fb1 1dbf b15b 0fbe
00000100: 11a5 083d a82c ab3f 6f04 27bf 6aa9 a13d
00000110: a7cd 40be db0c 6c3f dbdc a53e 2a60 5dbf
00000120: 7e60 07be 06d0 ef3e 1473 0fbf e9dd 5ebf
00000130: f32b babe 9e4c 0f3e 7d01 9e3e 8497 2d3f
00000140: 7895 d2be 46d5 9a3f 9fba 5d3f e660 0bbf
00000150: 35d9 b4be 618f 19be d21e cbbe 4bf5 96bd
00000160: 223b d2be e0b0 10be 6f1f 98bf e5c3 273e
00000170: 5e97 f5be fcc1 0fbf 905f 49bf 3404 4f3f
00000180: 5351 34bf 7ace 443f 16fe c7bd 5e9f bdbe
00000190: 06ee 7b3f 9b86 47bf bce0 6abe 51ad 483f
000001a0: e2bc 94be 54e1 023f 2125 b63f a0d0 583f
000001b0: adc6 48bf a9dd 833d 6576 26bf 424e bdbd
000001c0: 8a9f d93c ff67 fbbe dc45 1e3f 59a8 87be
000001d0: 0020 55bf ee21 eabe e1da 06bf 13ad c13e
000001e0: 5658 92bf 3427 79bf e4c0 dc3e 225f 343f
000001f0: 80ac 1fbe afcc a93e 274e 8fbe 90f6 893e
00000200: 8538 4cbe 3fc4 943f 4f02 10bf c884 993e
00000210: 9097 b8be b638 163e b395 83bf b58c ccbe
00000220: f457 763f 470c 74be c3f6 f7be 164a 60bc
00000230: 455d 923f 0286 643f 26a3 15be 5e01 45bf
00000240: bbf7 38bf 8426 d1be bb12 1e3e ebcc ec3d
00000250: b018 cd3f 8b52 61bf 88bb a2be 77c1 0b3f
00000260: b2cb bb3e 8d9c df3e 7480 24be ef1b 43be
00000270: d8f4 5abe 6aea b33f 7643 1b3f 1d13 51bf
00000280: 495a 303e 45a7 f43e 104a 52bf caec 0ebe
00000290: 8a96 02bf 4ac6 00bf 470d 40bf c007 383e
000002a0: 0bd3 403f 9bfd 5b3f fdb7 0fbf 1306 1d3f
000002b0: 72b2 d83e 46a9 7dbf f16b 4e3f 7ad1 923f
000002c0: 5095 5cbe 4412 aebe b03f c3be 4c6d 55bf
000002d0: f2a1 8abe a93d f3be ca72 f03e f2c0 4f3f
000002e0: 65d0 e6be 14bc 333c 2edc 8bbf 604c 293f
000002f0: 516f 11bf 770a 9fbe 0e07 00bf 8e1e c23f
00000300: c9ab f2be 673c 68be 461b 3ebd 17cf 11bf
00000310: 7d8a 01bf 8912 82be 171b 9c3e d721 403f
00000320: 6390 2e3f b6e6 043f 5896 0cbe c07e f1be
00000330: b33b 98be 54ee 44bf 70fc ac3f 852a b0be
1.5088261 0.07975541 -0.41020098 -0.3335335 -0.9888567 -0.7970403 -0.66120225 -0.10100313
0.91503555 -0.31945726 0.9349175 -0.34229338 0.30911306 -0.69132596 -0.6085531 0.78744525
0.045084164 0.5268109 -0.47589022 0.013233496 1.2088288 0.70182425 -0.50946146 -0.19003266
-0.07873368 -0.038716927 -0.5913742 0.31003937 -0.61787075 -0.3765651 1.1569088 -0.8027749
-0.8130797 -0.044455092 -0.4176718 -0.10914035 1.3241926 -0.1759415 0.30831861 -0.21689768
-0.62103724 -0.6010422 0.7515174 -0.25653264 -0.6954144 1.0030078 -0.14199199 1.3190924
0.5027585 -0.050379556 -0.2736632 -0.7367785 0.7645369 0.83383834 -0.37164754 -0.15036106
-0.4677363 -0.69323903 0.74498755 1.216097 -0.51918566 -0.4361978 -0.6159858 -0.13999821
0.033360545 1.3373003 -0.6524114 0.07893641 -0.1882845 0.92207116 0.32395062 -0.8647486
-0.13220403 0.46838397 -0.5603497 -0.8705736 -0.36361656 0.13994071 0.3086051 0.6780932
-0.4112966 1.2096336 0.86612886 -0.5444473 -0.35321966 -0.14996101 -0.39671952 -0.07371005
-0.4106074 -0.14129972 -1.1884593 0.16383322 -0.47967046 -0.5615537 -0.7866144 0.8086579
-0.7043659 0.7687756 -0.0976526 -0.3703565 0.9841007 -0.77939767 -0.22937292 0.7838946
-0.29050356 0.51125073 1.4230081 0.84693336 -0.78428155 0.06438763 -0.65024406 -0.09243442
0.026565332 -0.4910278 0.61825347 -0.26495627 -0.83251953 -0.4572901 -0.5267773 0.37827358
-1.1433208 -0.97325444 0.43115914 0.7045766 -0.15593147 0.33163974 -0.27989313 0.26945925
-0.19943435 1.162239 -0.5625352 0.29984117 -0.36053133 0.14670071 -1.028006 -0.399511
0.96227956 -0.23832808 -0.48430452 -0.013689538 1.1434714 0.8926698 -0.14613017 -0.7695521
-0.72253007 -0.40849698 0.15436833 0.115625225 1.6023159 -0.88016576 -0.317837 0.5459208
0.36678845 0.43674126 -0.16064626 -0.19053625 -0.21382463 1.4055912 0.6064981 -0.8166979
0.17221941 0.47783867 -0.8214426 -0.13957515 -0.51010954 -0.50302565 -0.7502026 0.17971706
0.75322026 0.85933846 -0.5614012 0.61337394 0.42323643 -0.99086416 0.80633456 1.1470177
-0.21541333 -0.3399831 -0.38134527 -0.833699 -0.2707668 -0.4750798 0.46962577 0.81153786
-0.45080867 0.010970134 -1.0926569 0.66132164 -0.5681048 -0.31062672 -0.50010765 1.5165575
-0.47396687 -0.22679292 -0.04641273 -0.5695662 -0.5060194 -0.25404766 0.30489418 0.75051636
0.68189067 0.51914537 -0.13729227 -0.47167015 -0.29733047 -0.7692616 1.3514538 -0.3440744

output.bias f4 [16]
00000000: e1c7 a63d 8be3 35be 9176 593e 055c 15bd
00000010: d987 313e 85c5 c2be ae99 e83e 4e0e d33c
00000020: 7f32 823d 83a9 093f 8ff0 86be 6e57 d8be
00000030: 68fd cf3d f81a 05bf feed df3e 3294 c6be
0.081435926 -0.17762582 0.21236636 -0.03646471 0.17336978 -0.3804132 0.45429748 0.025763657
0.063572876 0.5377428 -0.26355407 -0.42254204 0.10155755 -0.51994276 0.4373626 -0.3878494
