Result/Model/Hamming7_4/SLNN_cpu/SLNN_hiddenlayer57.pth (torch, 7872 bytes, 4 tensors)

hidden.weight f4 [57, 7]
000000 e8 eb ee be da 4f 49 be 9a ab a4 be 35 53 f0 3e
       -0.46664357 -0.19659367 -0.32162172 0.46938482
000010 4d ac f0 3e f3 11 c2 3e 0e 52 72 3e 84 1c 46 3d
       0.47006455 0.3790432 0.23664114 0.04836704
000020 78 3a 7f be 79 2a ba 3c db 52 ed bd 8c ea 89 be
       -0.24924648 0.02272533 -0.11588069 -0.26936758
000030 2f d1 ae be 3a d3 4e be 4d 15 6e 3e 69 57 f6 3b
       -0.3414397 -0.20197764 0.23250313 0.0075177443
000040 80 d7 14 3d cd e0 e5 be 80 4d c3 3e e8 9d 8f be
       0.03633833 -0.44898072 0.38145065 -0.2805016
000050 7b a4 5c 3e c5 12 01 bf e1 2d 95 be 3b 64 9f 3e
       0.2154712 -0.50419265 -0.29136565 0.31131157
000060 82 f4 b8 bd 4b 6c 9b 3e df a6 c1 3e 2f d5 02 bf
       -0.09031011 0.30356058 0.37822625 -0.5110654
000070 0e 0e d8 be 1a a9 08 3f 12 0b 25 3f 49 35 d7 be
       -0.42198223 0.5338303 0.64470017 -0.4203284
000080 47 4d f6 be 85 79 51 3d af 17 19 3e ed 27 da 3e
       -0.48105833 0.05114128 0.14950441 0.42608586
000090 2c 88 20 be 81 bd cf bd 47 4c c6 be bb 8b f4 3e
       -0.15676945 -0.10143567 -0.3873007 0.47762856
0000a0 b4 91 df bd e5 de a9 3e 0a 85 93 3e a6 1b 94 3c
       -0.109164625 0.33177868 0.28812438 0.01807959
0000b0 0b 7d 88 be 8d 33 52 3e 46 ab ee 3d 37 26 8f be
       -0.266579 0.20527478 0.116537616 -0.27958843
0000c0 d5 53 00 3d 34 ad ad 3e 93 02 0f be 77 af f1 3e
       0.03132995 0.33921206 -0.13965826 0.47204182
0000d0 5b ec 42 3e 6d 5e ad be 2c 93 c0 3e 76 5a fc be
       0.19035475 -0.33861104 0.37612283 -0.49287766
0000e0 f3 93 7c 3d d4 c4 e2 be 4b 18 78 3e 13 0c 22 bf
       0.061664533 -0.44290793 0.24228017 -0.63299674
0000f0 76 ec 04 3e d5 2d 3b 3f 4d 52 a0 be 6b 69 ec be
       0.12980828 0.7311681 -0.3131279 -0.46174178
000100 13 45 a6 bc b2 cc ae bd cb 52 03 bf 75 c6 54 3d
       -0.020296609 -0.08535136 -0.5129821 0.051947076
000110 19 ca fc bd 6c ec 9c 3e 34 fc 79 be c9 58 d1 3e
       -0.123432346 0.30649126 -0.24412614 0.4088805
000120 ef ad 3e 3e 94 90 82 be d5 03 86 be 4e 3c 10 bd
       0.18621038 -0.2550093 -0.261748 -0.03521376
000130 0a 38 b3 bd 8a df 47 3e ce 2f 77 3e cb e4 f9 3e
       -0.08750923 0.19518867 0.2413933 0.48807368
000140 a0 b3 dc 3e 39 cd ff 3e fe a8 2d 3e ec b4 ef 3d
       0.43105793 0.4996126 0.16958997 0.1170443
000150 b3 19 2c be e2 df dd be ad 03 06 bf 6d f8 03 bf
       -0.16806678 -0.43334872 -0.5234936 -0.5155094
000160 1e 14 03 bf e4 87 1b be c8 14 0e be 9e ef d1 3e
       -0.5120257 -0.15188557 -0.13875115 0.41003126
000170 d9 f0 86 3e c6 e1 30 3f 6b 14 8f 3e 09 d2 e1 3e
       0.26355627 0.690945 0.27945265 0.44105557
000180 92 42 cd 3e 2a c5 48 3f 15 8a 68 3e 88 e8 aa be
       0.40089852 0.7842585 0.22708924 -0.33380532
000190 a7 eb 00 bc b7 68 1d 3e e2 b6 78 be 6a ae 8d 3e
       -0.007868684 0.15371977 -0.24288514 0.2767213
0001a0 4e 8e 15 be a6 d1 80 3e 05 3a b8 bd e4 bb 8a 3e
       -0.14605066 0.2515995 -0.08995441 0.27096474
0001b0 ef a9 cd 3d c8 65 92 be 45 43 d3 3d 1e 8c 07 3e
       0.10042178 -0.28593278 0.10315565 0.13237044
0001c0 0a fc bd 3e ce eb 14 bf 05 8a c3 be 14 da c5 be
       0.37106353 -0.5817231 -0.38191238 -0.38642943
0001d0 0a 91 1a bf 65 17 0a 3f bc 63 f9 3e ff f4 0f bf
       -0.6037756 0.5394195 0.48708904 -0.5623321
0001e0 5a 06 8a 3e 6e f6 03 bf ac 70 e6 be 76 77 ba 3e
       0.2695797 -0.51547897 -0.45007837 0.36419266
0001f0 61 dd 4d be 5c e8 95 3e 10 5a 6f 3e cd 70 91 be
       -0.2010398 0.2927884 0.233742 -0.28406373
000200 38 88 91 3e f9 bc 80 be 7c b0 4c 3e 60 88 e6 be
       0.2842424 -0.25144175 0.19989198 -0.4502592
000210 1e da ae 3e e0 d8 84 3e 5f a7 71 bd 2d 2e ef bc
       0.34150785 0.25946712 -0.05899751 -0.029196823
000220 b7 25 7b be a1 e9 98 be 92 87 37 be 70 92 0a 3d
       -0.24526106 -0.29865745 -0.1792281 0.03383106
000230 e0 df b2 be 4d 75 bc be 07 7e a5 be 71 0b e6 3e
       -0.34936428 -0.36808243 -0.32322714 0.44930604
000240 ab e5 84 3e 4b b6 c6 3e c7 79 96 3e 00 5f 3f be
       0.25956473 0.38810953 0.29389784 -0.18688583
000250 5d b1 15 bf c4 29 4d 3d a3 2b 1b 3f 90 ba bf bd
       -0.5847376 0.05008866 0.6061346 -0.09361756
000260 80 ad 06 be e1 a9 de be 14 c4 a5 be 3b bb 03 3f
       -0.13152122 -0.43488982 -0.32376158 0.51457566
000270 93 e3 ae be 7d f5 c0 3e a0 f4 65 be e4 92 ce 3e
       -0.34158 0.37687293 -0.22456598 0.40346444
000280 4b 85 bf be 2b 9c c6 be c6 cc 60 be dd c1 32 bf
       -0.37406382 -0.38791022 -0.21953115 -0.6982706
000290 b2 8b 7d be c3 71 b9 be 77 5f c9 be 08 4e 38 bf
       -0.24760321 -0.36219606 -0.39330646 -0.71994066
0002a0 42 e4 8a be 22 7d 81 3e 31 22 0d 3c 53 dc b7 3c
       -0.27127272 0.2529078 0.008614109 0.022443926
0002b0 8a 19 36 be 7a 2c c3 3e a1 7f 90 bc cc d5 45 be
       -0.1778318 0.3811987 -0.017638983 -0.19319838
0002c0 21 f2 74 3d d1 4c d2 be 7d 9c 7c be 8d 76 51 3e
       0.059801225 -0.4107423 -0.2466907 0.2045538
0002d0 23 3b 89 be 6e 4c f4 3e ea d6 d0 3d 80 e8 88 3e
       -0.2680293 0.4771456 0.101972416 0.26739883
0002e0 88 c6 98 be c1 3f 04 3f 9e 6e 32 be 79 91 e6 be
       -0.29838967 0.5165978 -0.1742501 -0.45032862
0002f0 3f ab 12 3d d3 80 d5 be c1 53 fa bd 94 c7 ca 3e
       0.035807844 -0.41699848 -0.12223006 0.3960539
000300 44 0a 55 be d0 81 8f be 61 9d d4 3d ea 4d 02 be
       -0.20804697 -0.28028727 0.1038158 -0.12725034
000310 44 a0 92 be a9 75 9d 3d 93 cf c4 3c 40 4c 03 3f
       -0.28637898 0.076884575 0.02402476 0.51288223
000320 15 9d 0f bf ee 7c b7 3e 10 78 83 be 28 c9 ed 3e
       -0.56099063 0.358375 -0.25677538 0.46442533
000330 3f ef c0 3e 58 02 0c bf 7b 1c da be e2 b8 5d 3e
       0.3768253 -0.54691076 -0.42599854 0.21652558
000340 9e 72 ae 3e 38 4a 42 bf c0 5b 87 be c4 47 b9 be
       0.3407182 -0.758945 -0.26437187 -0.36187565
000350 b2 1c ca 3e c7 f1 5d 3e a4 cb cf be 3f a0 fa be
       0.39475018 0.21674262 -0.40585053 -0.48950383
000360 00 e3 f3 3e 21 10 98 3e 2a ee ee 3e 8b ac f2 be
       0.47634125 0.29699805 0.4666608 -0.47397265
000370 3c bd ed bd 1f 1a c6 3e 4c df 1f 3f 06 ea 85 be
       -0.11608359 0.38691804 0.624501 -0.26155108
000380 8a 78 17 be aa 23 45 bd 5a 23 0e 3e 36 d4 49 be
       -0.14792076 -0.048129715 0.13880673 -0.19709858
000390 c7 e2 c4 be 75 67 19 3e 36 8b 80 3e 04 bd fa 3d
       -0.38454267 0.14980872 0.2510621 0.12243083
0003a0 24 ee b8 3e 02 6a 6e bd e3 cf dc be 1a be 50 3e
       0.36119187 -0.058206566 -0.43127355 0.20385018
0003b0 3d dd 2d 3e 9f 91 f0 3e 0e 2d a2 be dd aa 1b 3f
       0.16978927 0.469861 -0.31675 0.6080759
0003c0 b6 ae ba 3e cc 66 af 3e 0c a4 16 3f b2 b7 d5 be
       0.3646142 0.34258115 0.58844066 -0.4174171
0003d0 9f e7 e6 be 31 23 ec 3e 30 70 9b 3e 14 cb 86 3e
       -0.45098588 0.461206 0.3035903 0.2632681
0003e0 ec 4d 05 be c6 d2 91 3d 9e d2 a7 bd f2 87 ae be
       -0.13018006 0.0712028 -0.08194469 -0.34088093
0003f0 ce ae 4c be f5 d2 13 3e 71 23 4b bd 36 1a 5a bc
       -0.19988558 0.14435942 -0.049594346 -0.013311913

hidden.bias f4 [57]
000000 c3 d3 af 3d dd e6 ec bd 52 fc 09 bd ab 81 d1 3d
       0.08585312 -0.11567471 -0.033687897 0.1022981
000010 d3 95 f5 bb 7a 48 82 3d 75 43 04 be e9 33 94 be
       -0.007494667 0.0636148 -0.12916358 -0.28945854
000020 8e a4 2c be 1e 2c 97 be 40 cb bd 3d 28 b0 e1 3c
       -0.16859648 -0.29525846 0.092672825 0.027549818
000030 39 29 00 be 82 ab 95 bd 7f ae 8b be 42 88 56 3b
       -0.12515725 -0.07308103 -0.27281567 0.0032735025
000040 2b 53 16 3e 19 4f 82 be c3 fe 99 bd 9d b3 bf bd
       0.14680164 -0.25450972 -0.07519295 -0.093604304
000050 ce 9d 6e bd 3f 0c 95 3c b6 27 da be 0f 59 07 3d
       -0.058255963 0.018194316 -0.42608422 0.033043917
000060 87 7d 90 bd 3a 2d 18 3e ae c9 9d 3d 07 48 71 3d
       -0.070551924 0.14861003 0.07704483 0.05890658
000070 16 c6 f5 bd 0a 5d f5 bd 70 55 d1 bd 5f 89 14 be
       -0.120006725 -0.119806364 -0.10221374 -0.14505528
000080 4a 33 a6 bc d6 52 d9 bd c9 11 32 be 43 a3 a9 bd
       -0.020288128 -0.10611503 -0.17389597 -0.08283093
000090 84 43 c8 3d 30 93 a3 bd f0 2f 80 3d 7d f8 7d bd
       0.097785026 -0.07987058 0.06259143 -0.062004555
0000a0 b7 6c 68 3d 77 7b 4c bd dc 72 6f bd 35 78 57 be
       0.056744304 -0.049922433 -0.058459148 -0.21041949
0000b0 c4 4c 14 be e6 1f 16 3b df ef 05 be 8c c1 e7 3c
       -0.14482409 0.0022907197 -0.13079785 0.028290533
0000c0 78 9f 5d be 00 cb 95 3d 5d 14 39 be ba 8a 88 ba
       -0.21642864 0.0731411 -0.18074174 -0.001041732
0000d0 9f 69 27 bd 2c 37 b2 bd e4 d1 c5 bc 6c cb ef 3c
       -0.040872212 -0.087019295 -0.024147935 0.029271804
0000e0 8c 99 1c 3c
       0.009558093

output.weight f4 [16, 57]
000000 cf d6 99 be 54 10 ad 3e aa fa ea bd bf cd d6 3d
       -0.30046698 0.3380152 -0.114735916 0.10488462
000010 15 86 06 bd 58 1e e7 bd be cf 9b 3d f1 3f f8 bc
       -0.032842714 -0.112850845 0.07607983 -0.030303927
000020 13 3a 95 3d 7b 53 87 3e b0 d1 bf 3d 0e a9 65 bf
       0.072864674 0.26430878 0.093661666 -0.8971108
000030 0d 76 59 3f 57 33 84 bf cd 66 69 bd 87 30 5e be
       0.84945756 -1.0328168 -0.056982804 -0.21698199
000040 e3 fb 62 3e a9 5f 5a 3e 5f f9 09 3e 59 47 f3 3d
       0.221664 0.21325554 0.13474034 0.11878843
000050 85 46 a7 bd 23 e4 a1 3e 41 03 81 3d 9d ff 96 3f
       -0.081677474 0.31619367 0.06299449 1.1796757
000060 f4 f3 8a bd 95 74 04 3e 6d 28 ac ba 78 19 81 3e
       -0.067848116 0.12935098 -0.0013134606 0.25214744
000070 71 81 bf 3d 2a 71 31 3e f3 3c 1f 3e a3 30 d7 be
       0.09350861 0.17328325 0.15550594 -0.42029294
000080 a2 79 8f 3d df c4 95 be ce 1f 4c be 22 46 21 be
       0.070056215 -0.29251763 -0.19934008 -0.1574941
000090 93 d5 1c be 8d b1 5b be e8 2f 7c 3e 0b 91 ff 3c
       -0.15315847 -0.21454449 0.2462765 0.031197092
0000a0 97 c1 6f be 48 ab ac 3e 6c 61 92 bd 9f fd b8 bd
       -0.23413692 0.33724427 -0.07147488 -0.090327494
0000b0 46 bf 28 3e 28 3f 9e be 5f 2d 0e 3c bf 72 68 bd
       0.16479215 -0.3090756 0.0086778095 -0.056750055
0000c0 22 98 94 3d 52 9b ab be 0e cf f7 bc 8a 25 47 3e
       0.072555795 -0.33516937 -0.030250099 0.19447914
0000d0 76 83 d2 3e 2a 8d 94 be b4 27 07 3e 71 8d 42 bd
       0.41115922 -0.2901395 0.1319874 -0.04749817
0000e0 38 71 08 be ca 92 a4 be 55 56 d0 3d 0e 04 5b bb
       -0.1332444 -0.3214324 0.101727165 -0.0033419165
0000f0 84 d0 81 bf 75 d9 1c be 84 28 f4 bc 78 97 8e 3e
       -1.0141759 -0.15317328 -0.029804476 0.27849936
000100 39 a8 74 be c7 92 6f bf 74 cb 45 be ad 67 7a ba
       -0.23892297 -0.9358334 -0.19315892 -0.0009552192
000110 22 26 4c 3d dd 25 03 bd 41 8b 5c 3c 17 e9 71 bd
       0.049841054 -0.03201853 0.013460935 -0.059060182
000120 0c 4f 35 3e 7b 70 50 3e 3a e8 8f bc c8 10 00 be
       0.17705935 0.20355408 -0.017566789 -0.12506402
000130 f1 aa 1c 3e f1 df b4 bd c3 39 02 be 97 f0 cb 3d
       0.15299584 -0.08831776 -0.12717347 0.09957998
000140 da 2b 05 3d e9 ea 5e b9 6d 92 63 3e bc 19 33 3f
       0.032512523 -0.0002125908 0.22223826 0.6996114
000150 b1 4a 06 bf f9 ca 1d 3e 97 b6 3b bd 02 d2 ef 3d
       -0.5245772 0.15409459 -0.045828428 0.11709978
000160 5c 31 49 be 43 4e 3e 3c d4 7c 3c bd de 41 50 be
       -0.19647735 0.011615339 -0.046017483 -0.20337626
000170 58 79 79 bd 0b 43 83 be ed 43 d6 3e 50 0e 16 be
       -0.060906738 -0.25637087 0.41848698 -0.14653897
000180 2c d7 4b 3e c6 42 45 3c c1 63 2f bf 17 30 39 bd
       0.199063 0.012039846 -0.6851159 -0.045211878
000190 42 16 59 3f ee 7b 76 3e 3e 90 4b 3d ee cf df 3c
       0.8479959 0.24070713 0.049698107 0.027320828
0001a0 2a 0b 67 3e 92 00 69 3d 94 1e 82 3d 70 eb 1b bf
       0.22562853 0.05688531 0.063534886 -0.60906124
0001b0 c9 9c 9d bc f7 7c 38 3e 59 94 38 3f 02 74 85 3c
       -0.0192398 0.1801642 0.7210136 0.016290668
0001c0 7d 59 49 3f 1c 0c 4f 3e b2 31 9a 3e e6 7b be bd
       0.78652173 0.20219463 0.3011604 -0.093009755
0001d0 50 e3 3c bf 3c e3 66 3e 87 93 2c 3e e4 02 43 bf
       -0.7378435 0.2254762 0.16853152 -0.76176286
0001e0 96 92 f0 bb 86 3a 3a 3e c4 83 a1 bd 04 5c 17 be
       -0.007341693 0.18186387 -0.078864604 -0.14781195
0001f0 ef 50 57 3e 82 a8 fa bd 08 99 c5 3d d5 b9 f7 be
       0.21026967 -0.122391716 0.09648329 -0.48383966
000200 9a bb b4 bc 08 2a f0 bd 30 ac 28 bd e4 77 8f bc
       -0.022062112 -0.11726767 -0.041179836 -0.017513223
000210 22 4c 54 bf 88 19 55 be b3 6f 0d 3e 3b 32 0c 3e
       -0.8292867 -0.2081052 0.13812141 0.13691036
000220 82 5a 3e 3f 28 99 0a 3f 02 89 bf 3e cf c8 25 be
       0.74356854 0.5413995 0.37409216 -0.16189884
000230 6d 2e 7a 3e ed 87 e3 3d 9a 12 3d 3f 49 38 93 3e
       0.24431773 0.1110991 0.7385651 0.2875388
000240 31 d3 76 be 28 5b c1 3e 0a 72 11 bd e1 8b 59 3d
       -0.24104 0.3776486 -0.035509147 0.053111915
000250 d1 36 d4 3d 40 c4 6c be 85 ec d4 3d 60 77 1d bc
       0.10362018 -0.23121738 0.10396675 -0.009610981
000260 27 91 ea bc 3d 4f 2e be 0b ce a1 be 65 17 43 bf
       -0.028633667 -0.17022415 -0.3160251 -0.7620757
000270 6b 26 19 bf 75 35 0e be ab f1 b2 be 9c 0d 6d 3d
       -0.59824246 -0.1388758 -0.34950003 0.057874307
000280 1a d4 3d 3d eb ba f4 3d 07 cb ef 3c 20 ba 9c 3c
       0.046344854 0.11949714 0.029271616 0.01913172
000290 f4 fa 9b be 10 51 11 3e d4 d0 a0 be de be 2c 3f
       -0.304649 0.14191079 -0.31409323 0.6747874
0002a0 8a 0c 00 3f 31 07 a7 3d 11 29 12 be ae 93 19 be
       0.50019133 0.081556685 -0.14273478 -0.14997742
0002b0 a7 56 8e 3c d9 61 96 3d 49 d1 b9 be 7c f4 fa bd
       0.017375303 0.07342882 -0.36292484 -0.12253663
0002c0 45 97 d4 3e d1 a0 78 3d 4d 94 e8 ba d8 e4 fb 3e
       0.4152166 0.06070024 -0.0017744392 0.4919803
0002d0 0b a0 7b 3d cf f3 af be 26 32 24 bf ad 12 06 3f
       0.061431926 -0.343657 -0.6413902 0.52372247
0002e0 2d 9a 7c 3d 97 fb 6b 3e 7d 40 7b 3e 17 a7 aa 3f
       0.06167047 0.23045193 0.24536319 1.3332242
0002f0 d7 93 4e be 73 45 d5 bb 5c ec 8a 3e 8b 01 1c 3e
       -0.20173584 -0.006508523 0.27133453 0.15234964
000300 ca 14 80 be 32 02 41 bd 88 ca 16 3c 07 49 77 3c
       -0.2501586 -0.047121234 0.009203561 0.015093095
000310 84 3c e8 3d 5f 7c 86 be 69 64 97 bd 13 98 96 bd
       0.113396674 -0.26266763 -0.073921986 -0.073532246
000320 95 82 2a 3e 60 93 19 3d 20 1e 04 3e 81 9f a7 3e
       0.16651376 0.037494063 0.12902117 0.3273888
000330 4b 41 82 3e 92 c3 60 bf 0b 11 fb bd b8 75 c7 bd
       0.2544044 -0.87798417 -0.1225911 -0.0973925
000340 c1 d2 fa 3b 5e f7 35 be ae 5e b6 3e 49 1c 77 be
       0.0076545184 -0.17770144 0.3561911 -0.24131884
000350 15 62 a6 be cd a0 7d 3d 5b 3d 8d 3e b0 fb 80 bd
       -0.32496706 0.06192093 0.27585873 -0.062980056
000360 d9 e0 e2 bc 62 45 96 be 1f da 7a 3d c6 dc 01 bf
       -0.027695106 -0.2934981 0.061243173 -0.507275
000370 36 91 0a 3d 4e cd a8 3d 22 d7 13 3e 62 db 95 3c
       0.03382989 0.08242284 0.14437535 0.018293086
000380 01 7b af 3e 6d 0b d2 be 12 3c bf be e3 37 17 3e
       0.34273532 -0.41024342 -0.37350518 0.14767413
000390 2a fe f1 ba bb 28 2c 3e 6e b0 a6 3d ad e6 d6 bd
       -0.0018462588 0.16812412 0.0813912 -0.10493217
0003a0 f7 9c 80 bf b4 fb 80 3e 38 a5 e8 3e 37 2e bb 3c
       -1.0047902 0.25192034 0.45438552 0.022849185
0003b0 22 8a 35 be f0 cc a2 be 7c 7d 2b bf 8c 73 86 bb
       -0.17728475 -0.3179698 -0.6698835 -0.0041031297
0003c0 6c c2 08 3d 5a b1 cc be 9d 06 a6 3d bc 70 85 bd
       0.03338854 -0.39979059 0.0810673 -0.06515643
0003d0 95 3b 4e be 7c 0d 43 be 67 34 65 3d e5 02 fa 3c
       -0.20139916 -0.19048113 0.055958178 0.030518958
0003e0 ea 3c ba 3d d3 db 0c 3f d7 09 a7 bd 03 2d a5 3e
       0.0909365 0.55022925 -0.08156174 0.32260904
0003f0 72 19 e9 be 39 35 4b bd 9b 0e 98 3e 5e 3b db be
       -0.45527226 -0.049611304 0.29698643 -0.4281873

output.bias f4 [16]
000000 5b 48 96 bc 09 3b 0a 3d a2 0f 73 3e 81 4c c7 bd
       -0.018345049 0.033747707 0.23736432 -0.09731389
000010 f7 12 89 3d 43 6a 66 bc ef 47 23 3e af e3 72 be
       0.066930704 -0.014063421 0.15945409 -0.23719667
000020 c6 c7 20 3e 36 a7 e2 bd 94 8f ee 3d 35 9c 98 bc
       0.15701208 -0.11067049 0.11648479 -0.018629173
000030 0a 2e 74 bd 38 3a 40 bd 98 b6 4d bb 9d ce cd 3b
       -0.05961422 -0.04693052 -0.0031389352 0.0062807337
