Result/Model/Hamming7_4/SLNN_cpu/SLNN_hiddenlayer28.pth (torch, 5120 bytes, 4 tensors)

hidden.weight f4 [28, 7]
00000000: 717f d4be 2b7e 3fbf b329 a6be 8b1f 393f
00000010: 494f 093f 234c c8bc 8dfd a13e 077d cc3e
00000020: 240c 423f 6564 b13e cd8a 44bf 847e 11bf
00000030: 3735 8d3a 0f31 81be dda4 11bd c7ba 36be
00000040: 03c9 aebe 1136 54be c40d 5bbd 9c0b 753e
00000050: a3f8 c23e 58f2 3c3f 5ced ffbe 31d1 c5be
00000060: 07a2 83be df06 5fbf 5f90 233f 143b 063f
00000070: 3ad7 b2be 8e8f 833e e0cb 413d cb74 63bd
00000080: c80c 76be b405 8d3e 7605 8dbd 0827 4ebc
00000090: e2a3 5bbd 5853 9ebe 396b 6f3d 1e0b 07be
000000a0: c6ad 263e 7330 12bd ae68 55bf 7860 0d3f
000000b0: 78ab f73e 73cb 813e b274 783f e480 22bf
000000c0: 6c72 0abf b59e 28bf bf76 2b3f 7157 38bf
000000d0: 533d 163f c932 15bf 146b d73e 8e52 40bf
000000e0: c4c4 f43e b186 043e 89a6 09bf bea1 c03e
000000f0: aabf 973e 88fb a6be d5cd 80be e384 0abf
00000100: 3873 febe e9a3 b23e 045f a13e f037 11bf
00000110: d827 cdbe 9ea7 9b3e de46 d3be d868 42bf
00000120: 5295 26bf 6352 4fbf 369c bcbe 1b1c 36bf
00000130: a0a7 35bf 5296 bf3e e9f4 463f 82ad 2a3f
00000140: 8307 4b3f dc91 c53e 5e45 483f 5c73 2e3f
00000150: d026 e9be 51e8 383f 9aaa 36be 03f0 66be
00000160: 4407 25bf ca89 44be 0ef0 413f ca47 d8be
00000170: d2f7 a2be 21df 7bbf c603 a33b 8de5 103f
00000180: 54fb f73e d97a 3a3f 247e 3fbf 7a3d 09be
00000190: cc07 453f 2a84 05bf 171f 8fbe 2157 de3e
000001a0: c045 c33e 764b 403f 3818 313f 84b6 e0be
000001b0: e496 f2be 9ed7 143f 24c6 063f b7f2 b9be
000001c0: 2ca3 87be 981d 693e b7cc c9bd 2c42 e5be
000001d0: bd1b 503e 175b 08be b835 383d c86f 53be
000001e0: 92d2 6cbd 4672 5fbd 95a9 683c 656a 843e
000001f0: d594 9b3e f954 4bbe 3d6a c13e c23d af3e
00000200: 0752 643f 1e07 883d 145f f4be a12a 00bf
00000210: b6db 2ebf 4a9c 323f 6e85 1fbf cfd4 3a3f
00000220: 2080 09bf cf1d 283f f2a2 dbbe 5cbe 2f3f
00000230: f25b f2bd 426a c73d 5ecc af3d cb71 973e
00000240: 2932 97b8 8c4e 753d 14d4 babe c00a edbe
00000250: ac73 c4be 8af7 a43e 593a a73e a3c9 66be
00000260: b615 cebe 1c41 823e b65b f03e 2118 2dbf
00000270: 4f37 4c3e c9be 413e 05d4 1b3f 84ca 783e
00000280: 05a8 39bf 2a28 53be 2c8c c23e dff6 8dbe
00000290: b1fa 3cbf f533 073f fa67 85be f550 a73e
000002a0: a99c cd3e 58e8 e5be ecdd 933e 9e33 673f
000002b0: 837d 20bf a5c7 8b3e 4926 9bbe 777d eb3e
000002c0: 85ed e43e dc38 babe 61e9 eb3e 4e4a 93be
000002d0: 97b7 6bbf a66f 093f 6408 253f 8d9c d33b
000002e0: 9299 0bbf 1bda a63e f62d 393e 03be d3be
000002f0: ebe5 75be e865 f3be cf8a ebbe 9fdc ce3e
00000300: 0054 edbe f4f6 943e e098 7f3f 94cf 1abf
-0.4150348 -0.7480189 -0.3245369 0.72313756 0.53636605 -0.024450367 0.31638756 0.39939138
0.75799775 0.34646907 -0.76774293 -0.5683367 0.0010773306 -0.2523274 -0.035557617 -0.17844687
-0.34137735 -0.2072375 -0.053479925 0.2393021 0.3808032 0.7380729 -0.49985778 -0.38636163
-0.25709555 -0.8711986 0.6389217 0.52433896 -0.3492983 0.2569546 0.04731357 -0.055531304
-0.24028313 0.27543414 -0.06885807 -0.012582548 -0.053623088 -0.3092296 0.058451865 -0.13187835
0.16277227 -0.035690736 -0.83362854 0.55225325 0.48373008 0.25350532 0.9705306 -0.6347792
-0.54080844 -0.6586717 0.6697807 -0.72008425 0.58687323 -0.58280617 0.42073882 -0.7512597
0.4780637 0.12942006 -0.5376974 0.376234 0.29638416 -0.32613778 -0.25157037 -0.5410902
-0.4969728 0.3489068 0.31517804 -0.5672598 -0.4006946 0.3040132 -0.41265005 -0.7594123
-0.65071595 -0.8098509 -0.3683793 -0.71136636 -0.709589 0.37419373 0.77717453 0.66671
0.79308337 0.38587844 0.78230846 0.68144774 -0.45537424 0.72229487 -0.17838517 -0.22552495
-0.6446421 -0.19193187 0.7575692 -0.4224227 -0.31829697 -0.9838734 0.004974815 0.56600267
0.48433936 0.728437 -0.7480185 -0.13402358 0.7696502 -0.5215479 -0.27953407 0.4342585
0.38139153 0.75115144 0.6917758 -0.43889248 -0.47380745 0.58141506 0.5264609 -0.3631799
-0.26491678 0.22765195 -0.098534994 -0.44777048 0.20323081 -0.13315998 0.044973105 -0.2064811
-0.057818003 -0.05455234 0.014200588 0.25862423 0.30386987 -0.19856633 0.37776366 0.34226805
0.89187664 0.066419825 -0.4772879 -0.50065047 -0.68304 0.6976973 -0.6231297 0.7298097
-0.5371113 0.65670484 -0.42897755 0.6864984 -0.118339434 0.09737064 0.08583902 0.29579005
-7.209584e-05 0.05988936 -0.36489928 -0.46297264 -0.383695 0.32220107 0.32661703 -0.22537856
-0.4025094 0.254403 0.4694497 -0.6761494 0.19942974 0.18920435 0.6087039 0.24296004
-0.72522 -0.2062079 0.37997568 -0.2772741 -0.73820025 0.52813655 -0.2605589 0.32678953
0.40158585 -0.44903827 0.2888025 0.90313137 -0.62691516 0.27300754 -0.30302647 0.4599416
0.44712463 -0.36371505 0.4607649 -0.28767627 -0.9207701 0.53685987 0.6446593 0.0064578713
-0.54531205 0.32588276 0.18083939 -0.41355905 -0.24013488 -0.47538686 -0.4600434 0.40402696
-0.4635315 0.2909466 0.99842644 -0.6047299

hidden.bias f4 [28]
00000000: a5f6 64bd 56af c73c af52 40be e5f3 123e
00000010: 05ca 643d 3a3d 213e 259c 64be b80b 1abd
00000020: 3332 733d ebec 843d d8f1 e6bc cdb0 66bc
00000030: 9e7b 07be e532 21be b4b9 fabd 864e 3cbe
00000040: e724 303e 4153 26be 825c 343e fb49 8d3d
00000050: cd1d 173e 3323 213d 5ac8 2d3d 94e0 723d
00000060: 0a4a f4bd 5c57 733d eb58 893c 36a1 04be
-0.05589928 0.024375599 -0.18781541 0.14350851 0.055856723 0.15746012 -0.2232519 -0.037608832
0.059374046 0.06490501 -0.028191492 -0.0140802385 -0.1323075 -0.15742071 -0.12242451 -0.1838933
0.17201577 -0.16242696 0.17613414 0.06898876 0.14757462 0.03934021 0.0424274 0.059296206
-0.11928184 0.059409484 0.016766032 -0.12952122

output.weight f4 [16, 28]
00000000: 0122 debd b9ea 3e3d 7e1e 68bd 979c 1c3e
00000010: 55e7 be3c 6310 843d f1f3 d0bd 8578 bf3e
00000020: d694 a5ba 8caa f13e 6873 c73f c647 b8bf
00000030: 17fb 863c b34d 84bd 1fac 9ebd eaf9 d6be
00000040: 82f7 5e3d 97d1 2f3c 4348 63bd 519f ccbe
00000050: fbd6 f4bd 78ee 603e e843 17bd 106c bd3d
00000060: 3e43 99bd 3dd0 94bd 10f6 593c 2d7f 0a3e
00000070: aceb 19be b401 dd3d 5b66 d43d c20a c23e
00000080: 9082 08be ca1c a93d 1e8e c4be 5843 8e3e
00000090: 9876 e03e 39c7 d93d 85eb 99be 091b 8c3e
000000a0: 4f4d 2a3f 246d e0bd 40fb 3abf c5f2 88bd
000000b0: e4f6 81be c88e a6be 7928 9d3c 25df 41be
000000c0: 6c1a 10be 03c7 0cbd efdf 1cbf f635 02be
000000d0: aed1 163e ba54 a23f 5b50 173f 4d1a 7ebf
000000e0: 6387 78bd 344c 74bd da0d a4bc 202e 903c
000000f0: 6f9b d73e b049 9e3e c041 b43c 3a60 c03f
00000100: 59ca bb3d 9213 ba3c a3df e5bd bb2c 7b3d
00000110: 7992 4e3e 7e2c bc3d f331 7ebd 5df9 44bc
00000120: c9f4 d9bd 0038 623d 18d0 3abe d80a b2bf
00000130: 0726 cc3e 5837 a0bd b369 8ebe 8b11 c1be
00000140: ac92 863e 1f7a fbbd ac2e 6ebd 270c 1c3e
00000150: 56d7 5cbe e12c fb3d cbb8 163f a50c be3f
00000160: 0405 00bd b551 823e ef32 a6bf 202d babe
00000170: ccf1 1bbe bdb7 22be d9c1 8e3e e8a8 9abe
00000180: 2126 ed3d 616f ca3e 5337 ce3c bd49 3c3e
00000190: 6102 f4bd 2fc6 50bd 0f78 08bf 9c8f 9d3e
000001a0: 165f 31be 4429 12be fa10 aabd 19a7 b8bd
000001b0: 0ab9 be3d c8c8 3ebd 3663 343d 0195 d73d
000001c0: 0aa0 173f 8ff2 26bf 5f3b acbd d02a 37be
000001d0: 26f3 b4be 4ab0 e43d d073 453e b7fb bbbd
000001e0: c10d 303f 076c 1dbd 4cc8 e83e 45c8 e1be
000001f0: 657c 4ebf 9920 9fbd 4e08 52bf 40ea 943d
00000200: 8ea3 bfbe af06 e6bc 20a2 21bc a7d6 a33d
00000210: 33cb 20bc 4b20 21be 6225 713f 6ddf b8bd
00000220: 99fc 673e 29c3 c43e 71a9 603f 436c c2be
00000230: bdcd f9bc 7308 5bbd cd45 b43d 2263 27bf
00000240: b54e 82b8 899b dfbd a421 133f 1dad aabd
00000250: 32f1 633c 9574 51be ff0d 833e 571b 8bbe
00000260: 4fb9 393f df87 1a3f c081 76bd 9050 0c3e
00000270: f205 163f 839d 9e3d 1589 34bf 6659 893d
00000280: c452 20be a1d7 6bbd dd42 28bf 52d6 803f
00000290: de3c 4ebf e7f6 e83e fb78 98bd a196 fdbe
000002a0: 992c 0bbf 7fc2 cb3e 15e6 5a3c 5451 e53d
000002b0: e0c7 65bd 1818 b33d fe48 b9bd 08b8 923e
000002c0: c17d d63e df03 65bf baf7 4abd 8c5c 1fbd
000002d0: e8d0 cebe 3d72 2e3e 5a5e 06bf fc41 a63f
000002e0: 3d92 283e 4ffe 653e bb93 8dbe 5b20 9dbe
000002f0: f1e5 8d3c 2354 44bf a06e dd3e 0870 e53e
00000300: 282b fcbe bc75 b4be 927e 123e b827 9d3e
00000310: 6b24 773f 7c7d 94bf 0397 473e a224 8d3c
00000320: ad1d a33d 4bb5 143e 38b4 f9bd 6c4b 3f3e
00000330: b6b6 8fbd 7008 9a3e 0152 c4be 30a5 bb3e
00000340: 6418 16be e780 8f3f 6b31 263d 0bb7 a4be
00000350: 2e41 713d 7974 9b3e 6f3f 9ebf ea14 24be
00000360: 6954 a03b 98c0 7f3e f5cb 293e 337b 18bd
00000370: f831 bbbd be80 64be 16d8 dcbd 2b56 773e
00000380: 9600 60bf b22b 8c3f aa8a 29be 45de b1bc
00000390: 9e9f 9f3b 93f4 39be f410 5e3d 60f0 0cbe
000003a0: 3631 5ebd 96d9 83bd 4e64 a93e 637a acbe
000003b0: b739 143e 707e 8abf 00a6 d5bd 9b52 583e
000003c0: 37d6 22bd 1552 3ebe b3b8 943f ac6c 413e
000003d0: 2cfa 993d 052d 9bbe 3d3d 30be 7372 a4bc
000003e0: 032e e73c 7bac a83e 59d7 c43c ccb7 54be
000003f0: 47bf d93e 2b1e 15bf 58e2 6fbd 0168 6bbd
-0.108463295 0.046610568 -0.056669705 0.1529411 0.023303667 0.06448438 -0.10202778 0.37396637
-0.0012632858 0.4720043 1.5582094 -1.4396904 0.01647715 -0.064601324 -0.07747673 -0.41987544
0.05443526 0.010731122 -0.055488836 -0.399653 -0.11955067 0.21965969 -0.036929995 0.09249127
-0.074835286 -0.07266281 0.013303295 0.13525076 -0.15031308 0.107913405 0.10371085 0.37898833
-0.13331056 0.08257444 -0.38389677 0.27785754 0.4384048 0.10633702 -0.300625 0.27364376
0.66524214 -0.10958317 -0.7303963 -0.066869296 -0.25383675 -0.32530808 0.019184338 -0.18932779
-0.14072579 -0.03436948 -0.61279196 -0.12715897 0.14728424 1.2682106 0.5910699 -0.9925888
-0.06067599 -0.059642985 -0.020026136 0.01760012 0.42110774 0.30915594 0.022004008 1.5029366
0.09169454 0.02271441 -0.11224296 0.061321955 0.20173062 0.09188174 -0.062059354 -0.012022343
-0.10642392 0.055229187 -0.18243444 -1.3909559 0.39872763 -0.07823056 -0.27815017 -0.37708697
0.26283777 -0.12279152 -0.05814998 0.15239011 -0.21566519 0.12264419 0.5887572 1.4847609
-0.031254783 0.25452963 -1.2984294 -0.36362553 -0.15228957 -0.15890403 0.2788227 -0.3020699
0.11579538 0.395381 0.025172865 0.18387504 -0.11914516 -0.050970253 -0.53308195 0.30773628
-0.17321429 -0.14273554 -0.08304019 -0.09016246 0.09312637 -0.0465782 0.044039927 0.10526467
0.59228575 -0.65213865 -0.08409762 -0.17887425 -0.35341758 0.11166437 0.1928246 -0.0917887
0.68770987 -0.0384331 0.45465314 -0.44098106 -0.8065856 -0.077698894 -0.8204392 0.07271242
-0.3742947 -0.028079359 -0.009865314 0.07999926 -0.0098140715 -0.15734975 0.94197667 -0.0902699
0.22654952 0.38430145 0.8775855 -0.37973222 -0.030493611 -0.053474855 0.08802376 -0.6538564
-6.2135434e-05 -0.10918338 0.57473207 -0.083338 0.013912486 -0.20454629 0.25596616 -0.27169296
0.72548383 0.6036357 -0.060182333 0.13702607 0.5860282 0.07744887 -0.7052167 0.067065045
-0.15656573 -0.057578687 -0.65727025 1.0065405 -0.80561626 0.45500872 -0.0744495 -0.49528983
-0.54364926 0.39796826 0.01336052 0.11197153 -0.05609882 0.0874483 -0.09047125 0.2865603
0.41892818 -0.8945903 -0.049552657 -0.03890662 -0.40393758 0.17035766 -0.5248772 1.2988887
0.16462035 0.22460292 -0.27651772 -0.30688748 0.017321559 -0.7669088 0.43248463 0.44812036
-0.49251676 -0.35246074 0.14306095 0.30694366 0.96539944 -1.1600795 0.194912 0.017229382
0.079646446 0.14522283 -0.12192577 0.18681115 -0.07017271 0.30084562 -0.38343814 0.36649466
-0.14657742 1.1211213 0.040574472 -0.321709 0.05890005 0.303623 -1.2363108 -0.16023603
0.004892875 0.24975812 0.1658171 -0.037226867 -0.0914039 -0.22314736 -0.107834026 0.24153964
-0.87500894 1.0950835 -0.16556802 -0.021712432 0.004871323 -0.18159704 0.054215387 -0.13763571
-0.05424615 -0.064379856 0.3308434 -0.33687124 0.14475141 -1.0819836 -0.104320526 0.21125261
-0.039755072 -0.18586 1.1618866 0.18889111 0.075184196 -0.30307785 -0.1721086 -0.020074105
0.028220182 0.32944092 0.024028467 -0.20773238 0.42528746 -0.5824916 -0.058565468 -0.057472233

output.bias f4 [16]
00000000: 3745 70bd d842 bebd e55b 333c cbfa 84bd
00000010: b242 29bd 52a0 393d c276 f23d a56b 3b3e
00000020: e317 1fbe 731f e33b b184 b2bd dab1 ce3d
00000030: 65d0 8a3d 11cb 78be 60f0 8d3e b168 9f3d
-0.05865976 -0.09290093 0.010947202 -0.064931475 -0.04132337 0.04531891 0.118390575 0.18302782
-0.15536456 0.0069312393 -0.08716715 0.10092516 0.06778029 -0.24296214 0.27722454 0.0778364
