Result/Model/Hamming7_4/SLNN_cpu/SLNN_model_hiddenlayer86_BER0.pth (torch, 10624 bytes, 4 tensors)

hidden.weight f4 [86, 7]
00000000: b2b6 7a3e 9176 b5be b1ad 11bf 902d 82be
00000010: 66d9 34be 331f 173e 62e3 9ebe 1cf5 e3bd
00000020: 1347 efbe efaa d03d 256e 8e3e 66fc 89be
00000030: 365c b73b dddd ac3d 39d3 7d3d f72a 943d
00000040: 4155 43be 2687 83bd 3efb 7fbb 1fd6 92be
00000050: 9812 8ebd 1fc0 8d3e 533e 753e 0c12 3a3d
00000060: 9877 d43d d28d e5be 15c4 ddbe db45 ebbc
00000070: 9bc3 86be ab60 dc3d 04ea 82be b556 cbbe
00000080: dfdd 503e 0bf4 82be a735 303e 7457 d8bd
00000090: b214 233e e39a 7d3d 044c fb3e f4b1 b7be
000000a0: c272 483e 5265 19bf 7a04 29be 2b56 0fbe
000000b0: 7cda cbbd 7ffc b43e 2785 95be 5550 79be
000000c0: 635b c03d bdb9 da3d 2814 d53e 4f58 dcbe
000000d0: fa71 213e 5ef5 acbe 6ed4 cabe 750b b23e
000000e0: 0570 923e 7384 b9be 941b 0c3e 60b2 3d3e
000000f0: 780e c33e bad6 90be c749 53be ec7f ac3d
00000100: 24e6 a03d cd92 a93b 1399 113e 78aa a9be
00000110: 5121 72be ddcb cb3e d02f e4bd 3bfd c13e
00000120: 5bcc f23e 2f2e c13d 16cb 993d 1958 d4bd
00000130: 9291 8d3e 1cba 07bf 362d c73d 7ea5 653e
00000140: 4b7a f1bd 23c1 a3be 4a95 083e 807b 9abd
00000150: 497e 00be 459a 52be 0024 36be 5e8c 36be
00000160: 77eb 78be ba3c bf3e 8002 093f 3a0b ec3e
00000170: 96e9 1abe 2d85 ea3e d818 553e a664 92be
00000180: e5a7 ea3d bdd1 a3be 537d 39be b052 973d
00000190: 8495 26be d0b4 87be 7bd6 6d3e d526 fb3d
000001a0: 5a25 09bd 587b cdbd b020 9bbe 47ec 99be
000001b0: f087 523e 987d 093e 369f b13d 3ce3 14be
000001c0: 9730 5b3e 613f d0be 8bcb d0bd 8470 f1be
000001d0: 1353 aabe ef7a 9bbb d719 5c3e dd69 63bd
000001e0: 3a66 043f 1352 bd3e 4c2d fabe 7bd4 d5be
000001f0: c2b4 903e 31ab 073e 1246 1fbe 365c fa3d
00000200: af08 ea3e 0430 203e dde3 823d eccc 91bd
00000210: c9c1 9b3d 4727 0cbf 41aa bd3b 7b3a e0be
00000220: 057b c6bd 51c2 823e a2f5 1dbe e8f3 b83e
00000230: 97d2 b63e a2d3 1b3e 8776 91be 867e 353d
00000240: 4bfc c43e 5118 35be 2705 8e3e 93bd 86be
00000250: f538 98be 7d9f 933e 7c56 5f3c 347b b9be
00000260: a4ba 7a3e 447b a5be 1621 febe 4327 f83e
00000270: 0629 583e a381 ed3c 9057 6c3e a819 18bf
00000280: 3823 23be d2b0 83be c06f b23e 33d8 96be
00000290: 7b8b 0fbe 755b 733e 5761 a6bd 6151 913e
000002a0: 1307 6c3e cbb6 a43c cf23 c4bd b7a1 d3be
000002b0: 5eee 7c3e 7ae1 493e 32de 72be 3c10 2ebe
000002c0: d046 9e3e 87c0 1e3d d52b 053f f956 973e
000002d0: 6673 b5bd 59de 42be 038f 7abe f1dc 433e
000002e0: 5a67 a7be 67b4 a43d b323 32be 2b80 503d
000002f0: 46a7 d1be a651 82bd 3196 debe 666c f13e
00000300: a577 9bbd 0331 d83e 45d2 f93e f44e 96be
00000310: 6c66 cd3d 55bd ae3e 2860 89bd ba44 a9be
00000320: 270a 0abe 821a bd3e 0b97 413e 264a ee3d
00000330: f1f7 a53e 0ae8 febe e2ca 143e 3c12 ea3e
00000340: 1778 a33e 0e67 6ebe 8532 7fbe f3c4 02be
00000350: 12b0 a13e 77e3 e13c 1231 003e f31d ac3d
00000360: 94b3 3fbe a006 3abe 67f3 b9be db8a a9be
00000370: 6ff2 bbbe 2dfe 11bc 9ade cebe 71db cabe
00000380: 680f 553e ba90 043e 1a71 923e c07c 8d3d
00000390: 4c47 553e feb0 f63e 453d 923e 4f35 61be
000003a0: 5e8f 3bbe d8e2 c5bb eabb 943e ec41 46be
000003b0: ac1b c43e 9663 503e cced ab3e 97c6 8e3c
000003c0: d86d ce3e b438 8e3e 158b ca3e 641b d93d
000003d0: eff5 aabc 572c 1a3f 51e3 62be a868 32be
000003e0: ea44 723e 3541 ab3e 0e9d 96be b648 e5bd
000003f0: 266f 743d a1c4 9bbe e847 e03e 8ddd 65be
0.24483755 -0.3544202 -0.5690566 -0.25425386 -0.17661056 0.14757995 -0.31032854 -0.11130735
-0.46733913 0.10188853 0.2781841 -0.26950377 0.005595709 0.084407546 0.061969016 0.072347574
-0.1907549 -0.06422262 -0.0039059664 -0.28678986 -0.0693714 0.2768564 0.23949556 0.045427367
0.10374373 -0.44834763 -0.4331366 -0.028719833 -0.2632111 0.107606255 -0.25569165 -0.3971459
0.20397137 -0.25576815 0.17207967 -0.10563555 0.15925863 0.06191529 0.49081433 -0.35877955
0.19575027 -0.5992023 -0.16505614 -0.13997714 -0.09953782 0.3534889 -0.2920315 -0.2434705
0.09392431 0.10679958 0.4161694 -0.43036124 0.15766135 -0.3378095 -0.39615196 0.34774366
0.2860109 -0.36233863 0.13682395 0.18525076 0.38096976 -0.28288823 -0.20633613 0.08422837
0.07856396 0.0051749707 0.1421855 -0.3313787 -0.23645522 0.39803973 -0.11141932 0.37888512
0.47421536 0.09432637 0.07509439 -0.10368366 0.27650124 -0.53018355 0.0972542 0.22426412
-0.11790904 -0.3198329 0.133382 -0.07543087 -0.12548174 -0.20566662 -0.1778717 -0.17826983
-0.24308573 0.37351018 0.5351944 0.46102315 -0.15128168 0.4580473 0.20810258 -0.28592414
0.114578046 -0.31995955 -0.18114214 0.07388818 -0.16267973 -0.26505136 0.23226349 0.12263266
-0.033482887 -0.100332916 -0.30298376 -0.30063078 0.20559669 0.13426816 0.08672945 -0.14539808
0.21405254 -0.40673354 -0.10195073 -0.47156155 -0.33266506 -0.0047448794 0.21494232 -0.05552088
0.51718485 0.3697668 -0.48862684 -0.41763672 0.28262907 0.13248898 -0.15554073 0.12224619
0.4570975 0.15643317 0.06391118 -0.07119164 0.07605321 -0.5474743 0.005788118 -0.43794617
-0.09691433 0.25538877 -0.15425733 0.36123586 0.35707542 0.1521745 -0.28410742 0.044310115
0.38473734 -0.17685057 0.27738306 -0.2631651 -0.29730955 0.28832617 0.013631459 -0.3622681
0.2448526 -0.32320607 -0.49634618 0.48467454 0.21109399 0.02899248 0.23080277 -0.5941415
-0.15931404 -0.2572084 0.34850883 -0.29461822 -0.14018051 0.23765357 -0.08124035 0.283824
0.23049574 0.020106694 -0.095771424 -0.41334316 0.24700305 0.19714919 -0.23717573 -0.1699838
0.309134 0.038757827 0.5202001 0.29558542 -0.08859901 -0.19030131 -0.24468617 0.19127251
-0.32696038 0.080422215 -0.1739643 0.05090348 -0.40947932 -0.063632295 -0.43473962 0.47153014
-0.0759118 0.42224893 0.48793235 -0.2935711 0.10029301 0.34128824 -0.067077935 -0.33060247
-0.13480435 0.36934286 0.18905275 0.116352364 0.32415727 -0.49786407 0.14530519 0.45717037
0.3192756 -0.232815 -0.24921615 -0.12770443 0.31579643 0.027574284 0.12518719 0.0840415
-0.18720847 -0.1816659 -0.36318514 -0.3311375 -0.367084 -0.008910698 -0.40404207 -0.39620546
0.20806658 0.12945834 0.28601915 0.0690856 0.20827979 0.4818191 0.2856237 -0.21992992
-0.18316409 -0.006039005 0.29049617 -0.19361085 0.38302362 0.20350489 0.33579862 0.01742868
0.4031818 0.27777636 0.39559236 0.106009275 -0.020869223 0.6022391 -0.22157027 -0.17422736
0.23659101 0.33448187 -0.29416698 -0.11195509 0.059676312 -0.30423453 0.4380486 -0.22447796

hidden.bias f4 [86]
00000000: 3bc1 c4bd 61cc 773c 3da0 be3d ad7b 76bc
00000010: 61d8 b0be 7a28 173d 3935 3a3d 7002 15be
00000020: 1aed c4bd 8fdc 03be df40 7fbd ad98 ccbc
00000030: e9a4 1ebd e27c ecbd ebf8 1d3d 3119 393e
00000040: 1926 023e 478b 82bc 59b5 d4bc ce83 ffbc
00000050: 7623 073e cdfe 95bd 65c3 aebd cf46 48be
00000060: 4926 3e3d 1dae f1bd a6ba 2cbe 3372 683d
00000070: c663 dcbd 6697 50bd 92cd db3d 31ea d8bb
00000080: ba46 f7bd 488c 00bd 510d ab3d 8456 dabd
00000090: 9fce 6ebe a4d2 44bd abc1 20be ebff e53b
000000a0: f9ac ad3d f259 8fbe e88f 88be d7a4 a83c
000000b0: 9b9b e73c 2265 b4bd bb45 033e 6944 39be
000000c0: 5e12 b2be 5cf4 a7be 1332 c3be 99c3 adbe
000000d0: 868e 14be b84d 2cbe 43cd 85bd f34e 29bd
000000e0: 19a2 81be 0bb3 853c ae64 21bb 3c68 06be
000000f0: 6bec ff3c ced4 12be 3cc7 a13c 945a 753d
00000100: a553 273b f08f bfbd db6f b0be 0d4e 52be
00000110: 7caf 8fbe 7132 183b dec7 063e 7f01 51be
00000120: 1784 a9bc 4253 a5bd 908f c9bd 53dd 4a3c
00000130: 968d e0bc 2b7f 31be dd7f 8bbd 65e7 1ebc
00000140: 1913 85bd 043f 18bd 5f0a f63c affa d23d
00000150: 23de eebd 364e 623d
-0.09607168 0.015124411 0.09307907 -0.015044135 -0.34540084 0.036903836 0.045460913 -0.14551711
-0.09615536 -0.12877105 -0.062317725 -0.024975145 -0.03873149 -0.11547257 0.038567465 0.18076016
0.12709846 -0.015935553 -0.02596538 -0.031190779 0.13197121 -0.0732399 -0.08533362 -0.19558261
0.04642323 -0.118007876 -0.16868076 0.056749534 -0.10761218 -0.050925635 0.10732569 -0.0066197147
-0.12074037 -0.031383783 0.08352149 -0.10661033 -0.23321007 -0.048052445 -0.15698878 0.007019033
0.084802575 -0.2799831 -0.26672292 0.020586414 0.02827244 -0.08808352 0.12819569 -0.18092503
-0.34779638 -0.3280362 -0.3812414 -0.33938292 -0.14507493 -0.16826522 -0.06533291 -0.041335057
-0.25318983 0.016320726 -0.002462666 -0.131257 0.031240663 -0.14338991 0.019748323 0.059900835
0.0025532034 -0.09353626 -0.3446034 -0.20537587 -0.2806357 0.0023223425 0.13162181 -0.20410727
-0.020692868 -0.08072521 -0.098418355 0.012381869 -0.027411263 -0.17333667 -0.06811497 -0.009698723
-0.06497783 -0.03716947 0.030034242 0.1030172 -0.11663463 0.05525037

output.weight f4 [16, 86]
00000000: 764f d43e 7ec8 5a3c 8821 5d3e 7ed8 373e
00000010: 3acf 263e edb6 033e 6a34 7c3e aa9a a0bd
00000020: 0bc2 7dbd 548c 91bc 52ba bfbe 38e2 573e
00000030: 259f 993d 797e 4ebe cef9 843d 9272 023e
00000040: 7f63 bf3e f27e cebd b48d 93be dd4c 963e
00000050: e479 94be 765f 873e 08d9 6e3d b250 53be
00000060: d1a9 363c 3ad5 23be 22ab 923e 6112 dfbd
00000070: d5fd 5ebe 7a0b 88be 1e18 2a3d e4b4 313f
00000080: d983 43bf 8084 a8bc c9b7 34bf 74db d4bd
00000090: 8736 e7bc f0d0 8e3e 297e 75be 689e 86bd
000000a0: 07d9 1d3d afd1 77be d497 2c3d f112 a33d
000000b0: 7b15 24bf ad32 0dbd c534 dc3d 4082 91bd
000000c0: 5f3f d0bc 3030 04be 4bd4 16be de93 a3be
000000d0: 51a8 ccbd 47f1 123f 5057 a73d 76b0 553d
000000e0: 1de7 b43d b0a8 0b3d 2c50 b33d 64f1 b73e
000000f0: bcb3 803d cb8b f4bd 3e66 a6bd 04fa a5be
00000100: 7dbf 023e b01a 063f d039 b83d debc 8e3e
00000110: 1d2d 83bc c739 1bbf 27fa 813e 1dd6 85be
00000120: 7417 e53c b1a3 d33e be92 f73d 9627 90bd
00000130: b1e4 fbbd 88a6 c23e 296b 07bd ee1c 4bbc
00000140: 4304 fc3e 9b54 85bd 9423 85bf da59 0cbd
00000150: 94af 86bc 15ca 2d3e 60c2 52bc 9fef 703d
00000160: 519d 233e e028 073f f63b 07bd 58d9 c3bc
00000170: 7a2e b13e 17d7 3e3f 8ea9 e1bd 4b2c bf3e
00000180: 0457 db3d 5721 58be 9e24 aa3d 4eca 29bd
00000190: ee75 a0be 3ece bebd 6478 93bd 5511 31be
000001a0: 63bf d8bd 251e 163e e088 a33e 5abe a2be
000001b0: 0e12 4ebd 805c f93d 8c07 9ebe 9b22 8fbc
000001c0: 41be b83c 53eb 99bf d148 c23d 7cb2 973d
000001d0: 096a 07bf 3d23 c1be 3e62 81bb e276 e9bd
000001e0: 0cdd 65bc d227 973e 965f 24be ba02 123f
000001f0: fea0 323e b10a 6b3d ff39 8d3e 831f eebd
00000200: f5df e1bd 6fae b6bd 4edd cf3d 06b2 743d
00000210: 68af c9bb c0a7 263e 78fc ff3e 4109 d8be
00000220: 5b0c dd3b 3357 573b eab6 88bd e76d 283d
00000230: 9b5d 6e3d 86b0 6c3e e9aa 9ebe 497c aebc
00000240: 4567 32be ae3d a73d 4bae bc3d fb84 a83d
00000250: 66d2 8ebe 1907 283e 51f1 8cbd f0ac c5be
00000260: 01b4 4b3d 615c 18bd ebcc 983d 41d7 cd3e
00000270: 1eac 56bd dde4 7a3b 0787 4fbe 447a 04be
00000280: aebf bebc 94c3 7c3e 7b01 66bf b876 72be
00000290: c07b a23d f92e 903e 7c5c 2a3e 6acb 043f
000002a0: 4e3c 7e3e 8dc2 4f3e 0894 16be da90 0abd
000002b0: fbaa 253e 6138 073e ed24 763d d1b6 20bc
000002c0: 358d 0ebe 1395 353f b63e 2b3e 5201 223e
000002d0: 54f1 06bf e696 26be 9fb6 03be 7b37 813e
000002e0: ef8e db3c 7795 db3c 9b2c 933d a515 953e
000002f0: 061a babe 94a5 fa3d 6360 eebd 1596 253d
00000300: 48c0 b3be 1efc 433e d722 8b3d 0a79 9ebd
00000310: f9bb 9cbd e100 7b3e 4449 ef3e daf3 21be
00000320: 6a8c ca3d 4bc8 b63e 0a62 0f3d 230c c5bd
00000330: 64af a6bd 65f9 6e3e 1af1 c5be 63d3 83be
00000340: 6d8c 00bf 8d19 203e 9102 193e 1c4e 22be
00000350: 2600 66bd 039a fabe 56a9 6a3d 5b52 003f
00000360: db1a 6cbd c2c6 3dbf 69ec edbc d43d a2bd
00000370: d27a bebb be5e 6bbd eb5d 4fbe a720 023e
00000380: fafb 0c3e 80ca b13d 5801 05be 837b 033f
00000390: 9ded 153e 3ac4 fdbd 73d4 3ebf f386 a9bd
000003a0: d7b0 b5be 6f2e c73c 49da babe 7e53 2d3d
000003b0: 1526 5bbe 8cd2 20bb 5165 edbd 4b34 dd3d
000003c0: c86e 943d 9a5b 6c3d e92f 73be ad19 2a3e
000003d0: 15a7 113e abb1 2f3e 8324 1fbe 223e 623f
000003e0: 37f5 18bd 005a eebd 6e85 1f3e 6997 c63e
000003f0: 68d7 903e ef13 c6bd ee2d e63d 68fb 8dbe
0.41466874 0.013353465 0.21594822 0.17953679 0.16289988 0.1286275 0.2462937 -0.07842
-0.061952632 -0.017767109 -0.3744684 0.2108239 0.075010575 -0.20165433 0.06492959 0.12739018
0.37380597 -0.10082807 -0.28819048 0.29355517 -0.28999245 0.26440018 0.058312446 -0.20636252
0.011148886 -0.15999308 0.2864619 -0.108921774 -0.21776517 -0.26571256 0.041526906 0.6941664
-0.7637306 -0.020570993 -0.70592934 -0.1039342 -0.028224243 0.27893782 -0.23973908 -0.06573182
0.03853705 -0.24201082 0.042136982 0.07962597 -0.64095277 -0.034472156 0.107522525 -0.07104921
-0.025420843 -0.12909007 -0.14729421 -0.3194875 -0.09993041 0.5739941 0.081709504 0.05217024
0.08833144 0.03409642 0.08755526 0.35926354 0.062842816 -0.11940726 -0.0812497 -0.3241731
0.1276836 0.5238447 0.08995402 0.2787847 -0.016012723 -0.60635036 0.25386164 -0.26139918
0.027965285 0.41335824 0.12088536 -0.070388004 -0.12299479 0.38017678 -0.03306118 -0.012397034
0.49222 -0.06510278 -1.0401483 -0.034265377 -0.016441144 0.1697162 -0.012863725 0.05882227
0.1597798 0.52796745 -0.033016168 -0.023907349 0.3460577 0.7454695 -0.11018668 0.3733848
0.10709956 -0.21106468 0.083077654 -0.0414527 -0.31339973 -0.09316681 -0.07200697 -0.17291768
-0.10583379 0.14659937 0.31940365 -0.31785852 -0.050310187 0.12175846 -0.30865133 -0.017472556
0.022551658 -1.202494 0.09486545 0.0740709 -0.5289617 -0.37722197 -0.003948479 -0.11399628
-0.014029752 0.29522568 -0.16052088 0.5703541 0.17444226 0.057383243 0.2758331 -0.11627104
-0.110290445 -0.08919989 0.101496324 0.05974009 -0.0061549433 0.16274929 0.49997306 -0.4219456
0.0067458577 0.0032858371 -0.06675513 0.041120436 0.058194738 0.23114213 -0.3098977 -0.021299498
-0.17422207 0.08166061 0.09212931 0.08228489 -0.27894896 0.16408958 -0.06881965 -0.38608503
0.049732212 -0.037197474 0.0746096 0.40203288 -0.052410237 0.0038283386 -0.20266353 -0.12937266
-0.02328476 0.24683982 -0.8984601 -0.236781 0.0793376 0.28160837 0.16636842 0.51872885
0.24827692 0.20289059 -0.14704907 -0.033829547 0.16178505 0.132051 0.06009381 -0.009809212
-0.13921054 0.70930594 0.16723141 0.15820816 -0.5271199 -0.162685 -0.12862633 0.2523764
0.026801554 0.026804669 0.07186242 0.29118076 -0.3634798 0.12238613 -0.11639478 0.040426333
-0.35107636 0.19139144 0.067937545 -0.0773793 -0.076530404 0.24512054 0.46735585 -0.15815678
0.09890063 0.35699686 0.035005607 -0.096214555 -0.08138922 0.23337324 -0.38660508 -0.25747213
-0.5021427 0.15634747 0.14942385 -0.15850109 -0.056152485 -0.48945627 0.057290398 0.50125664
-0.0576428 -0.74131405 -0.029043393 -0.07921949 -0.005812981 -0.0574634 -0.2025067 0.12707768
0.13767996 0.08681202 -0.12988794 0.5136034 0.14641424 -0.12390943 -0.7454292 -0.08277693
-0.3548648 0.024314133 -0.36494663 0.042315952 -0.21401246 -0.0024539558 -0.1159159 0.1080099
0.07247692 0.057704546 -0.23748745 0.16611357 0.14223893 0.17157619 -0.15541272 0.8837606
-0.03734323 -0.1163826 0.15578243 0.38787392 0.28289342 -0.09671771 0.11239229 -0.2773087

output.bias f4 [16]
00000000: ce85 15bd 0fa5 ba39 9ff0 83bd 1a6a 59be
00000010: 0f66 b4bd 0299 c33d 1c6f 703e 38d0 8bbe
00000020: 2744 523e 3d7e 96bd 86ed 67be e1a4 093e
00000030: 41af 0d3e 946b 2eba 52f0 59bb 0ba9 bdbd
-0.03650456 0.00035599663 -0.06442379 -0.21231881 -0.08808529 0.09550668 0.23479885 -0.27307296
0.2053381 -0.07348297 -0.22649202 0.13441803 0.13836385 -0.00066536036 -0.0033254814 -0.09260758
