Result/Model/Hamming7_4/SLNN_cpu/SLNN_model_hiddenlayer91_BER0.pth (torch, 11200 bytes, 4 tensors)

hidden.weight f4 [91, 7]
0	0x3e9d1956	0.30683392
1	0x3ec655fb	0.38737473
2	0xbc107233	-0.00881629
3	0x3dafa271	0.08575905
4	0xbd280aba	-0.041025855
5	0xbd744167	-0.059632685
6	0xbe3f7862	-0.18698266
7	0xbedab479	-0.42715815
8	0x3e053141	0.1300707
9	0xbdd22395	-0.10260693
10	0x3ee31943	0.4435521
11	0x3e211d64	0.15733868
12	0x3c8bf140	0.01708281
13	0xbe2bd29d	-0.16779561
14	0x3e014510	0.12624002
15	0x3d8ee62e	0.06977497
16	0xbe5f7373	-0.21821384
17	0x3eecf47a	0.4628027
18	0x3e4db890	0.20089936
19	0xbd5ef338	-0.05443117
20	0x3e9a1e4a	0.30101234
21	0xbdb24b61	-0.08705784
22	0xbe8d93a2	-0.27651697
23	0x3e1fc68f	0.15603088
24	0xbe0d4cc7	-0.1379882
25	0x3d96ee23	0.0736964
26	0xbeb3ec01	-0.35140994
27	0xbe05fd51	-0.13084914
28	0x3e230162	0.15918496
29	0x3eb50e78	0.353626
30	0x3e67a97f	0.22623251
31	0xbdb302b7	-0.08740752
32	0xbca92af0	-0.020650357
33	0xbd5a705a	-0.053329803
34	0x3e4fcb85	0.2029248
35	0xbe0d09e1	-0.137733
36	0xbee8d63d	-0.4547595
37	0xbcac13ee	-0.021005597
38	0xbeddb3fe	-0.43301386
39	0xbe29f391	-0.1659682
40	0x3e252031	0.16125561
41	0xbe4a494a	-0.1975452
42	0x3d8c6fdd	0.06857274
43	0xbe39e84e	-0.18155023
44	0xbdf6b2c4	-0.120458156
45	0x3e06f556	0.13179526
46	0xbeb64c1d	-0.35604945
47	0xbdbd6333	-0.092474364
48	0xbe8b9443	-0.27261552
49	0x3ea48237	0.32130596
50	0xbe99d198	-0.3004272
51	0xbd807e37	-0.062740736
52	0xbe4be09d	-0.19909902
53	0xbe74bac3	-0.23899369
54	0x3ebef905	0.37299362
55	0x3e4470b5	0.1918362
56	0xbebd5d14	-0.36985075
57	0x3e7d5147	0.24738036
58	0xbe7eba78	-0.2487582
59	0xbe81f7c0	-0.2538433
60	0x3e90be30	0.28270102
61	0x3c9263a7	0.017869784
62	0x3de18c03	0.11013033
63	0xbeaa95e2	-0.33317477
64	0xbe311d8a	-0.17296425
65	0x3d547286	0.05186703
66	0x3d809ecf	0.0628029
67	0x3e9db9bd	0.3080577
68	0x3e4782bc	0.19483465
69	0x3eaf0175	0.341808
70	0x3ec10c74	0.37704813
71	0xbe4c3091	-0.19940402
72	0xbee694e7	-0.45035478
73	0x3ea29082	0.31750876
74	0x3db05f1e	0.08611892
75	0xbe9e3661	-0.30900863
76	0x3dcddfbf	0.10052442
77	0xbcee94a1	-0.029123606
78	0x3e8bc40c	0.2729801
79	0x3e4dc6c0	0.20095348
80	0xbd9edb00	-0.07756615
81	0xbf052077	-0.5200266
82	0xbd4e91c6	-0.05043199
83	0x3def46da	0.11683436
84	0x3aac6987	0.0013154008
85	0x3eac998e	0.33710903
86	0x3e811cea	0.25217372
87	0x3ee4d83d	0.44696227
88	0x3d1a85b2	0.037725158
89	0xbe3dc92e	-0.18533775
90	0xbdef3796	-0.11680524
91	0x3e7d6862	0.2474685
92	0x3e093139	0.13397683
93	0xbdb4dabe	-0.08830784
94	0x3d866bb2	0.0656351
95	0x3d8ad7e3	0.067794584
96	0x3ef7965c	0.48356903
97	0x3e8a144c	0.2696861
98	0x3c89df98	0.01683025
99	0x3ed769c8	0.42072892
100	0x3e597ec8	0.2123977
101	0x3e7cc429	0.24684204
102	0x3bd4fcf2	0.00649988
103	0x3e36d2d1	0.17853858
104	0x3ea4d4dc	0.3219365
105	0xbe82e29e	-0.2556352
106	0xbe79a416	-0.24379
107	0xbec28968	-0.37995458
108	0x3e85e9e5	0.2615501
109	0x3eb9ab64	0.36263573
110	0x3e4499b4	0.19199258
111	0x3e944355	0.2895762
112	0x3f0a6eac	0.5407512
113	0xbee69401	-0.45034793
114	0x3f0397cb	0.5140349
115	0x3eba629d	0.3640336
116	0xbe876a1e	-0.26448148
117	0x3e9de97e	0.30842203
118	0xbf154262	-0.5830442
119	0x3e5e7fc6	0.21728429
120	0x3e8cb643	0.27482805
121	0xbe9b0cdb	-0.30283245
122	0x3bb2c53d	0.0054556415
123	0xbe831c62	-0.25607592
124	0xbe6cd589	-0.23128332
125	0x3e92e954	0.2869364
126	0xbeadc763	-0.33941182
127	0xbe511905	-0.204197
128	0xbe3f00d4	-0.1865266
129	0xbc1f1242	-0.009708943
130	0xbee47d7c	-0.44626987
131	0xbe13f3d0	-0.14448476
132	0x3bbfdc52	0.0058551216
133	0xbebbccd9	-0.36679724
134	0x3eafa436	0.3430497
135	0xbdb46834	-0.08808938
136	0x3ce1bd51	0.027556093
137	0x3e79a2b2	0.2437847
138	0xbecc3cdc	-0.39890182
139	0x3b78f8ec	0.0037990166
140	0xbe90cf8e	-0.28283352
141	0xbee6ba8b	-0.45064196
142	0x3e52466b	0.20534675
143	0x3dc6c34d	0.097052194
144	0xbdb29018	-0.0871889
145	0x3e2ad6a8	0.16683447
146	0x3d9a275b	0.07527038
147	0xbcac9e51	-0.021071585
148	0xbeeb8c35	-0.46005407
149	0x3d33c372	0.043887563
150	0x3ef4a8a9	0.47784927
151	0xbe79523c	-0.24347776
152	0x3e1184a2	0.14210752
153	0x3e068579	0.13136853
154	0x3d711647	0.058859136
155	0xbd6b6ccc	-0.057476804
156	0x3e794f08	0.24346554
157	0x3ed9b7f4	0.42523158
158	0x3e7e6fa4	0.24847275
159	0x3e6247da	0.22097722
160	0x3e3d23de	0.18470713
161	0xbea0de70	-0.31419706
162	0x3e335488	0.17512715
163	0xbda7aa4c	-0.081867784
164	0xbef103e0	-0.4707327
165	0x3e619c56	0.22032294
166	0xbe44cf4f	-0.19219707
167	0x3dc9397d	0.09825418
168	0xbe9c41ba	-0.30518895
169	0xbe44412a	-0.19165483
170	0x3d714ee6	0.058913134
171	0x3e46ed7c	0.1942653
172	0xbe781ce6	-0.24229774
173	0xbe289ab6	-0.16465268
174	0x3ecae906	0.39630908
175	0x3eccefee	0.40026802
176	0xbec9acee	-0.39389747
177	0xbec2e4ee	-0.38065284
178	0xbed4dbae	-0.41573852
179	0xbeb7c263	-0.35890493
180	0x3e640379	0.2226695
181	0x3e50041e	0.2031407
182	0xbedceef1	-0.43151048
183	0xbea11fae	-0.31469482
184	0xbe93dc76	-0.28879136
185	0x3e5ae4a5	0.21376283
186	0x3e6e89f2	0.2329481
187	0x3ed0ac9d	0.40756693
188	0x3e631488	0.22175801
189	0xbebb3c72	-0.36569554
190	0x3e8a0680	0.26958084
191	0xbe2839aa	-0.16428247
192	0x3e233b74	0.15940648
193	0x3eb21eae	0.34789032
194	0xbea25c85	-0.31711212
195	0xbeb1c0c8	-0.34717393
196	0x3de34034	0.1109623
197	0x3eed7728	0.46379972
198	0x3b01a81a	0.0019784034
199	0xbef22011	-0.4729009
200	0x3e93645c	0.28787506
201	0xbe4e4db5	-0.2014683
202	0xbe333a69	-0.1750275
203	0x3cd13156	0.02553622
204	0x3e4e3f7e	0.20141408
205	0x3e741c16	0.23838839
206	0x3ed9b894	0.42523634
207	0xbd297e87	-0.04138043
208	0x3e4073e5	0.1879421
209	0xbe1da3e5	-0.15394552
210	0xbe4ca8c8	-0.1998626
211	0x3e9c05b2	0.30473095
212	0x3eec2c39	0.4612749
213	0xbe0db488	-0.13838398
214	0xbeb49da3	-0.35276517
215	0xbed9aca5	-0.4251453
216	0x3e2c27ba	0.1681203
217	0x3f09f8be	0.53895175
218	0xbe3b1fcb	-0.18273847
219	0x3e2253b9	0.1585225
220	0xbefef3d6	-0.49795407
221	0xbe419603	-0.18904881
222	0x3dc38bf7	0.095481806
223	0x3e99e1cd	0.30055085
224	0xbd8183ba	-0.06323953
225	0xbe71f9cd	-0.23630448
226	0xbebfaf34	-0.37438357
227	0xbeb2feab	-0.3495992
228	0x3c25be15	0.01011612
229	0x3e496689	0.1966802
230	0x3da9e068	0.08294755
231	0xbe7e2045	-0.24816997
232	0xbdb87ed0	-0.090085626
233	0xbe064f27	-0.13116132
234	0x3d76ccca	0.060253896
235	0xbe202616	-0.15639529
236	0xbee6a0e4	-0.45044625
237	0xbea2e173	-0.3181263
238	0xbe71135c	-0.23542541
239	0xbc9d789f	-0.019222556
240	0x3e786dc6	0.24260625
241	0xbeb1a2e8	-0.346946
242	0xbe4b9222	-0.19879964
243	0xbdf601fa	-0.12012096
244	0xbeb2e928	-0.3494351
245	0x3e0a0f45	0.13482387
246	0xbe225013	-0.15850858
247	0xbd3210c5	-0.043473024
248	0xbec3af22	-0.38219553
249	0xbc442eb4	-0.0119740255
250	0xbe9e64d4	-0.309363
251	0x3e4d7af9	0.20066442
252	0x3ed0bd02	0.40769202
253	0xbecac967	-0.39606783
254	0xbea778ff	-0.327095
255	0x3eb9b969	0.3627427

hidden.bias f4 [91]
0	0x3ddec1b3	0.10876789
1	0x3d829a3a	0.06377073
2	0x3d8e54bb	0.06949755
3	0x3d0fc040	0.035095453
4	0xbe32b0f9	-0.17450322
5	0x3e0ea341	0.13929464
6	0x3e616b1c	0.22013515
7	0xbe25d5a0	-0.16194773
8	0xbde33941	-0.11094905
9	0xbe0a14ab	-0.13484447
10	0x3d1b3425	0.037891526
11	0xbe022bbe	-0.12711999
12	0xbe1d633c	-0.15369886
13	0x3e37d11e	0.17950866
14	0x3d7c3c63	0.061581027
15	0xbd809d4b	-0.06280001
16	0xbe014f27	-0.1262785
17	0xbd4989f0	-0.049203813
18	0x3cb2e994	0.021839894
19	0xbea4e0ec	-0.32202852
20	0xbd0f6971	-0.035012666
21	0xbdbd8c4f	-0.09255277
22	0xbdcfbf0a	-0.1014386
23	0xbd1660b1	-0.036713306
24	0xbe0a875e	-0.13528201
25	0xbd615d4b	-0.05502061
26	0x3d280ef0	0.04102987
27	0x3d919b83	0.0710974
28	0x3d36f76a	0.044669546
29	0x3c917227	0.017754627
30	0x3e35561d	0.17708631
31	0x3c0e9008	0.008701332
32	0x3d983157	0.07431286
33	0xbd47b133	-0.048752975
34	0xbdd1ddf9	-0.10247416
35	0x3d6af5ec	0.057363436
36	0xbe289743	-0.16463952
37	0xbd4d8f59	-0.050185535
38	0x3dda1d96	0.10650174
39	0x3b89998b	0.004199212
40	0xbdb08c59	-0.08620519
41	0x3dc5661c	0.096386164
42	0xbe2e3472	-0.17012194
43	0x3e3fcd4d	0.1873066
44	0x3b33a3a6	0.0027410774
45	0xbe3f91c4	-0.18707949
46	0x3cf1cd5e	0.029516872
47	0x3ca98fc5	0.020698437
48	0xbea1b98e	-0.3158688
49	0x3cc45f6f	0.023971288
50	0x3e02b14e	0.12762949
51	0xbcaa3aca	-0.020779986
52	0xbe956c50	-0.29184198
53	0x3db9e710	0.09077275
54	0x3c4acae8	0.012377478
55	0xbe5cd9fb	-0.21567528
56	0xbc378f7d	-0.011203644
57	0x3ce28123	0.027649468
58	0xbd209a75	-0.0392098
59	0xbc5d8bff	-0.013522147
60	0x3cf3577b	0.0297048
61	0xbd9d8b39	-0.0769257
62	0xbdee5dd2	-0.116389886
63	0x3dd69a01	0.10478593
64	0xbe3586d5	-0.17727216
65	0xbea2fabc	-0.3183192
66	0xbe2fa0b1	-0.17151143
67	0xbd889ae8	-0.06670171
68	0xbdb20c9b	-0.086938106
69	0xbe407d27	-0.18797742
70	0x3d95c8fb	0.073137246
71	0xbe058448	-0.13038743
72	0xbe5c067e	-0.21486852
73	0xbe9a9e41	-0.30198863
74	0xbd1f85a0	-0.038945794
75	0xbc788c70	-0.015170202
76	0x3cd0b715	0.025477925
77	0xbd205600	-0.039144516
78	0xbc41610f	-0.011802926
79	0x3df9e0f9	0.12201113
80	0x3ca2dd63	0.019880956
81	0xbe229b26	-0.15879497
82	0xbeee9f9f	-0.46606156
83	0xbdf61970	-0.120165706
84	0x3d7c177f	0.061545845
85	0x3e29632e	0.1654174
86	0xbe107313	-0.14106397
87	0x3c3235a9	0.010877051
88	0x3e27d4e5	0.16389807
89	0x3e08869a	0.13332596
90	0xbcc73c85	-0.02432085

output.weight f4 [16, 91]
0	0xbd8618ce	-0.065477
1	0x3d87667f	0.066113465
2	0xbebfb230	-0.37440634
3	0x3e7c24df	0.2462344
4	0xbe7764ef	-0.24159597
5	0x3ef7ac8a	0.48373824
6	0x3ec315f5	0.3810269
7	0xbd8a26ff	-0.06745719
8	0xb9e410df	-0.0004350012
9	0xbe2b9577	-0.16756235
10	0x3e0bd6c8	0.13656151
11	0x3ae0c277	0.0017147799
12	0xbe5b625f	-0.21424244
13	0xbed7482b	-0.42047247
14	0xbeecd49f	-0.46255967
15	0xbd5da50d	-0.054112483
16	0xbe39ca84	-0.1814366
17	0xbe1f0600	-0.15529633
18	0x3efa0e72	0.48839146
19	0x3d97f17e	0.07419108
20	0x3dd1d29c	0.10245249
21	0xbd3ce4c8	-0.04611662
22	0xbe975205	-0.29554763
23	0x3e0c8c4a	0.13725391
24	0x3d9731d5	0.073825516
25	0x3e047d49	0.12938417
26	0xbd7635ae	-0.060109787
27	0x3e341dbd	0.17589469
28	0xbd98ca60	-0.07460475
29	0xbe3f3438	-0.18672264
30	0x3ddb8961	0.10719562
31	0xbe1a58bc	-0.15072912
32	0x3e52d609	0.2058946
33	0x3ee51ff1	0.44750932
34	0x3e8afb52	0.27144867
35	0x3e528dbc	0.2056188
36	0xbdb9a530	-0.0906471
37	0xbec115f8	-0.37712073
38	0x3ea99cf5	0.3312756
39	0xbea1afce	-0.3157944
40	0x3dfecb07	0.12441068
41	0xbdb21950	-0.08696234
42	0xbd0c7ad2	-0.034296818
43	0xbe17adb9	-0.14812364
44	0x3e1f101f	0.15533493
45	0x3f2a0baf	0.6642408
46	0x3dab645c	0.083687514
47	0xbe5b5e74	-0.2142275
48	0x3b9b4fbc	0.0047397297
49	0xbe85024e	-0.2597832
50	0x3d4eda42	0.050501116
51	0xbd81a030	-0.063293815
52	0x3d096a02	0.033548363
53	0x3e208a7d	0.15677829
54	0x3e9364dd	0.2878789
55	0xbe3ad220	-0.18244219
56	0xbe713790	-0.23556352
57	0x3e35f2e8	0.17768443
58	0x3d593284	0.05302669
59	0xbe591e92	-0.21203068
60	0xbe2e4b66	-0.1702095
61	0xbf027d2e	-0.5097226
62	0xbdb9afb7	-0.09066718
63	0xbe373ac9	-0.17893519
64	0xbdbe959c	-0.093058795
65	0xbd3932a6	-0.045214318
66	0xbdf1d8da	-0.11808939
67	0xbe4f543c	-0.20246977
68	0xbdf23d59	-0.118281074
69	0x3ad3225f	0.0016108266
70	0x3e565598	0.20931089
71	0xbeda404b	-0.42627177
72	0xbe2d8668	-0.16945803
73	0x3e196c1d	0.14982648
74	0x3daacf85	0.083403625
75	0x3e525af7	0.20542513
76	0xbd582124	-0.05276598
77	0x3cf2ee46	0.029654633
78	0xbd235b45	-0.039881963
79	0x3e3720b9	0.17883576
80	0xbe567a85	-0.20945175
81	0xbdd62420	-0.10456109
82	0xbe8a172f	-0.26970813
83	0x3f14378c	0.5789726
84	0xbe2656fa	-0.16244116
85	0x3dbf2a85	0.09334282
86	0x3e48828d	0.19581051
87	0x3f089d68	0.5336518
88	0xbdf49135	-0.119417585
89	0x3da1d944	0.07902768
90	0x3db582bf	0.088628285
91	0x3e7838a9	0.24240364
92	0xbdc685ad	-0.096934654
93	0x3ebd6ce4	0.3699714
94	0xbe38dc4b	-0.18052785
95	0x3d0ae63f	0.033910986
96	0xbed3f04c	-0.4139427
97	0x3d34e381	0.044162277
98	0xbe0a6811	-0.1351626
99	0xbd8c7329	-0.068579026
100	0xbe612220	-0.21985674
101	0x3edce537	0.43143627
102	0x3e4db11f	0.20087098
103	0x3e399313	0.1812251
104	0x3e1f7489	0.15571798
105	0x3e6ac2a9	0.2292582
106	0xbc164a91	-0.009173051
107	0xbe65e294	-0.22449714
108	0x3f10a866	0.56506956
109	0x3c937524	0.018000193
110	0x3dc45235	0.09585992
111	0xbe4cf9a6	-0.20017108
112	0x3dd496a9	0.10380299
113	0xbc901547	-0.01758827
114	0xbe59a1f6	-0.2125319
115	0x3da878a1	0.08226133
116	0x3db62e17	0.0889551
117	0xbe628cb9	-0.22123994
118	0xbd53bb2b	-0.05169217
119	0xbd2e01da	-0.042482235
120	0x3df0f110	0.11764729
121	0x3e3a25b5	0.18178447
122	0xbc06767d	-0.008206961
123	0xbe504095	-0.20337136
124	0x3d9b778d	0.07591162
125	0xbe808728	-0.25103116
126	0x3d371d97	0.044705953
127	0x3e71d1d1	0.23615195
128	0xbe53cb07	-0.20682918
129	0x3e2f7c5d	0.17137285
130	0x3d71a2c1	0.058993105
131	0xbd8f6567	-0.07001763
132	0xbdb7d4f3	-0.08976164
133	0xbe7d5e87	-0.2474309
134	0x3e40e118	0.18835866
135	0xbdc957ef	-0.09831225
136	0xbdf8356a	-0.12119563
137	0x3dab5dd2	0.08367504
138	0xbe8910c6	-0.2677061
139	0xbda04ae9	-0.07826788
140	0xbe7bb292	-0.24579838
141	0x3dd14d33	0.10219803
142	0xbe1dbc6d	-0.1540391
143	0xbe3c3a2c	-0.18381566
144	0x3e8a3077	0.269901
145	0x3e100134	0.14062959
146	0xbdb943ea	-0.09046157
147	0xbe88daf8	-0.2672956
148	0x3e6c33b1	0.23066594
149	0xbec9d737	-0.39422008
150	0x3b746cd4	0.0037296312
151	0x3e1cdeda	0.15319386
152	0x3b3f1e42	0.0029162322
153	0xbd5bd854	-0.053673103
154	0x3b509a02	0.0031830077
155	0x3c92530e	0.01786187
156	0x3d69c11a	0.05706892
157	0xbd04ba53	-0.032404255
158	0xbbb6daf2	-0.0055802995
159	0x3e2f09ec	0.17093629
160	0xbdb8c206	-0.09021382
161	0x3eb6705f	0.35632607
162	0x3ecf2dc0	0.40464592
163	0x3ee241f8	0.44190955
164	0x3da1c01f	0.07897972
165	0xbe91bfc8	-0.2846663
166	0xbd9f4c15	-0.07778183
167	0x3e0fc9ee	0.14041874
168	0x3f5a58aa	0.8529154
169	0xbded0bce	-0.11574517
170	0xbe2878a6	-0.16452274
171	0xbd3d1f02	-0.04617215
172	0x3efe2b5c	0.49642456
173	0xbe63f515	-0.2226146
174	0xbe5a9fbd	-0.21349998
175	0xbcdda929	-0.0270582
176	0xbf2281bc	-0.6347921
177	0xbcc92fc9	-0.024558919
178	0x3cfa3f34	0.030547716
179	0xbd7712aa	-0.060320534
180	0xbf0c7329	-0.5486322
181	0xbee08d1e	-0.43857664
182	0x3e1c6200	0.15271759
183	0x3ed6f019	0.41980055
184	0x3cdf90ab	0.027290663
185	0xbe4d1eda	-0.200313
186	0xbc5308a9	-0.012880483
187	0xbd592293	-0.05301149
188	0x3e2ddb61	0.16978218
189	0x3ada4614	0.0016652965
190	0x3d18ac4d	0.037273694
191	0xbe1e65f6	-0.15468583
192	0xbe6a5658	-0.228845
193	0x3cc53dce	0.024077322
194	0x3e2ef1bf	0.17084406
195	0xbaee6719	-0.0018188684
196	0x3e272bc4	0.16325289
197	0x3d80c1ac	0.0628694
198	0xbde8a3e6	-0.11359386
199	0xbcabe66c	-0.020983897
200	0x3e83abd9	0.25717047
201	0x3e13ce71	0.1443422
202	0x3d9e6b98	0.07735366
203	0x3db48508	0.08814436
204	0x3d33d9da	0.04390893
205	0xbdf2b35d	-0.11850617
206	0xbc5f1c87	-0.013617641
207	0xbde7c855	-0.11317507
208	0x3e26de92	0.16295841
209	0x3e6f56a9	0.23372902
210	0xbd46c81a	-0.048530675
211	0x3ea24117	0.31690285
212	0xbd63ab29	-0.055583153
213	0xbef225d7	-0.47294495
214	0xbe16e7ee	-0.14736912
215	0x3e196f4e	0.14983866
216	0x3c88539c	0.01664143
217	0xbe8cf43a	-0.2753008
218	0xbea09c8d	-0.3136944
219	0xbe9ccec1	-0.3062649
220	0x3e3d1118	0.18463552
221	0x3dea0dc3	0.11428406
222	0xbe8f63bd	-0.28005782
223	0x3e1e8c10	0.15483117
224	0xbe866829	-0.26251343
225	0xbd82a528	-0.06379157
226	0x39c288eb	0.00037104575
227	0xbdd9c2e4	-0.106328756
228	0x3f154624	0.5831015
229	0x3eb7354d	0.35782853
230	0xbdab49dd	-0.08363698
231	0xbcaaec7d	-0.02086472
232	0x3e2a8d7d	0.16655536
233	0xbd9992b2	-0.07498683
234	0xbdf771c2	-0.120822445
235	0x3de48bbf	0.11159467
236	0x3e90792d	0.2821745
237	0xbdcf513a	-0.101229146
238	0xbd6024ac	-0.054722473
239	0xbe3ce553	-0.18446855
240	0x3e0d91b9	0.1382512
241	0x3d1d2b37	0.03837129
242	0xbdb06288	-0.08612543
243	0xbe3123f7	-0.17298876
244	0x3edfebd1	0.437346
245	0x3e956547	0.2917883
246	0x3f03d32d	0.51494104
247	0xbe856e17	-0.26060554
248	0xbe4ea1cc	-0.20178908
249	0xbe1b6d22	-0.1517835
250	0xbe300f80	-0.17193413
251	0x3e2ddad2	0.16978005
252	0x3ee911af	0.45521304
253	0xbd5f57f0	-0.054527223
254	0xbe251bf0	-0.16123939
255	0xbe944b56	-0.28963727

output.bias f4 [16]
0	0xbd9ecdd6	-0.07754104
1	0xbce9501d	-0.028480584
2	0xbdf9e729	-0.122022934
3	0xbd152619	-0.036413286
4	0x3e1c99a1	0.1529298
5	0xbd4a767c	-0.0494294
6	0xbd08ab88	-0.03336671
7	0x3d855d4e	0.06511937
8	0x3a03370e	0.0005005457
9	0x3cbba660	0.022906482
10	0x3d99d7f3	0.07511892
11	0xbdbdb7c4	-0.09263566
12	0x3d634ead	0.055494953
13	0x3ce45029	0.027870255
14	0xbdbdf4fb	-0.09275242
15	0x3e012ad3	0.12613992
