Result/Model/SLNN_7/SLNN_model_BER6.0.pth (torch, 2976 bytes, 4 tensors)

hidden.weight f4 [7, 7]
0.8504267 1.6959537 -2.0032513 -1.0893868 -0.8972737 1.2016916 0.9965942 0.9577037
-0.81549436 -0.76405644 -0.43007174 1.1973655 2.7585995 0.86533916 0.9768248 -1.0138806
-2.001096 -0.13520138 0.45835212 -0.42189804 2.3154063 0.51265603 1.6294832 -1.5618651
1.9422023 1.6770725 0.40404022 0.2940268 3.4136088 0.53026104 -0.37154695 0.27163905
-0.33606496 0.11862277 0.15763628 0.98838824 -1.1234542 -2.6055422 0.660941 -0.9203998
1.1751771 -0.50927037 0.5652144 -0.1395665 -0.30206427 2.000759 -1.1606089 1.2843585
2.144123
00000000: 90b5 593f 0315 d93f 4535 00c0 0771 8bbf
00000010: bbb3 65bf 08d1 993f cc20 7f3f 122c 753f
00000020: 3dc4 50bf 3499 43bf 5d32 dcbe 4643 993f
00000030: e58c 3040 de86 5d3f 3111 7a3f d7c6 81bf
00000040: f511 00c0 3b72 0abe 21ad ea3e 0503 d8be
00000050: 9e2f 1440 6d3d 033f e892 d03f 32eb c7bf
00000060: 169a f83f 50aa d63f 5cde ce3e ae8a 963e
00000070: 9178 5a40 30bf 073f 673b bebe 4614 8b3e
00000080: b510 acbe 7ff0 f23d 686b 213e 0307 7d3f
00000090: 59cd 8fbf 34c1 26c0 6e33 293f 529f 6bbf
000000a0: 346c 963f 8b5f 02bf e4b1 103f 85ea 0ebe
000000b0: 2ba8 9abe 6f0c 0040 d58e 94bf dc65 a43f
000000c0: 5039 0940

hidden.bias f4 [7]
4.4025364 4.277725 4.44247 3.7946317 4.0453835 4.4159145 4.2901626
00000000: 94e1 8c40 20e3 8840 b728 8e40 3fdb 7240
00000010: c873 8140 2c4f 8d40 0349 8940

output.weight f4 [16, 7]
0.65291226 -1.871502 0.93463486 -1.4754282 -1.4164737 2.6725101 -1.5929161 0.9125838
-2.6333218 0.8521797 0.4692419 1.0698258 -0.05382731 1.2098525 1.6093037 -1.0258384
-2.7685652 1.0845878 -1.6712507 2.1030917 1.0372608 0.8845637 0.7995712 0.8481
-2.2217731 0.36605924 0.59265065 0.36121356 -2.651961 -0.51540065 1.0849355 1.4417524
1.1239245 1.9568672 -1.5423245 1.8286104 -0.72579175 2.44048 1.2968659 -1.5818355
-1.6653221 -1.6157357 1.3076406 1.4669145 -0.9946192 0.91534114 0.95342755 0.16221899
-2.5402002 -1.1250196 1.2745183 1.0704697 1.034006 -2.283821 0.60421354 0.7216133
1.244853 -1.3386364 -1.1847999 -1.3035377 2.7523694 -0.6560779 -0.86251265 -1.460577
-1.7961128 1.202431 -1.1634517 -0.885118 -0.18474637 2.7946374 -1.8902088 0.8345811
-2.3881798 -1.2123866 1.7497662 1.478851 1.6191312 2.8154395 0.6329831 -1.1918788
-1.7110236 -1.1368339 -2.0951016 1.8891081 -1.010277 -0.9961625 -0.95000577 2.5550287
-0.18654028 -0.7795552 -0.22938244 -1.46443 1.0864558 2.57635 -1.2555304 1.763521
-2.3316216 -0.91894394 -1.0150149 3.0635 -0.9710965 -0.63525426 -0.8688614 -0.011395263
-1.257318 -0.5246659 1.5139343 -0.7982282 1.146722 1.4853202 -2.3735268 1.4238433
00000000: 4225 273f 618d efbf 3b44 6f3f d5da bcbf
00000010: 034f b5bf 680a 2b40 ade4 cbbf 189f 693f
00000020: 5888 28c0 7328 5a3f 7940 f03e 0df0 883f
00000030: 077a 5cbd 72dc 9a3f aafd cd3f ac4e 83bf
00000040: 2c30 31c0 c6d3 8a3f 8beb d5bf 0e99 0640
00000050: f6c4 843f c472 623f b3b0 4c3f 151d 593f
00000060: 8831 0ec0 1e6c bb3e f4b7 173f fcf0 b83e
00000070: bbb9 29c0 4cf1 03bf 2bdf 8a3f 588b b83f
00000080: c2dc 8f3f a07a fa3f e46a c5bf e80f ea3f
00000090: 7dcd 39bf d330 1c40 b4ff a53f 9679 cabf
000000a0: 4629 d5bf 6dd0 cebf c460 a73f dbc3 bb3f
000000b0: 5d9f 7ebf cc53 6a3f d413 743f bc1c 263e
000000c0: a492 22c0 a400 90bf 6a23 a33f 2705 893f
000000d0: 4f5a 843f 202a 12c0 bdad 1a3f a6bb 383f
000000e0: 5857 9f3f 7058 abbf 86a7 97bf 53da a6bf
000000f0: d226 3040 b9f4 27bf a1cd 5cbf 30f4 babf
00000100: 06e7 e5bf 42e9 993f fceb 94bf 1897 62bf
00000110: 272e 3dbe 57db 3240 5df2 f1bf 1ba7 553f
00000120: f0d7 18c0 7c2f 9bbf 57f8 df3f fd4a bd3f
00000130: b13f cf3f 2930 3440 2e0b 223f 7c8f 98bf
00000140: d202 dbbf c683 91bf 2516 06c0 4bce f13f
00000150: c250 81bf 8104 7fbf 9433 73bf 9785 2340
00000160: 6a04 3fbe ee90 47bf 3be3 6abe 7172 bbbf
00000170: fc10 8b3f ebe2 2440 38b5 a0bf 0ebb e13f
00000180: 4a39 15c0 e93f 6bbf 02ec 81bf 6210 4440
00000190: c899 78bf 06a0 22bf b36d 5ebf 32b3 3abc
000001a0: ccef a0bf 8150 06bf 99c8 c13f af58 4cbf
000001b0: c9c7 923f f91e be3f dde7 17c0 7f40 b63f

output.bias f4 [16]
5.895478 -5.3168626 -2.1425989 -5.507571 -2.136892 -0.65256125 -3.704902 -4.24588
4.3472414 3.682877 -1.3365986 1.6007748 7.275182 1.4593166 6.2991204 -4.7807064
00000000: c1a7 bc40 bd23 aac0 5720 09c0 063e b0c0
00000010: d7c2 08c0 410e 27bf 1d1d 6dc0 40de 87c0
00000020: 9a1c 8b40 42b4 6b40 aa15 abbf 30e6 cc3f
00000030: 4ace e840 e3ca ba3f 6592 c940 8cfb 98c0
