Hamming74/Result/Model/SLNN_modified_threshold0.05_cpu/SLNN_model_modified_hiddenlayer24_BER0.pth (torch, 4744 bytes, 4 tensors)

hidden.weight f4 [24, 7]
000000 c5 40 b2 3e 95 1a 4f bf cb 71 50 3f 2e c3 1b 3f
       0.3481504 -0.80899936 0.81423634 0.60844696
000010 b1 f7 57 bf 93 54 8b 3e 93 63 7f be 52 af 96 be
       -0.8436232 0.27212963 -0.24940328 -0.29430634
000020 fd 17 d8 be c7 dd c6 be b0 da a1 3e 15 26 28 3f
       -0.42205802 -0.38841078 0.31612158 0.6568311
000030 1b df eb 3e 20 00 8b 3e 8c 8d ee 3e 59 1c 60 3f
       0.46068653 0.27148533 0.46592367 0.87543255
000040 91 d6 6f 3f 82 4d 31 3f 84 98 1e 3f 53 91 4e 3d
       0.9368678 0.6925889 0.6195147 0.05043156
000050 9c 15 fb 3e cb 9f 6b be 10 6b 03 be 6b 27 71 3e
       0.49039924 -0.23010175 -0.1283381 0.23550193
000060 d5 ff 03 be c4 6e 05 3e f2 5f 2d bd 8b f9 9a be
       -0.12890561 0.13030535 -0.04232783 -0.3026851
000070 da c1 a8 3e 01 cd 2c 3f 45 f9 17 3f 94 82 dd be
       0.32960397 0.6750031 0.5936473 -0.43263686
000080 b5 6d 5f bf dc 89 45 bf fe 4e 13 bf 91 d3 2c 3e
       -0.87276775 -0.7716348 -0.5754241 0.16877581
000090 42 e2 89 bc fc 89 d1 3c 31 60 95 bd 1d 56 8c bd
       -0.016831521 0.025578491 -0.07293738 -0.06852362
0000a0 21 6c 85 be 02 c1 22 3e 5b 3a b7 be 5f 57 09 bf
       -0.26059058 0.15893939 -0.3578671 -0.5364894
0000b0 59 e5 5c 3f a8 d3 f3 be 54 d9 46 3f 16 7f 01 3f
       0.86287457 -0.47622418 0.77675366 0.5058454
0000c0 37 f3 fa be 9c 1b 6b 3f b3 f0 f2 be c2 9e 20 bf
       -0.49013683 0.91839004 -0.47449264 -0.62742245
0000d0 a2 3a 47 3f 43 1d 4e 3e d7 3d 99 be b3 74 78 be
       0.7782384 0.2012835 -0.29929993 -0.24263267
0000e0 b7 73 47 3e ee c5 33 3e 46 b4 c4 bb 63 c0 91 bd
       0.19477735 0.17555973 -0.0060029356 -0.07116773
0000f0 4d ee 2d be 30 a5 53 3e 2b f2 6c 3e 72 5b b8 3e
       -0.16985436 0.20668483 0.23139255 0.36007267
000100 34 40 30 3e e3 9e 25 be c7 ca 58 be 5c ea 29 bf
       0.17211992 -0.16173892 -0.21171103 -0.6637323
000110 56 37 8a 3f d3 b8 54 3f 36 bd 91 be 40 3c 4f 3f
       1.0798137 0.8309452 -0.2846467 0.8095131
000120 8d 83 58 bf 23 07 2b bf 74 3c 4f 3f 0c 88 98 be
       -0.8457573 -0.66807765 0.8095162 -0.29791296
000130 cb ae 86 3e 7c 89 89 3f e7 11 b0 3e f4 75 34 be
       0.2630523 1.0745082 0.34388658 -0.1762312
000140 a7 9b 0b bf 3b e1 8c 3e 6c bf 0c 3f 3b e6 4a bf
       -0.5453438 0.27515587 0.54979587 -0.79257554
000150 e0 c1 80 be 80 1d 8a 3e ce 79 b7 bd 8c 27 a7 3d
       -0.25147915 0.26975632 -0.08958779 0.0816184
000160 94 90 19 3e 9c 35 9e be c5 60 bd bc dd 49 eb be
       0.14996558 -0.30900276 -0.023117432 -0.4595479
000170 72 b1 59 bf 9e 08 6d bf 27 4f 2c bf 61 50 38 bf
       -0.85036385 -0.92591274 -0.67308277 -0.7199765
000180 16 d0 7d bd 96 dc 13 bf e5 31 b9 be e6 7b 63 be
       -0.061966024 -0.5775846 -0.3617088 -0.22215232
000190 b2 45 fe 3d 7b ee 64 3e 0d 40 23 3f e6 da 88 bf
       0.12415637 0.22356598 0.6376961 -1.0691803
0001a0 fc 5e 47 bf b2 75 88 bf b5 6a b0 be 83 a6 94 3e
       -0.7787931 -1.0660918 -0.3445641 0.29033288
0001b0 f9 86 f4 3e 0f ed 98 be 9e 12 0e bf 61 86 5a 3f
       0.47759226 -0.2986836 -0.5549716 0.85361296
0001c0 50 7e 99 3e ee 40 00 3f d2 67 53 bf 27 77 ff 3e
       0.2997918 0.50099075 -0.8258029 0.49895594
0001d0 c6 e5 3c bf f3 3c e8 be 55 be fe 3e 3a 59 2b be
       -0.73788106 -0.45359 0.49754587 -0.16733256
0001e0 5a 3a 03 bf 4d e3 ec be 1d 38 9d 3e 89 85 16 3f
       -0.5126091 -0.46267167 0.30706874 0.5879751
0001f0 d8 8b 16 3f 76 b6 f9 3e 92 d6 0c 3e fb ce 7e be
       0.58807135 0.4877202 0.13753727 -0.24883644
000200 d9 a4 1e 3e 80 e9 09 3d 1a 67 b0 bd f3 2a df 3e
       0.15492572 0.03366995 -0.08613415 0.43587455
000210 0f 49 3d be 42 e5 56 bf 2c 26 03 3f 87 07 17 3f
       -0.18484901 -0.8394357 0.5123012 0.5899586
000220 87 bf 5b bf 0f 4a 40 be ff 0c b9 3e 1a 85 68 3e
       -0.8583912 -0.18778251 0.36142728 0.22707024
000230 81 46 b6 3c 6e 82 d7 3d 2b d5 b3 3d 97 b6 1c 3c
       0.022250416 0.10522924 0.08780893 0.009565017
000240 78 59 4c 3e 45 a0 c2 bc 5c 21 a7 be e4 bb 4d bf
       0.19956005 -0.023758063 -0.3264264 -0.80364823
000250 aa fe 3b 3f 80 ac 50 be 5f af 50 3f e1 37 59 be
       0.7343546 -0.20378304 0.81517595 -0.21212722
000260 75 7d 2e 3f 9f bc 57 bf 63 8d 3c 3f e6 e1 2f bf
       0.6816018 -0.8427219 0.7365324 -0.6870407
000270 a5 70 98 3e d0 cc 59 bf c5 d0 4c 3e 7b f3 27 bf
       0.2977344 -0.85078144 0.20001514 -0.65605897
000280 c8 3e 5e 3f 77 d3 2c 3e 7f b6 35 be 6f ee e7 3d
       0.86814547 0.16877542 -0.17745398 0.113247745
000290 7d f9 87 3e 42 d7 f3 3c 41 7c fe 3d 8b 39 fd 3d
       0.26557532 0.029765729 0.12426043 0.12364491

hidden.bias f4 [24]
000000 81 12 27 bd 21 77 0a 3d 5d 88 99 3d 82 e3 78 be
       -0.04078913 0.033805016 0.07496712 -0.24305537
000010 74 84 fb bd 78 79 06 3e 97 45 34 be 68 cf 6b bd
       -0.12281123 0.13132274 -0.17604671 -0.057570845
000020 f6 28 77 bb cf f4 5a bd 6f b1 52 3c 80 b4 59 3d
       -0.0037713624 -0.053456124 0.012859686 0.053150654
000030 0c cf a7 3c 4e b8 e4 bd 0f 77 20 3e 90 08 f0 bd
       0.02048447 -0.11167966 0.15670417 -0.11720383
000040 6e c4 ce 3d 62 e2 c7 bc c8 78 35 be f2 d9 3d 3d
       0.1009606 -0.02439994 -0.17721856 0.046350427
000050 ed cb ab 3d 7b b5 90 bd e3 cb f3 bc 41 00 85 bd
       0.08388505 -0.07065865 -0.029760307 -0.06494189

output.weight f4 [16, 24]
000000 3c d6 7b bd 41 17 25 be 5c 57 c4 bf 4e 23 f8 3d
       -0.061483607 -0.16122152 -1.533916 0.12116109
000010 2a 27 cd 3e 43 e8 d2 bc df 88 12 be 9f 89 f3 bd
       0.40068942 -0.025745517 -0.14310025 -0.118914835
000020 1e aa e2 be 53 fb f2 be ad e5 30 3d 13 d2 82 be
       -0.44270414 -0.4745737 0.043187786 -0.255509
000030 fa 2e e4 3d ed 88 c6 3f c0 42 13 3f 9a b6 83 3e
       0.111417726 1.5510536 0.5752373 0.2572525
000040 8f ce 50 3d b9 c3 bb be 4d 9a aa bc 39 2d c6 3d
       0.05097824 -0.36672762 -0.02082553 0.09676594
000050 13 40 c6 bc 28 ab ca bc 0c eb 97 3d c8 c7 94 be
       -0.024200475 -0.024739817 0.074178785 -0.2905867
000060 a3 38 49 be 84 b6 34 be 33 73 a8 3e 17 87 ca be
       -0.19650511 -0.17647749 0.3290039 -0.3955619
000070 46 70 b1 3e 69 0b 81 3e ba 16 9b bf c5 6e 14 3f
       0.3465597 0.25204018 -1.2116311 0.5798152
000080 d6 f6 50 3e c8 8d 8a 3e 68 70 f2 3d 73 02 73 be
       0.2040666 0.27061296 0.11837846 -0.23731403
000090 b2 c0 9e 3d 72 5c b9 be dd c9 74 be 1b 67 47 3e
       0.077515975 -0.36203343 -0.2390513 0.19472925
0000a0 ba e6 b9 3f 31 17 9f be 9b de bb bc 08 87 10 bf
       1.4523537 -0.3107238 -0.022933295 -0.5645604
0000b0 e5 e6 db bd 65 39 e4 bb 24 aa 84 3d 56 b7 2d bc
       -0.10737399 -0.00696485 0.06477764 -0.010602793
0000c0 a9 2a 2f 3d 84 ee 63 3d d0 d3 bc be 61 5e d9 bd
       0.042765293 0.055647388 -0.3688035 -0.106137045
0000d0 cd 2a 24 3d a2 10 7e be 2e 71 07 bf 4e a0 ab bd
       0.04007988 -0.24811032 -0.52907073 -0.08380185
0000e0 73 58 74 bc 3b 96 a8 3e 5a 04 59 bd 8b dc 57 3d
       -0.014913666 0.32927117 -0.052982666 0.05270056
0000f0 c0 36 90 3c bf a8 bb 3e 75 c5 72 be 22 f8 3d bd
       0.017604232 0.3665218 -0.23708136 -0.046379216
000100 42 3c 05 3f bf 62 81 bd f6 bd bd 3d 0f 6c 8f 3d
       0.5204507 -0.063176624 0.09264748 0.070030324
000110 7a 90 0e bd 58 b4 d0 3f 1e e0 d5 bf c8 11 a3 bd
       -0.034805752 1.6305037 -1.670902 -0.07962376
000120 ae 33 42 3e c7 dd c0 3d c6 f1 5e bf 0a f4 21 be
       0.18965027 0.09417301 -0.87087667 -0.1581575
000130 64 c7 8c be 41 f3 b0 3d 80 af 82 be 85 57 a7 3d
       -0.27495873 0.08640147 -0.2552452 0.0817099
000140 c9 14 56 3e d7 29 93 3f d7 74 60 be 97 ea 89 3e
       0.20906366 1.1497144 -0.21919571 0.2693679
000150 c2 87 ab be 66 c5 41 3f bb 43 8f bf 14 9e 9c be
       -0.33502012 0.7569183 -1.1192545 -0.30589354
000160 c0 8a 88 3e 01 c5 ce 3e 29 40 8c 3e e8 11 94 bd
       0.26668358 0.40384677 0.273927 -0.07229978
000170 63 9f fe bd c4 bb 2e bf b5 b0 41 3f 2c 42 92 3d
       -0.12432744 -0.6825526 0.7566026 0.071415275
000180 65 6c f7 3b f7 76 bf 3e c7 58 55 be 99 5a 58 3d
       0.0075507634 0.3739545 -0.20834647 0.052820776
000190 9e db c2 be a2 e0 8a 3d 33 72 a6 bd 19 fa ab 3f
       -0.3805818 0.067811266 -0.081272505 1.3435699
0001a0 10 d7 bf bd 41 fa 69 bf 54 f2 c2 bd a4 fb a8 3e
       -0.09367192 -0.9139748 -0.09518877 0.33004487
0001b0 ec 89 5d bd d4 9d 00 3e d1 e6 7d 3f a2 b3 be be
       -0.05408661 0.12560207 0.9918032 -0.37246424
0001c0 e4 61 d6 3d e6 f8 5e 3e cb 8a 7f bc 6c fd a7 bf
       0.1046789 0.21774635 -0.015597056 -1.3124213
0001d0 0e 42 4d 3e ea 1f f4 bd ef 06 04 3e 98 b1 27 3e
       0.20044729 -0.119201496 0.1289327 0.1637634
0001e0 61 46 c0 bf eb 98 2b 3e 56 df df bc b2 44 b2 bc
       -1.5021478 0.16757552 -0.027328175 -0.021761272
0001f0 3e e2 03 be dc 66 a0 3d c7 a3 7e be b1 4a e7 be
       -0.12879273 0.07832119 -0.24867164 -0.45174173
000200 0d d6 9e bd 7e 49 72 be a3 f5 b7 3f 4f 71 c3 be
       -0.07755671 -0.23660848 1.4371837 -0.38172385
000210 77 8d b6 3e 98 62 05 bd bd 64 9d 3e 9f 73 ae 3e
       0.35654804 -0.03256473 0.3074092 0.34072587
000220 e4 4b 8d 3e 02 da 0e 3e b8 a6 e2 be 02 06 01 3f
       0.27596962 0.13950351 -0.4426782 0.5039979
000230 91 f9 01 be 3c 79 96 be c2 6f b2 3e 59 cf 1a be
       -0.12692858 -0.2938937 0.3485089 -0.1511816
000240 c4 79 4c bf c9 c5 f2 3d 38 56 95 bd cf fd 91 3d
       -0.798733 0.11854131 -0.072918355 0.07128488
000250 2f 1f f7 bd c0 99 39 bd 60 10 56 3e a5 df 95 3d
       -0.12066495 -0.045312643 0.20904684 0.073180474
000260 72 fb ed 3d 4d 2c 28 3e 73 a5 4b 3f 0d cb bc 3f
       0.11620225 0.1642315 0.7954933 1.4749466
000270 29 66 04 3b fc 21 2d 3d c5 71 80 be a6 9f c1 bf
       0.0020202494 0.04226874 -0.250868 -1.5126846
000280 18 12 4c be 95 e9 df 3d 95 77 05 bd fa 76 33 bd
       -0.19928777 0.10933224 -0.032584745 -0.043814637
000290 63 a7 91 3e 24 26 99 3e 5e 33 7c be a0 33 22 bd
       0.28448018 0.2991191 -0.2462897 -0.039600015
0002a0 2d 76 20 be b9 c0 86 3f ad 2c 43 be 83 77 d3 bd
       -0.1567008 1.0527564 -0.19060011 -0.103255294
0002b0 8c 7e d4 bf 32 29 84 be 77 58 31 3e 1c 84 99 3e
       -1.6601119 -0.2581268 0.17318903 0.29983604
0002c0 a8 e4 8c bc 07 22 6f 3e 3c f4 b3 3d c1 27 1b bf
       -0.017198876 0.23352824 0.087868184 -0.60607535
0002d0 57 c7 0f bd bb 8d 1c 3e f7 7e 5b be 0d 6d 21 3f
       -0.035102215 0.15288441 -0.21435152 0.63057023
0002e0 ef d9 2a be 74 20 8a 3f 66 12 aa bc 84 50 8c be
       -0.16684698 1.0791154 -0.020760726 -0.2740518
0002f0 fa b7 02 be b1 c0 a6 3e 72 a5 8a be c0 6b bd 3d
       -0.12765494 0.32568887 -0.2707935 0.09249067
000300 75 57 80 3e d8 30 89 bf e4 01 c3 3d 1a 64 20 3d
       0.25066724 -1.0718031 0.09521845 0.039157964
000310 17 a5 c1 3f a5 14 03 3e 3c 4e ab bd 5b 82 5a be
       1.5128506 0.12800844 -0.083645314 -0.21338789
000320 96 e4 60 3d d4 fc 61 be 1b 0f 75 be 4f 0c 17 3f
       0.054905497 -0.22069103 -0.23931544 0.59003156
000330 ca 9a 99 3d 2b 7b a7 bd 78 b9 8d 3e 37 55 1c bf
       0.07500227 -0.08177789 0.27680564 -0.6106753
000340 9d 7f c8 3d 92 e7 8e bf 75 86 e3 bc 15 96 98 3e
       0.09789965 -1.116442 -0.027774075 0.29802004
000350 c5 b9 a1 3d d5 a8 70 be 72 46 7a 3e a6 65 80 be
       0.07896761 -0.23501904 0.24440935 -0.25077552
000360 a7 19 56 3f 48 71 b8 bd a7 71 19 3c 63 a1 91 3c
       0.8363289 -0.09005982 0.009365476 0.01777715
000370 d5 42 b2 3d 9a d1 16 3e 7e e9 ab bd 42 34 f4 bd
       0.087041534 0.14728394 -0.083941445 -0.1192403
000380 41 c8 3c be bd 2c d5 bd 96 f6 69 bf 5a 2f b5 bf
       -0.18435766 -0.10408924 -0.91391885 -1.4155076
000390 b7 8a b1 3d a4 45 d7 bc a2 f4 7e 3e 03 ef b7 3f
       0.08669036 -0.026278324 0.24898008 1.4369816
0003a0 e0 82 39 3e 19 78 76 3d 1a 3b 53 be 3b 9f a2 3d
       0.18116331 0.060173128 -0.20628014 0.07940527
0003b0 49 ae c0 be cd 0d 45 be 6e dc 60 3e 79 41 2f 3e
       -0.3763297 -0.19243546 0.21959087 0.1711482
0003c0 d8 3b b9 3f 50 74 19 be 9e 36 91 bc 6b 11 82 bd
       1.4471388 -0.14985776 -0.017726239 -0.063509785
0003d0 c7 83 4d 3e b7 3e ca bd 7d 82 93 3e 2e a7 f1 3e
       0.200698 -0.09875243 0.28810492 0.4719786
0003e0 12 4c 76 ba 3d 05 a9 3e 35 9a c9 bf 85 9b b8 3e
       -0.00093954906 0.3301181 -1.5750185 0.36056152
0003f0 ee 53 d1 be 2d 45 49 3a dc 53 4f be 94 82 d4 be
       -0.40884346 0.00076778495 -0.20246834 -0.41505873

output.bias f4 [16]
000000 64 64 a5 3d af 99 8c be 26 a1 26 bd 48 e2 fe 3d
       0.080757886 -0.27461 -0.040681027 0.124455035
000010 3e d7 27 be d5 ee 43 be 8b 3f 83 bd b0 ed 36 bd
       -0.16390702 -0.19134076 -0.06408604 -0.04466027
000020 da 72 ae bb 4a 0a e1 3c d3 de 57 3e 13 dc 4f 3d
       -0.00532375 0.027470727 0.21081094 0.05074699
000030 f1 22 10 be a0 71 76 bd d6 d4 32 3e 2c 22 c6 bd
       -0.14075829 -0.060166955 0.17464003 -0.096744865
