Hamming74/Result/Model/SLNN_modified_threshold0.05_cpu/SLNN_model_modified_hiddenlayer93_BER0.pth (torch, 11464 bytes, 4 tensors)

hidden.weight f4 [93, 7]
000000 69 36 48 be a6 8d 62 3e 60 8b 09 be f7 d5 fa be
       -0.19552006 0.22124347 -0.13432074 -0.48991367
000010 59 64 18 3e 17 ff cc be 4e a1 e6 be 60 ef 1d be
       0.1488203 -0.40038368 -0.4504494 -0.15423346
000020 b4 93 a9 3e fb d0 a7 3e 67 9a a1 be f4 98 67 be
       0.331205 0.32776627 -0.31563112 -0.2261694
000030 17 d1 90 3e df 9b f1 3e 6f 80 1b 3e 2b b0 41 be
       0.28284523 0.47189233 0.15185712 -0.18914859
000040 8e b3 e6 3d 20 18 c5 3e 5a e6 2d be 94 09 02 3f
       0.11264716 0.38494968 -0.16982403 0.50795865
000050 dd 36 d5 be 48 b6 b7 3e b5 34 51 3e 1c 36 c2 3e
       -0.4164342 0.35881257 0.20430262 0.37931907
000060 54 b7 82 3d 89 21 80 3d 99 29 1d 3e 89 6d 06 3f
       0.06382623 0.06256396 0.153479 0.5251089
000070 60 63 bf be f4 e8 ba 3e 2f 8e c1 3e 32 80 7b 3e
       -0.37380505 0.36505854 0.3780379 0.24560621
000080 90 73 67 bd b8 2a fc bb c2 1f 79 be 5c 86 eb 3d
       -0.056506693 -0.007695522 -0.24328521 0.115002364
000090 ed 5e 84 be 00 82 af bd 9b 7f 0d bd 40 00 4f be
       -0.25853673 -0.085697174 -0.034545522 -0.20214939
0000a0 b3 db a8 be 55 38 0a be 21 ed 9a 3d d4 b4 31 be
       -0.32980117 -0.13498051 0.0756476 -0.17354137
0000b0 90 42 30 be 3e 53 83 be 5a b5 fd be 02 6e 0e bd
       -0.17212892 -0.25649446 -0.49552423 -0.03477288
0000c0 0f 7a 27 be 1e 99 e4 3d ea 7e af bd 78 21 c0 bc
       -0.16355155 0.11162017 -0.08569129 -0.02345346
0000d0 cd 89 d2 3e 74 96 97 3e 35 2c c6 be f8 43 2f be
       0.4112076 0.29606974 -0.38705602 -0.17115772
0000e0 67 cc 86 3d 87 08 71 3e 5d dd 3a bc d5 12 15 be
       0.065819554 0.23538409 -0.011405316 -0.14557965
0000f0 fb 8a 1a be 92 5d c7 3e 35 77 71 be 6f 36 60 be
       -0.1509208 0.38938576 -0.2358063 -0.21895765
000100 85 b6 e2 3e b7 1b 7a bd 4a a7 50 3e 3c ba c4 3e
       0.44279876 -0.061061587 0.20376316 0.38423336
000110 99 5d 85 be a2 5c 85 be 2d e0 61 be d6 63 84 3e
       -0.26047972 -0.26047236 -0.22058173 0.2585742
000120 67 d1 23 3e f6 ec b9 be 7f 25 32 3d e6 aa 9d 3e
       0.1599785 -0.363136 0.04349279 0.30794448
000130 72 d1 37 3b 0e 45 9c 3e 87 35 92 be e4 9a cf 3e
       0.0028048423 0.30521435 -0.28556463 0.4054786
000140 50 25 8f 3e df 06 93 be 63 32 8c 3e 42 37 b2 be
       0.27958155 -0.2871618 0.27382192 -0.34807783
000150 08 cc 75 be 44 52 d1 be 96 a8 91 be e6 de 52 be
       -0.24003613 -0.40883076 -0.28448933 -0.20592842
000160 8a 4e a3 be f2 e9 22 be 35 a6 e2 bd 45 12 92 3e
       -0.31895858 -0.15909556 -0.11066858 0.28529564
000170 e4 c2 c3 3d 02 ed 01 bf c3 10 c1 be fc 5a 0f 3f
       0.09558657 -0.5075227 -0.377081 0.55998206
000180 4c 8e b3 3e 56 17 b2 be 4b f9 65 3e 1a 2c 1a bd
       0.350695 -0.3478343 0.22458379 -0.037639715
000190 4a fb c4 3e 9c 58 57 3d f4 49 a8 bd 0f 7c b3 be
       0.38472968 0.05257474 -0.082172304 -0.35055587
0001a0 62 fd ad be 34 55 ac be cd 93 b1 be 00 ca 0f be
       -0.33982378 -0.33658755 -0.34683076 -0.140419
0001b0 40 d0 6f 3e c4 b8 31 3e 5c 9d a5 bd 24 a1 c2 3d
       0.23419285 0.17355639 -0.080866545 0.095033914
0001c0 ab 09 a9 3d ff 41 82 be 2d 0a 5f 3d 35 5b f7 3d
       0.08253797 -0.25440976 0.054453064 0.12077943
0001d0 91 4d bd 3e 3a 34 3a 3e 7b 06 14 3e ce b3 49 bd
       0.3697324 0.18183985 0.14455597 -0.04924374
0001e0 47 c1 a2 bd cf 70 94 3c 90 f2 9f 3d 35 26 b0 be
       -0.07947021 0.018120198 0.07809937 -0.3440415
0001f0 40 8b 97 be 65 10 73 3e 5c 37 0a 3d 64 36 f0 bd
       -0.29598427 0.23736723 0.0337442 -0.11729124
000200 dc cc aa be 30 95 53 3e a1 1a 53 3e cd 2f b0 3e
       -0.3335942 0.2066238 0.20615627 0.3441147
000210 5b 73 8c 3e 45 ad 25 be 5d 5c f5 3e ae cb 34 be
       0.2743176 -0.16179378 0.4792203 -0.17655823
000220 44 d9 4f be 0d 0a 0b be 8d 29 8d bd 57 22 8a 3e
       -0.20297724 -0.13578053 -0.06892691 0.26979324
000230 89 70 e8 be b5 aa a9 be f6 82 9f 3e 6f 6e 00 bc
       -0.45398358 -0.33138052 0.31154603 -0.007838829
000240 e7 5f be 3d 25 5f ac be b1 1b 16 3d 75 26 12 3e
       0.09295636 -0.3366634 0.036647502 0.14272483
000250 09 91 86 3e ba 84 60 be 09 74 ae 3e d3 c6 7b be
       0.26282528 -0.21925631 0.34072903 -0.24587564
000260 74 a9 86 be c6 8f 97 3e f1 5d ec be 7e 9b 01 be
       -0.26301157 0.29601878 -0.46165422 -0.12656972
000270 71 82 e5 3e 4f 2f 62 be 3b 1b 9a be 35 7e 20 3e
       0.4482608 -0.2208836 -0.300989 0.15673144
000280 26 d6 7c 3e fd 36 f5 3e 03 6e 8c 3d 74 bd c1 be
       0.24691066 0.47893515 0.068569206 -0.37839854
000290 47 1b e2 3d 79 61 ab 3e d6 cd 40 be 7e 5c 94 be
       0.11040359 0.33472803 -0.1882852 -0.28976816
0002a0 a8 46 b8 3e 1e 52 d6 be 8f 83 57 be ee e8 c5 3e
       0.35991406 -0.41859525 -0.2104628 0.38654274
0002b0 6d fc 41 3e 01 ca 54 be 25 ea 00 bf 0b 0f b8 3e
       0.18943949 -0.20780183 -0.50357276 0.35948977
0002c0 e8 30 bd be 6a f9 32 bc b7 36 44 be bd ea 4c be
       -0.36951375 -0.010923723 -0.19161497 -0.2001142
0002d0 7d 68 6e be 45 f5 d3 3e 89 bf 48 3e 1a 1e 50 3e
       -0.23282047 0.41398063 0.19604315 0.20323983
0002e0 a0 68 b9 3e 40 db 05 bd d5 38 84 3e 04 21 84 3e
       0.36212635 -0.032679796 0.2582461 0.2580644
0002f0 96 c1 8e 3e b4 34 8b be f2 58 be ba e8 ff 36 be
       0.2788207 -0.27188647 -0.0014522357 -0.17871058
000300 90 77 b5 be 6f b7 c8 be 1e c6 b4 3d e2 db fd bd
       -0.3544278 -0.3920245 0.0882685 -0.12395455
000310 f3 97 aa 3d 8c cf b4 be a2 83 03 bf bf 0e 59 be
       0.08329763 -0.35314596 -0.5137273 -0.21197031
000320 86 4e b8 be c5 a1 d1 3e aa e7 8e 3e 9f a9 37 3d
       -0.3599741 0.40943733 0.2791112 0.044839498
000330 d7 d5 fd bd 23 46 cf 3d 9a 67 96 be 12 92 de 3d
       -0.12394302 0.101207994 -0.29375917 0.108677045
000340 b4 0b bb 3c b3 70 58 3e 3f 88 17 be 39 17 42 bd
       0.022832729 0.21136741 -0.14798068 -0.047385428
000350 cb 94 07 3e ec b2 b8 be 65 92 ce be d7 eb f3 3e
       0.13240354 -0.36074007 -0.40346065 0.4764087
000360 cb 42 c2 3d f3 90 df 3e 0e 18 8e be 0d d1 a8 be
       0.09485396 0.43665275 -0.27752727 -0.32971993
000370 00 ce 98 be 2f f0 94 3d eb 62 80 bd f2 92 3c 3e
       -0.29844666 0.07272374 -0.06268867 0.1841543
000380 cd 5e ae be 11 1a 0e be 5c 0a 8f 3d 6b 24 9a bd
       -0.34056702 -0.13877131 0.06984398 -0.075264774
000390 09 27 2b be 25 e9 ff bb e3 9e 3b be 54 ba fb 3e
       -0.1671411 -0.0078097754 -0.18322329 0.49165595
0003a0 6d 7b 8c 3d 4a e3 5f 3e 39 3a 6f 3e 58 dc 1b be
       0.06859479 0.21864048 0.23362054 -0.15220773
0003b0 87 21 20 3e 70 37 34 3e 1d de 60 be 53 b6 b8 3e
       0.1563779 0.17599273 -0.2195973 0.36076602
0003c0 87 89 26 be 92 ac 6d be 9b 0e 5c be 58 4f cb 3e
       -0.162634 -0.23210362 -0.21489947 0.39708972
0003d0 2b 13 99 3d bf 77 cd be ae 86 ba be 08 c5 ff be
       0.07474359 -0.40130422 -0.36430877 -0.4995501
0003e0 5c 52 0e 3e 71 14 92 be 69 cf 87 be 48 95 07 bf
       0.13898605 -0.2853122 -0.2652543 -0.5296216
0003f0 8a de 8e 3b b5 92 08 3e 8c f6 02 bd f1 fc af be
       0.004360025 0.13337214 -0.031973407 -0.34372666

hidden.bias f4 [93]
000000 d6 7f 4a 3e ae 93 d2 bd f8 02 99 bd e6 55 0c 3e
       0.19775328 -0.10282074 -0.07471269 0.13704643
000010 81 f4 1e bd 82 09 8a be 1d aa 18 bd 1b 88 23 3d
       -0.038807396 -0.2696038 -0.037271608 0.039924722
000020 03 1f 8d be 90 f5 e8 bd 00 92 d5 3c 09 0a 77 3c
       -0.27562723 -0.11374962 0.026070595 0.015078076
000030 22 46 91 be d0 67 de 3c f8 f5 dd bd 21 25 11 be
       -0.2837382 0.027149111 -0.108379304 -0.1417432
000040 da f1 96 3c 4d 08 5b 3c 45 b9 fe be 73 74 48 bd
       0.01842587 0.013368678 -0.49750724 -0.04893918
000050 36 99 02 bd 80 47 35 be eb c8 00 be 30 e9 01 3e
       -0.031884395 -0.17703056 -0.12576644 0.1268661
000060 57 d8 0f be db 6f 49 3d c0 3c f0 3d 2b 8a 44 3d
       -0.14047371 0.04917894 0.11730337 0.04798333
000070 69 b6 35 bd 08 e6 aa be 01 2b 0c bd 3a 46 36 b9
       -0.044363413 -0.33378625 -0.0342207 -0.00017383034
000080 a4 1a 07 bd 04 6a 84 bd 37 47 92 bd b9 18 86 be
       -0.03298439 -0.064655334 -0.071424894 -0.26190737
000090 ed 76 f2 3d 53 17 d3 3d 27 c6 16 be 46 b6 1c be
       0.118390895 0.10307183 -0.14724027 -0.15303907
0000a0 42 88 1b bd 32 02 b1 bd c2 aa d5 3c d0 a7 05 be
       -0.037971742 -0.08642997 0.0260824 -0.13052297
0000b0 90 71 0b bd a4 a5 c2 3d 72 e4 e4 bd 66 35 82 bd
       -0.03404385 0.0950425 -0.11176385 -0.06357841
0000c0 ab c9 40 3b 4a c7 fb bc 3f 73 e9 bd 3b d8 36 be
       0.0029417078 -0.030734677 -0.113989346 -0.17855923
0000d0 e9 43 80 3d a3 26 8e bd c5 cb 1a 3c 3b bc bc bd
       0.06262953 -0.06940963 0.0094479965 -0.092155896
0000e0 da 4f 82 be d9 35 e0 3c 9c 2b 86 bd c2 3b df 3d
       -0.25451547 0.027369427 -0.065512866 0.1090007
0000f0 5c ac b0 39 e6 ee fc bd b2 50 e6 bc 10 16 96 3d
       0.00033697754 -0.12350254 -0.02811465 0.07328427
000100 cc a4 5e 3b d1 d9 c2 3c 7e 66 33 3e c2 93 a9 bc
       0.0033972738 0.023785504 0.17519566 -0.02070034
000110 a7 d1 83 bd 82 d8 25 bd b9 eb 34 bd cf ba 80 3c
       -0.064364724 -0.04048968 -0.044170115 0.015714077
000120 3b 97 e7 3d 97 2f 3b be 03 b2 76 be 70 4f b0 be
       0.11308142 -0.18279873 -0.24091344 -0.34435606
000130 50 6d ab bd d9 7d f8 bc 71 ee a9 3d fe 1e 62 bd
       -0.08370459 -0.030333446 0.08297432 -0.055205338
000140 91 14 54 be 39 18 36 3d 56 39 2a be 9a 0c fe bd
       -0.2071097 0.044456694 -0.16623434 -0.12404747
000150 1c 3f bc bd 6b 86 4f be 88 26 89 bd 50 9a cc 3c
       -0.09191725 -0.2026612 -0.066968024 0.024975926
000160 ba 96 3c bd 9c ad 06 be ba df 15 be fc b7 9b 3d
       -0.04604218 -0.13152164 -0.14636126 0.076034516
000170 6d 2c 1a bd
       -0.037640024

output.weight f4 [16, 93]
000000 6e 45 03 3f d0 be 5c be 30 18 2b be af 94 3f bf
       0.51277816 -0.21557164 -0.16708446 -0.7483625
000010 b1 a9 3c be 06 94 27 3e 82 99 cc 3e 11 ca 35 bd
       -0.18424107 0.1636506 0.39960867 -0.04438216
000020 58 14 d8 bd 52 90 d6 bd 0d 20 ea bb 17 73 0b be
       -0.10550755 -0.10476746 -0.007144934 -0.13618122
000030 76 c8 de 3e 0b 2f 76 3c 64 84 00 3c 9b 09 19 3e
       0.43512315 0.015025864 0.007844064 0.1494507
000040 67 cb a4 be 52 dd 4e 3e 79 de e6 bd 07 7b 45 3d
       -0.32186434 0.20201614 -0.11272902 0.04821303
000050 64 6c 5f 3e f7 ea f9 bd 5c 64 10 bc f8 6c 0f bc
       0.21818691 -0.12203019 -0.00881299 -0.0087540075
000060 66 6e 04 3e 04 8f 01 3e 5c 2b 17 bf 4e 0c c7 3e
       0.12932739 0.12652212 -0.59050536 0.38876575
000070 a5 bd 12 3e 98 09 94 3c 70 97 93 3d af 88 12 3e
       0.14330156 0.01807098 0.07206619 0.14309953
000080 e6 7d 6f 3e 2c 55 c3 be 52 fe 9a bd 79 35 31 3f
       0.2338787 -0.38150918 -0.07568039 0.6922222
000090 91 7f 7d 3e 78 cb 18 3e 4a f0 4d 3e e1 15 c9 3b
       0.24755694 0.14921367 0.20111194 0.0061366414
0000a0 ca 8a 43 3d fe b9 c0 3d dd ed 3f bd af 7f b7 3d
       0.04773978 0.09410475 -0.046857703 0.089599006
0000b0 61 6a a4 3d 44 99 f3 bd 12 59 d9 be 91 1a cd be
       0.08028103 -0.118944675 -0.42450768 -0.4005933
0000c0 57 27 9d bd 26 60 0d 3e cf bf aa 3e eb c5 4a be
       -0.07673519 0.13806209 0.33349463 -0.19802062
0000d0 9a 8a 5e 3e 5c c5 1a bc f5 52 61 3d 72 a5 bf 3d
       0.2173256 -0.009446468 0.055010755 0.09357728
0000e0 92 7f 13 be 77 ed 4b be b3 5f 10 3e 6c fb 63 3c
       -0.14404133 -0.19914804 0.14099006 0.013914924
0000f0 38 e7 a1 bc 0a f2 d5 be ce 27 6b bc 81 15 82 3e
       -0.019763574 -0.41786224 -0.014352752 0.2540703
000100 62 b0 b6 be fb 76 aa 3d 9d 73 c5 3c 07 c0 bc 3e
       -0.35681444 0.08323475 0.02410298 0.36865255
000110 fc f5 02 be ae 03 a5 bd 63 d3 99 bd 6b ac 6a 3c
       -0.12789148 -0.080573425 -0.07511022 0.014323334
000120 c7 70 cc 3d e1 bb a8 3d 76 5f 8c 3d c6 f6 79 bd
       0.09982448 0.0823896 0.06854145 -0.061026357
000130 d1 5d 05 3d 1e 36 bc bc d2 dd a5 bd 8b ed 0c be
       0.032560173 -0.022975024 -0.080989495 -0.1376249
000140 62 11 97 be 96 ca a2 bd 1e 74 bd be 12 84 a0 bd
       -0.2950545 -0.079487965 -0.37002653 -0.078376904
000150 e3 7c 9a 3e ba 52 09 3e 9b a1 4c bc 22 c6 5c be
       0.30173406 0.13410464 -0.012489702 -0.21559957
000160 ef e1 40 3f e7 bf 19 bf 8f e8 1b 3e 69 60 37 bf
       0.7534475 -0.60058445 0.15225433 -0.71631485
000170 80 d1 10 be bf e6 87 be 7a 68 4f 3c 15 3f fb bd
       -0.14142418 -0.26543233 0.0126591865 -0.12267891
000180 20 ba 35 3e 55 06 ae bd 62 d8 fe 3d 0c ad 00 3d
       0.17746782 -0.084973015 0.124436155 0.03141503
000190 f3 25 19 3e 7d c5 07 be 73 fc ca 3c 24 cd b5 be
       0.14955883 -0.1325893 0.02477858 -0.35508072
0001a0 1e 21 25 be 35 8e 9d 3c 25 f2 8e be 9e 9f a1 bc
       -0.16125914 0.019232849 -0.27919117 -0.019729432
0001b0 1a d4 e4 bd f2 2e 0b be df ba 85 3e a8 6a b1 3d
       -0.11173268 -0.13592127 0.26119134 0.08662921
0001c0 01 fa a4 3e e0 2a c0 be 0b 4c 06 3f 24 db 96 be
       0.32221988 -0.3753271 0.5245978 -0.29464066
0001d0 a6 74 9e 3e 64 40 c4 3d 68 4a a3 3e bf 2a a6 bd
       0.3094837 0.09582594 0.31892705 -0.08113622
0001e0 8d 5e 9a bd b8 c5 b1 3d 8a de f9 bd a3 3a 60 be
       -0.075375654 0.0868029 -0.12200649 -0.21897368
0001f0 3d b2 1c 3e 99 bd 64 be 5d 89 8a 3e cb 8c 1c bd
       0.15302368 -0.22337951 0.27057925 -0.03822021
000200 9b d1 dd bc 07 49 26 3e 6a 49 3c 3e 19 3d b7 3b
       -0.027077487 0.16238795 0.1838738 0.005592
000210 81 ea 09 3e 1e 44 a0 be d0 b9 ca 3d 65 a4 16 bf
       0.13468362 -0.3130197 0.09898722 -0.58844596
000220 59 f7 10 bf b1 02 5c 3e a2 b9 d2 bc 09 b2 1a 3e
       -0.5662742 0.21485402 -0.025723282 0.15106978
000230 1a fd d7 3d 9a 25 39 bf 8e ee a3 be cd 82 73 be
       0.10546322 -0.72323 -0.3201794 -0.23780365
000240 5a bd 63 be c4 92 bf be 69 6f 0d 3e 4e 11 e1 3d
       -0.222402 -0.3741666 0.13812031 0.10989629
000250 03 58 80 be 1f c7 96 bd fc dc c5 3e 42 9a 96 3d
       -0.25067148 -0.07362198 0.3864516 0.07353641
000260 d7 a0 c9 bd 2e 70 65 be f0 c1 2f be e3 20 17 3e
       -0.09845131 -0.22406074 -0.17163825 0.14758639
000270 9f 0e 10 3e 78 25 42 bd db 33 e8 3c 43 02 f6 bc
       0.14068078 -0.047399014 0.02834504 -0.030030375
000280 15 6b 61 be ce f9 82 be 1b 11 46 3f fa 89 c5 3e
       -0.22013505 -0.2558121 0.7736985 0.3858183
000290 a0 68 f8 bb e8 08 27 be 76 dd 25 3d 20 fa 1d 3c
       -0.0075808316 -0.16311991 0.040494405 0.009642154
0002a0 9f e2 51 3e 46 40 93 bd b4 0e 92 be 5d 60 67 3b
       0.20496605 -0.071899936 -0.28526843 0.003530524
0002b0 4b cb bd bd 10 d4 49 3e 77 52 2e 3f ae e7 d6 bd
       -0.09267291 0.19709802 0.6809458 -0.10493408
0002c0 3a 4d ec bd 3b 90 16 3e 62 26 6f bd 5a 69 b0 3d
       -0.11538167 0.14703457 -0.058386214 0.08613844
0002d0 b6 4b a6 3e 1b ca 94 bd 44 df 7e 3e f5 1f b9 3e
       0.32479638 -0.07265111 0.24889857 0.36157194
0002e0 39 5a f5 3d c2 d2 0d 3e 39 e4 3b 3d 9f d2 5b bd
       0.11980099 0.13849929 0.045871947 -0.05366766
0002f0 44 df e0 3e 62 dc 8c be 64 30 a9 3e 87 94 64 be
       0.43920338 -0.2751189 0.33044732 -0.22322284
000300 5b de 99 3d 5d 5c 61 be 6d f5 64 3e 58 5d 2b 3e
       0.07513114 -0.2200789 0.22359248 0.16734827
000310 07 7b 06 3e 81 6d 79 3d 19 fe 17 be bd 4e e9 3a
       0.13132869 0.060895447 -0.14843024 0.0017799955
000320 cf 1c 3f be 88 2b f5 bb 2f a2 3e be 82 8a 05 be
       -0.18663333 -0.007481996 -0.18616556 -0.13041118
000330 63 ce 8a 3b 89 04 de 3d 8a 7f 67 be db 77 b3 3d
       0.004236029 0.10840709 -0.22607246 0.08763095
000340 23 33 3a 3c 86 37 9c 3d 4a 1e 45 bc fe 3f fc be
       0.011364731 0.07627778 -0.012031147 -0.49267572
000350 c1 0f 8d be f3 fc 96 3e 87 49 18 3e 76 1a f8 bd
       -0.27551082 0.2948986 0.14871798 -0.12114422
000360 96 7f f5 3d d7 93 d7 be 1c 17 40 3e 5b 07 08 be
       0.11987226 -0.4210498 0.18758816 -0.13284056
000370 4e df b6 3e d9 62 c8 3e e6 a7 78 be 7c 0a 30 3e
       0.35717243 0.39137915 -0.24282798 0.171915
000380 e0 62 05 bd 06 4d ce 3e 01 ef b2 bd e7 fc a3 be
       -0.032564998 0.4029314 -0.087369926 -0.32028887
000390 bc c2 2a 3e 59 5c ad bd d7 84 19 3f 8f 4c ea 3a
       0.16675848 -0.084648795 0.5996832 0.00178756
0003a0 67 f2 39 be 8c 12 6d bd 9e dd ef be 4f 16 c8 3c
       -0.18158875 -0.057879016 -0.46848768 0.0244247
0003b0 5c dd 71 bc de c0 77 be bf 8f 11 3e 16 62 06 3e
       -0.014762249 -0.24194667 0.14214991 0.13123354
0003c0 fa 4d 92 be e8 a6 ed bd d9 a1 5f be 09 07 53 be
       -0.28575116 -0.116041005 -0.21839084 -0.20608152
0003d0 e3 c5 21 be 42 bf fa be a3 5c e8 bd 2f 63 47 bc
       -0.15798144 -0.48974043 -0.11345794 -0.012169643
0003e0 e5 d9 dd 3e eb b7 91 3d 15 76 bc bd bf 38 3a 3f
       0.43330303 0.07115158 -0.0920221 0.7274284
0003f0 a6 ac 86 3e 9a f7 33 3d e1 ef 1e 3f 54 2f 40 bd
       0.26303595 0.043937303 0.62084776 -0.046920136

output.bias f4 [16]
000000 71 ba bb 3d 5d 18 8b bc 5f 0b 8b bd 3d 94 5a bc
       0.0916642 -0.01697939 -0.06789278 -0.013341007
000010 f0 32 8e 3d b6 2a 24 bd 5a 58 24 be c2 1e bc 3d
       0.06943309 -0.040079795 -0.16049328 0.09185554
000020 e7 80 83 bd 82 5f 96 3d 1a e5 dc 3d e2 a4 44 3b
       -0.064210705 0.073424354 0.10785885 0.0030005504
000030 c4 d4 b2 bb f6 6c fb 3c 16 10 01 3e f7 95 7b 3d
       -0.0054574925 0.030691605 0.12603793 0.061422314
