Hamming74/Result/Model/SLNN_modified_threshold0.05_cpu/SLNN_model_modified_hiddenlayer74_BER0.pth (torch, 9608 bytes, 4 tensors)

hidden.weight f4 [74, 7]
0.1860098 -0.20236625 0.51601654 0.34708762 -0.4520645 0.44906434 -0.5483586 0.21643022
-0.2616832 -0.151993 0.3912612 0.3973238 0.067285836 0.3254416 -0.28948885 -0.3496358
0.069426164 -0.5230684 0.27497303 0.2829157 -0.27348688 0.34349635 0.13949174 -0.4879404
-0.46524933 0.15819724 0.099904545 -0.36494413 -0.24628049 -0.19436112 -0.3261148 0.24970105
0.05859945 0.41661233 0.29401493 -0.27307513 -0.2050509 -0.3532388 -0.23117799 0.45177862
-0.29225704 0.16091293 -0.108325295 0.061858226 0.3467518 -0.367826 0.057670396 -0.12089011
0.40674952 -0.39659917 -0.16372395 0.46434018 0.47776505 -0.14840822 -0.09206489 0.38619536
0.15941115 -0.107913464 0.31306806 -0.30560413 -0.11080149 -0.39444393 -0.3706763 0.34004313
-0.4134317 -0.41668293 -0.16796988 -0.09254135 0.28490958 -0.22314176 -0.46008316 0.14188136
-0.07313152 -0.3657206 -0.33398455 0.1922983 -0.033285692 -0.07990998 -0.041060407 -0.28273976
-0.30965152 0.18791094 -0.21513082 -0.4329158 -0.5140157 0.36296168 0.10081885 0.24569324
0.18183818 -0.43393105 0.13949445 0.32188118 -0.20523621 -0.37983328 -0.32014352 -0.41388732
0.3617913 0.40443885 0.32562956 0.06640968 -0.21249446 0.1419702 -0.17433803 0.00864574
0.18048082 -0.4259351 -0.19268252 -0.23805311 -0.23505881 -0.42432877 -0.44705355 0.450884
0.24149317 0.23956466 -0.4265027 -0.16734646 -0.0017780854 -0.095154315 -0.24938852 -0.38507316
0.37314782 -0.41647947 0.36032668 0.061574817 0.06689555 0.2057974 -0.09514845 0.3044001
0.39178392 -0.20333251 -0.43973747 0.21381238 -0.0047143083 -0.4340245 0.110396475 -0.23028624
0.2774163 0.3602632 0.4799154 0.043952916 -0.27207556 -0.43233415 0.16383508 0.17444041
0.16094495 0.22965749 0.019119209 -0.272006 0.44692743 0.4712596 0.071800396 0.19606842
-0.25544524 0.21606475 -0.44750386 0.21905687 0.5770302 0.32054085 0.49835342 -0.37813666
-0.5065889 -0.40570253 0.104523405 0.032811373 0.104641706 -0.20241421 0.14070101 -0.3942886
0.14574398 0.04909637 0.28924042 0.33863264 -0.16753207 0.20897159 0.35660383 0.3556286
-0.08420526 0.27628008 -0.080213584 0.45234522 0.004246705 0.35802123 0.4979878 0.4991424
0.08781508 0.42920446 0.5495703 0.42183164 0.35025093 -0.22272949 -0.40243956 0.2548089
0.09909652 -0.34631172 -0.21549545 0.4466546 0.3516349 -0.47684115 0.44924033 -0.4037312
0.023217868 -0.18428358 -0.03666863 -0.36334038 0.16975349 -0.3798065 0.32334024 -0.32852745
0.31190297 -0.13009559 0.14514154 0.04546749 -0.22466968 -0.12393445 -0.40533778 0.017166117
0.32451743 0.42127198 -0.044762664 0.3880123 -0.30716753 -0.26128176 -0.4269998 0.1728495
0.23264042 -0.45977426 -0.29489198 0.29392678 0.020225026 -0.16903882 -0.39680055 -0.34144527
0.36091277 0.11077653 0.28192642 0.12457868 0.015782775 -0.38126865 0.54367447 0.5260815
-0.13514398 -0.08672446 -0.29921895 -0.54988617 -0.19832039 0.055186275 0.22793002 -0.33088988
0.24939366 -0.16302997 6.3605155e-05 0.39645016 0.37743452 0.152221 0.10166607 0.22180495
00000000: 5a79 3e3e 1939 4fbe a919 043f 78b5 b13e
00000010: 0075 e7be c3eb e53e 3b61 0cbf e29f 5d3e
00000020: 57fb 85be 0ea4 1bbe 6353 c83e 066e cb3e
00000030: 28cd 893d 48a0 a63e e237 94be 7703 b3be
00000040: 4e2f 8e3d d0e7 05bf 44c9 8c3e 54da 903e
00000050: 7906 8cbe c1de af3e ecd6 0e3e 53d3 f9be
00000060: 2935 eebe 75fe 213e c19a cc3d f5d9 babe
00000070: f430 7cbe 9a06 47be 85f8 a6be a2b1 7f3e
00000080: fa05 703d 364e d53e 2089 963e 81d0 8bbe
00000090: ddf8 51be b7db b4be ecb9 6cbe 874f e73e
000000a0: b7a2 95be 5cc6 243e a7d9 ddbd 0d5f 7d3d
000000b0: 7489 b13e b153 bcbe cb37 6c3d 3c95 f7bd
000000c0: 7941 d03e 0c0f cbbe 40a7 27be ffbd ed3e
000000d0: 9f9d f43e 53f8 17be 848c bcbd 66bb c53e
000000e0: ad3c 233e bc01 ddbd 754a a03e 2578 9cbe
000000f0: e4eb e2bd 8ef4 c9be 49c9 bdbe 221a ae3e
00000100: 52ad d3be 7757 d5be 4c00 2cbe 5286 bdbd
00000110: abdf 913e 467f 64be 0590 ebbe 5949 113e
00000120: fac5 95bd bb3f bbbe 0600 abbe d8e9 443e
00000130: 9456 08bd d8a7 a3bd f52e 28bd 44c3 90be
00000140: a58a 9ebe ba6b 403e 414b 5cbe 24a7 ddbe
00000150: 8896 03bf 1dd6 b93e 1d7a ce3d 0297 7b3e
00000160: ca33 3a3e 362c debe a2d7 0e3e 9ccd a43e
00000170: 7129 52be 8279 c2be dae9 a3be 0ae9 d3be
00000180: b63c b93e 9c12 cf3e ebb8 a63e cc01 883d
00000190: 2698 59be a360 113e ab85 32be dda6 0d3c
000001a0: f7cf 383e 2a14 dabe 914e 45be 32c4 73be
000001b0: 42b3 70be 9f41 d9be 34e4 e4be 45da e63e
000001c0: fc49 773e 7050 753e 905e dabe df5c 2bbe
000001d0: a50e e9ba 44e0 c2bd b45f 7fbe 4f28 c5be
000001e0: 3b0d bf3e cc3c d5be bd7c b83e e035 7c3d
000001f0: 8900 893d 8ebc 523e 31dd c2bd 54da 9b3e
00000200: e797 c83e 6636 50be 4525 e1be a2f1 5a3e
00000210: 7c7a 9abb 7638 debe 8c17 e23d 28d0 6bbe
00000220: 8209 8e3e 6b74 b83e 79b7 f53e f907 343d
00000230: 7d4d 8bbe e75a ddbe 62c4 273e 82a0 323e
00000240: c1ce 243e 552b 6b3e e39f 9c3c 5f44 8bbe
00000250: acd3 e43e f048 f13e 160c 933d 29c6 483e
00000260: b8c9 82be 1440 5d3e 3a1f e5be 7250 603e
00000270: 40b8 133f ee1d a43e 2e28 ff3e 219b c1be
00000280: cfaf 01bf 3eb8 cfbe 5e10 d63d 3865 063d
00000290: 644e d63d ac45 4fbe ed13 103e 32e0 c9be
000002a0: e93d 153e 4619 493d 5217 943e 4261 ad3e
000002b0: 878d 2bbe a6fc 553e c794 b63e f414 b63e
000002c0: cf73 acbd 9574 8d3e 0547 a4bd cb99 e73e
000002d0: f227 8b3b 8f4e b73e 42f8 fe3e 988f ff3e
000002e0: 65d8 b33d b0c0 db3e a4b0 0c3f 51fa d73e
000002f0: 1754 b33e 3313 64be 8f0c cebe 5076 823e
00000300: 1ef3 ca3d c54f b1be d7aa 5cbe e9af e43e
00000310: 7d09 b43e 8624 f4be d402 e63e dbb5 cebe
00000320: 6633 be3c d6b4 3cbe d831 16bd c007 babe
00000330: dcd3 2d3e ff75 c2be da8c a53e c034 a8be
00000340: bfb1 9f3e c737 05be fc9f 143e 1e3c 3a3d
00000350: cf0f 66be 58d1 fdbd 6f88 cfbe f59f 8c3c
00000360: 2627 a63e f6b0 d73e 0e59 37bd 8ca9 c63e
00000370: 1045 9dbe b9c6 85be b89f dabe 76ff 303e
00000380: 4a39 6e3e 8867 ebbe 15fc 96be 927d 963e
00000390: f4ae a53c 8318 2dbe 7129 cbbe ead1 aebe
000003a0: 8fc9 b83e cede e23d a958 903e 1b23 ff3d
000003b0: e14a 813c a535 c3be 402e 0b3f 47ad 063f
000003c0: 2f63 0abe 989c b1bd 3a33 99be 57c5 0cbf
000003d0: 8014 4bbe 010b 623d 7d66 693e 666a a9be
000003e0: 0d61 7f3e 54f1 26be c263 8538 84fb ca3e
000003f0: 193f c13e d2df 1b3e 4d36 d03d d620 633e

hidden.bias f4 [74]
0.0016937185 0.11657078 0.121872485 -0.292483 0.23491529 0.06294715 0.28641704 0.27993676
0.018841859 0.23237762 -0.024240794 0.04843148 0.0074839923 -0.03677209 0.14549825 -0.068749174
-0.06885295 -0.034394585 -0.070275076 -0.08593002 0.07991484 -0.25519633 -0.14819299 0.07029221
0.03567898 -0.0013671383 -0.10280675 -0.26906776 -0.010035597 -0.43815914 0.13022842 0.17758544
0.12972644 0.13540019 0.1307695 0.00678986 0.13367698 -0.10982694 -0.04518042 -0.09039303
-0.123392716 0.098140314 -0.14367098 0.080832526 0.20797431 -0.19085577 0.011650745 -0.09909981
0.14354965 -0.24556108 0.17869493 -0.08650254 -0.30012572 0.0796166 0.13133131 -0.15545227
-0.17707849 -0.30573618 -0.2904564 -0.2835611 -0.13319515 -0.08717331 0.061568905 -0.006639474
0.02627304 -0.001548143 0.02710325 0.02233431 0.15917012 0.20170206 0.039200604 0.07953498
-0.17183638 0.010095265
00000000: c3ff dd3a a9bc ee3d 4898 f93d 55c0 95be
00000010: a28d 703e 6fea 803d 41a5 923e df53 8f3e
00000020: 3e5a 9a3c 66f4 6d3e a194 c6bc 1660 463d
00000030: 473c f53b 559e 16bd 7efd 143e 5ecc 8cbd
00000040: c702 8dbd 56e1 0cbd 61ec 8fbd 14fc afbd
00000050: 64aa a33d 18a9 82be e7bf 17be 5df5 8f3d
00000060: 1f24 123d 8d31 b3ba 588c d2bd 40c3 89be
00000070: 586c 24bc 6556 e0be 995a 053e f5d8 353e
00000080: 02d7 043e 59a6 0a3e 71e8 053e 797d de3b
00000090: 9ee2 083e f2ec e0bd 1b0f 39bd fb1f b9bd
000000a0: 52b5 fcbd cafd c83d 7c1e 13be 868b a53d
000000b0: 38f7 543e b26f 43be c4e2 3e3c d7f4 cabd
000000c0: aefe 123e 5d74 7bbe cefb 363e 3e28 b1bd
000000d0: 14aa 99be 070e a33d b77b 063e e12e 1fbe
000000e0: 1054 35be 7489 9cbe b4b6 94be ec2e 91be
000000f0: 4f64 08be ec87 b2bd ad2f 7c3d f28f d9bb
00000100: 8f3a d73c 0feb caba a307 de3c 71f6 b63c
00000110: 7efd 223e fc8a 4e3e d090 203d 3ce3 a23d
00000120: e0f5 2fbe 9c66 253c

output.weight f4 [16, 74]
-0.13708617 -0.35510457 0.21440575 0.16489272 0.041607533 0.3522084 -0.09089681 -0.22384375
0.22962062 0.15935034 0.22234437 0.4402891 -0.053230606 -0.0026669318 -0.094322704 0.48578382
0.19471793 -0.098588414 -0.1383683 -0.25834557 0.01021053 -0.22100788 -0.1009056 0.20601362
-0.35841233 -0.27456734 -0.5584032 0.12118454 0.10353964 0.013188541 0.022689197 0.08919942
0.1983286 -0.1481605 0.11708629 -0.1187349 -0.3149387 -0.18775527 -0.2267785 0.83741325
-0.20122683 -0.09084545 0.055401392 -0.090250164 -0.26684567 -0.045642637 0.07713174 -0.025584951
0.698967 -0.23854434 -0.108558945 0.32177472 0.023317339 0.08660469 -0.23878491 -0.023300525
-0.037752654 -0.058339477 0.03940912 -0.019847773 -0.3000667 0.054941285 -0.38122228 -0.15566687
0.043411154 0.5596228 -0.05074211 0.096544854 -0.37483466 -0.074901134 0.03264193 -0.024525175
0.26928836 0.033403452 -0.25988823 0.18189323 -0.61858594 -0.025183413 0.047052346 -0.13338654
-0.057047825 -0.08516458 -0.22118388 -0.06960469 -0.33950007 -0.28331354 0.10883772 0.22306927
0.38416326 0.29832622 0.14228143 0.3726588 -0.03078091 -0.29658833 -0.30409393 -0.020769851
-0.33037916 -0.12206951 0.107077844 -0.06812681 0.19685328 0.016010325 -0.3154087 0.012185767
0.44967693 0.11367425 0.028365958 -0.12041053 0.7050065 0.499096 0.37110415 -0.3612105
-0.0193422 -0.14219947 0.16397798 0.0055276076 -0.064006366 0.035476793 -0.11068311 -0.19695687
0.59937084 -0.06326478 0.05404149 0.7167063 -0.012703458 0.01653667 0.32064316 -0.46293923
-0.23763674 0.014194831 -0.54981935 0.0037923763 -0.14629017 -0.15994902 -0.014779988 0.058782186
-0.31854793 -0.010776198 -0.17302316 -0.25944245 0.023393463 0.26096728 -0.1090493 0.105535075
-0.07517204 -0.2804828 0.027228132 0.25609845 0.2824234 -0.24836856 -0.11081452 0.020076336
0.28703335 -0.25263816 -0.4887988 0.014953773 -0.2823047 -0.0031839272 0.17469041 -0.008173741
-0.04177381 0.038828038 0.0105849905 -0.115300685 0.15687118 0.4187313 0.07770837 0.32190442
-0.076310046 -0.100159004 -0.09848682 0.52400255 -0.08191899 -0.45415065 0.0017580276 -0.23966262
-0.49637443 0.5752047 -0.005621641 -0.5698662 -0.00099274 0.4645341 0.019244384 0.16171643
-0.2116585 -0.18558633 -0.040103078 -0.03284808 0.26626214 -0.29708344 -0.008026826 -0.035020996
0.14377438 -0.17997777 0.3799071 0.38735923 0.5347818 0.16635555 0.63787514 0.009378328
-0.018439747 -0.19227387 -0.29122165 -0.16951892 -0.068825744 -0.09626406 0.072149664 -0.11965699
0.012617292 -0.3449478 0.044912178 0.09328397 -0.16867718 0.054836303 -0.20873074 0.16433595
-0.12787434 -0.06777739 0.14556403 -0.32011467 0.25413018 -0.2895613 -0.069434375 0.08345575
0.12988904 0.26927307 0.20332515 -0.041256733 -0.044855878 -0.35210514 -0.16450231 0.5769453
0.0969399 -0.12939821 -0.53084934 0.8250592 0.3298205 0.2802172 -0.060538772 -0.14085065
-0.123826705 -0.13042769 -0.06486908 -0.32102826 -0.4943586 -0.27309927 -0.02641436 -0.023955109
-0.13055052 0.1299902 0.11505702 -0.025723668 0.51677656 0.1866219 -0.05590667 -0.47044724
00000000: 5160 0cbe 44d0 b5be 2e8d 5b3e a3d9 283e
00000010: a96c 2a3d a954 b43e 1b28 babd 4c37 65be
00000020: ab21 6b3e bc2c 233e 3eae 633e 936d e13e
00000030: 5608 5abd b1c7 2ebb 432c c1bd a8b8 f83e
00000040: 2364 473e b9e8 c9bd 6bb0 0dbe df45 84be
00000050: 114a 273c e44f 62be 98a7 cebd 3cf5 523e
00000060: d281 b7be 1794 8cbe 83f3 0ebf 9a2f f83d
00000070: 970c d43d c014 583c b2de b93c 2fae b63d
00000080: a716 4b3e 63b7 17be f0ca ef3d 492b f3bd
00000090: a53f a1be eb42 40be a038 68be b760 563f
000000a0: 680e 4ebe 2e0d babd 92ec 623d 14d5 b8bd
000000b0: ff9f 88be c6f3 3abd 3ff7 9d3d 8897 d1bc
000000c0: 80ef 323f f844 74be 2754 debd a8bf a43e
000000d0: 0104 bf3c cd5d b13d 0884 74be bee0 bebc
000000e0: 87a2 1abd 60f5 6ebd 756b 213d cc97 a2bc
000000f0: 58a2 99be 1d0a 613d 912f c3be 2367 1fbe
00000100: e5cf 313d 7143 0f3f f5d6 4fbd 4fb9 c53d
00000110: 54ea bfbe c465 99bd 8bb3 053d 05e9 c8bc
00000120: 2ae0 893e 0fd2 083d 1210 85be 3842 3a3e
00000130: a65b 1ebf 724d cebc f6b9 403d 7b96 08be
00000140: fbaa 69bd c46a aebd 077e 62be e78c 8ebd
00000150: f4d2 adbe 790e 91be 4fe6 de3d 456c 643e
00000160: 0cb1 c43e 37be 983e 39b2 113e 22cd be3e
00000170: 3f28 fcbc 6dda 97be 33b2 9bbe 8925 aabc
00000180: 7527 a9be 94ff f9bd a14b db3d 1286 8bbd
00000190: e893 493e 1628 833c 407d a1be d0a6 473c
000001a0: 0e3c e63e 0cce e83d ba5f e83c cc99 f6bd
000001b0: 4e7b 343f 8389 ff3e 5d01 be3e 95f0 b8be
000001c0: 8973 9ebc bd9c 11be d8e9 273e ef20 b53b
000001d0: c515 83bd 1d50 113d d4ad e2bd 10af 49be
000001e0: 5e70 193f f790 81bd 9c5a 5d3d 107a 373f
000001f0: 2a22 50bc e977 873c 572b a43e 5f06 edbe
00000200: 0c57 73be 7091 683c f6c0 0cbf 8489 783b
00000210: 17cd 15be adc9 23be c327 72bc 97c5 703d
00000220: b718 a3be a68e 30bc fc2c 31be a4d5 84be
00000230: a6a3 bf3c 819d 853e 3d55 dfbd c622 d83d
00000240: ccf3 99bd 719b 8fbe 880d df3c 561f 833e
00000250: cd99 903e 5454 7ebe b9f2 e2bd 2177 a43c
00000260: 09f6 923e ca59 81be d643 fabe ab00 753c
00000270: 3e8a 90be 6fa9 50bb 0be2 323e 28eb 05bc
00000280: 041b 2bbd 260a 1f3d ab6c 2d3c c422 ecbd
00000290: d7a2 203e f363 d63e 9125 9f3d a8d0 a43e
000002a0: 7148 9cbd 2a20 cdbd 75b3 c9bd 0825 063f
000002b0: 25c5 a7bd 6f86 e8be 9e6d e63a 1e6a 75be
000002c0: ca24 febe 9d40 133f be35 b8bb c0e2 11bf
000002d0: d41e 82ba 6ad7 ed3e 66a6 9d3c fe98 253e
000002e0: 01bd 58be 580a 3ebe 2043 24bd b58b 06bd
000002f0: 8353 883e 521b 98be f382 03bc 2d72 0fbd
00000300: 9739 133e 184c 38be 2f83 c23e f353 c63e
00000310: 76e7 083f 1c59 2a3e c94b 233f 8fa7 193c
00000320: f40e 97bc 71e3 44be 011b 95be 5e96 2dbe
00000330: 83f4 8cbd 1726 c5bd 34c3 933d b90e f5bd
00000340: c2b8 4e3c ff9c b0be d5f5 373d ab0b bf3d
00000350: b6b9 2cbe 089c 603d 83bd 55be af47 283e
00000360: 7ef1 02be dfce 8abd bd0e 153e 12e6 a3be
00000370: 5a1d 823e 6141 94be 9c33 8ebd d9ea aa3d
00000380: a201 053e 29de 893e 7834 503e d2fc 28bd
00000390: ccba 37bd 2047 b4be 4b73 28be b0b2 133f
000003a0: 6d88 c63d f780 04be bee5 07bf 1437 533f
000003b0: 3cde a83e a178 8f3e 81f7 77bd 273b 10be
000003c0: db98 fdbd d68e 05be 15da 84bd d15d a4be
000003d0: 921c fdbe abd3 8bbe ee62 d8bc 813d c4bc
000003e0: 09af 05be 271c 053e 04a3 eb3d 71ba d2bc
000003f0: 784b 043f d019 3f3e 64fe 64bd 76de f0be

output.bias f4 [16]
0.05144336 0.07554239 0.08462117 -0.06829769 -0.066795856 0.04205545 -0.015915558 0.06558637
0.056071945 0.009250515 -0.07818962 -0.02882332 0.094953895 -0.2021681 -0.06360306 -0.024540154
00000000: 46b6 523d f8b5 9a3d dd4d ad3d a9df 8bbd
00000010: 44cc 88bd 5642 2c3d 5861 82bc 2652 863d
00000020: b2ab 653d 798f 173c e121 a0bd e21e ecbc
00000030: 3077 c23d 2805 4fbe 5242 82bd 6f08 c9bc
