Result/Model/Parity26_10/24_ft_cpu/SLNN_deleted581_order2_trained.pth (torch, 107336 bytes, 4 tensors)

hidden.weight f4 [24, 26]
00000000: 0000 0000 0000 0000 0000 0000 0000 0000
00000010: 0000 0000 0000 0000 0000 0000 0000 0000
00000020: 0000 0000 0000 0000 0000 0000 0000 0000
00000030: 0000 0000 6fbb 46bf 0000 0000 0000 0000
00000040: 0000 0000 0000 0000 d5b5 273e 0000 0000
00000050: 0000 0000 0000 0000 0000 0000 0000 0000
00000060: 0000 0000 0000 0000 0000 0000 0000 0000
00000070: 0000 0000 0000 0000 0000 0000 0000 0000
00000080: 0000 0000 0000 0000 0000 0000 0000 0000
00000090: 0000 0000 0000 0000 0000 0000 0000 0000
000000a0: 0000 0000 0000 0000 0000 0000 0000 0000
000000b0: 0000 0000 0000 0000 0000 0000 0000 0000
000000c0: 0000 0000 8339 353d 0000 0000 69d6 4bbf
000000d0: 0000 0000 0000 0000 0000 0000 0000 0000
000000e0: 1211 173d 0000 0000 0000 0000 0000 0000
000000f0: 0000 0000 0000 0000 0000 0000 0000 0000
00000100: 0000 0000 0000 0000 0000 0000 294c 503f
00000110: 0000 0000 0000 0000 0000 0000 0000 0000
00000120: 0000 0000 0000 0000 0000 0000 2f67 fd3c
00000130: 0000 0000 0000 0000 0000 0000 0000 0000
00000140: 0000 0000 0000 0000 0000 0000 0000 0000
00000150: 0000 0000 0000 0000 0000 0000 0000 0000
00000160: 0000 0000 0000 0000 0000 0000 0000 0000
00000170: 0000 0000 0000 0000 0000 0000 0000 0000
00000180: 0000 0000 0000 0000 0000 0000 0000 0000
00000190: 7930 483f ffc3 133d 0000 0000 0000 0000
000001a0: 0000 0000 0000 0000 0000 0000 0000 0000
000001b0: 0000 0000 0000 0000 0000 0000 b71e e4be
000001c0: 0000 0000 0000 0000 0000 0000 0000 0000
000001d0: 0000 0000 0000 0000 0000 0000 0000 0000
000001e0: 0000 0000 0000 0000 6d0c d13e 0000 0000
000001f0: 0000 0000 0000 0000 0000 0000 0000 0000
00000200: 0000 0000 0000 0000 0000 0000 0000 0000
00000210: 0000 0000 0000 0000 0000 0000 0000 0000
00000220: 0000 0000 0000 0000 0000 0000 0000 0000
00000230: 0000 0000 0000 0000 0000 0000 0000 0000
00000240: 6bd0 503f 0000 0000 0000 0000 0000 0000
00000250: 6982 943d 0000 0000 0000 0000 0000 0000
00000260: 0000 0000 c8f0 1d3d 0000 0000 0000 0000
00000270: 0000 0000 0000 0000 9c79 4dbf 0000 0000
00000280: 0000 0000 0000 0000 0000 0000 0000 0000
00000290: 0000 0000 e1b9 503d 0000 0000 0000 0000
000002a0: 0000 0000 0000 0000 0000 0000 0000 0000
000002b0: 0000 0000 0000 0000 0000 0000 0000 0000
000002c0: 0000 0000 0000 0000 0000 0000 c7aa 813d
000002d0: 0000 0000 0000 0000 0000 0000 0000 0000
000002e0: 0000 0000 0000 0000 0000 0000 0000 0000
000002f0: 0000 0000 0000 0000 0000 0000 0000 0000
00000300: 0000 0000 0000 0000 0000 0000 0000 0000
00000310: 0000 0000 0000 0000 0000 0000 0000 0000
00000320: e61d 133d 0000 0000 f57c 47bf 0000 0000
00000330: 0000 0000 0000 0000 0000 0000 0000 0000
00000340: 0000 0000 0000 0000 0000 0000 0000 0000
00000350: 0000 0000 615e 4d3f 0000 0000 0000 0000
00000360: 0000 0000 0000 0000 0000 0000 0000 0000
00000370: 0000 0000 0000 0000 0000 0000 0000 0000
00000380: 0000 0000 0000 0000 773e 923d 0000 0000
00000390: 0000 0000 0000 0000 0000 0000 cabb 823d
000003a0: 0000 0000 0000 0000 0000 0000 0000 0000
000003b0: 0000 0000 0000 0000 0000 0000 0000 0000
000003c0: d97b 493f 0000 0000 0000 0000 0000 0000
000003d0: 0000 0000 0000 0000 0000 0000 0000 0000
000003e0: 0000 0000 ad33 813d 0000 0000 0000 0000
000003f0: 0000 0000 0000 0000 0000 0000 0000 0000
0.0 0.0 0.0 0.0 0.0 0.0 0.0 0.0
0.0 0.0 0.0 0.0 0.0 -0.7762975 0.0 0.0
0.0 0.0 0.16377957 0.0 0.0 0.0 0.0 0.0
0.0 0.0 0.0 0.0 0.0 0.0 0.0 0.0
0.0 0.0 0.0 0.0 0.0 0.0 0.0 0.0
0.0 0.0 0.0 0.0 0.0 0.0 0.0 0.0
0.0 0.0442443 0.0 -0.7962404 0.0 0.0 0.0 0.0
0.036881514 0.0 0.0 0.0 0.0 0.0 0.0 0.0
0.0 0.0 0.0 0.8136621 0.0 0.0 0.0 0.0
0.0 0.0 0.0 0.03093299 0.0 0.0 0.0 0.0
0.0 0.0 0.0 0.0 0.0 0.0 0.0 0.0
0.0 0.0 0.0 0.0 0.0 0.0 0.0 0.0
0.0 0.0 0.0 0.0 0.78198963 0.03607559 0.0 0.0
0.0 0.0 0.0 0.0 0.0 0.0 0.0 -0.44554684
0.0 0.0 0.0 0.0 0.0 0.0 0.0 0.0
0.0 0.0 0.40829793 0.0 0.0 0.0 0.0 0.0
0.0 0.0 0.0 0.0 0.0 0.0 0.0 0.0
0.0 0.0 0.0 0.0 0.0 0.0 0.0 0.0
0.8156802 0.0 0.0 0.0 0.07251436 0.0 0.0 0.0
0.0 0.038559705 0.0 0.0 0.0 0.0 -0.80263686 0.0
0.0 0.0 0.0 0.0 0.0 0.050958518 0.0 0.0
0.0 0.0 0.0 0.0 0.0 0.0 0.0 0.0
0.0 0.0 0.0 0.06331401 0.0 0.0 0.0 0.0
0.0 0.0 0.0 0.0 0.0 0.0 0.0 0.0
0.0 0.0 0.0 0.0 0.0 0.0 0.0 0.0
0.035917185 0.0 -0.77925044 0.0 0.0 0.0 0.0 0.0
0.0 0.0 0.0 0.0 0.0 0.80222136 0.0 0.0
0.0 0.0 0.0 0.0 0.0 0.0 0.0 0.0
0.0 0.0 0.071408205 0.0 0.0 0.0 0.0 0.06383474
0.0 0.0 0.0 0.0 0.0 0.0 0.0 0.0
0.787046 0.0 0.0 0.0 0.0 0.0 0.0 0.0
0.0 0.063086845 0.0 0.0 0.0 0.0 0.0 0.0

hidden.bias f4 [24]
00000000: 54e2 1340 b714 1f40 4ca2 1a40 b1b1 1c40
00000010: 7f97 d73f ddc5 1f40 b280 1f40 babb 0f40
00000020: ccf1 1940 6f86 1b40 67ef 1540 a31d 0e40
00000030: 3d9b 1a40 061f 0440 915f 0e40 f9c7 0f40
00000040: f9d5 47bc 6710 8d40 e22b 0440 aa1a 1f40
00000050: de7a c53f 69f2 1740 9e24 f93f 7dd7 1540
2.310689 2.4856393 2.4161558 2.4483454 1.6843108 2.4964516 2.49223 2.245833
2.405383 2.4300802 2.342737 2.220559 2.415725 2.0643935 2.224583 2.2465804
-0.012197011 4.4082522 2.0651784 2.4860024 1.5428121 2.3741705 1.94643 2.3412774

output.weight f4 [1024, 24]
00000000: a46e 823f d1ae 6c3f abb8 60bf 7dc9 86bf
00000010: ba6e 27be b9d6 81bf b255 7c3f 6162 8a3f
00000020: 6b1f 81bf 15af 76bf ff6a 86bf d373 a8bf
00000030: 12e4 873f 4eea a93f b64a 72bf c4cc 80bf
00000040: 2b29 f23e ca35 263f 0aa8 77bf 089a 603f
00000050: 742a 1cbf c391 6bbf b6a8 38bf a806 693f
00000060: ab16 83bf 427b 60bf f084 60bf 0ee6 7fbf
00000070: 8deb febd 47fd 743f a690 7e3f 20fe 74bf
00000080: 84a8 64bf 23e9 81bf 4b3b 32bf 09b8 423f
00000090: db2c 783f 0dac a93f c3f7 55bf 3701 83bf
000000a0: 5182 793f 2ac3 863f ee0d a2bf c531 ad3f
000000b0: 2873 3dbf 9a47 7a3f 2034 21bf c09d 323f
000000c0: e197 793f 2f3a 763f 8836 823f 1541 763f
000000d0: 09dd c63f 3dfb 64bf 9c8c 753f b380 4e3f
000000e0: 1dc0 69bf 3b5b 7ebf 4335 86be 1fa9 c1bf
000000f0: e608 743f 30e6 073e aa95 6b3f 2075 87bf
00000100: 0920 453f 5fc9 18c0 c64f 723f c54b 84be
00000110: ef04 393d 5e77 733f 3c6a a23f ec82 8f3f
00000120: a35c 7cbf 44fd 7dbf b923 803f 1688 733f
00000130: b045 c63f cca5 593f 41c7 763f 0836 8cbf
00000140: de5b 7cbf da04 83bf d39b 7a3e a191 293f
00000150: 53a7 843f 2531 523d 043d 6a3f 8c92 83bf
00000160: 19df 563f 47e8 89bf d581 693f 248f 473e
00000170: 9af5 ad3e a1f7 68bf e242 823f 7a00 863f
00000180: b76f 8a3f 054f 6c3f e101 903f 45dc 79bf
00000190: 90e9 7bbf 7814 7a3f e597 883f 4ca4 81bf
000001a0: 44de 75bf 8bfb 8abf 95b5 1abf 1618 9cbf
000001b0: fe17 743f 52d5 d9be 34f6 89bf d6b9 8abf
000001c0: 0e3f b83f c55b a2bd 57be 043f 511b 2f40
000001d0: 61d7 9ebe 0c85 6bbf 8f1a 77bf c790 943e
000001e0: e1e1 79bf 4a77 55bf 2120 823f 9fcf 75bf
000001f0: f87f 82bf 5845 72bf 7077 7a3f 98f1 643f
00000200: 8bfa 5abf 2806 79bf b5e9 ba3c 60af 6a3f
00000210: 02e0 7b3f 3ea2 0bbf dfe8 91bf e71e 87bf
00000220: b078 523f 14ea 573f 632b 6f3f 403d 9b3f
00000230: d151 39bf 3ce7 6b3f 41f2 39bf 1893 273f
00000240: ff17 783f b08e 783f f565 73bf eb55 7c3f
00000250: e8c3 8f3d b900 683f f07c 683f 52f2 5dbf
00000260: 66a8 75bf 90c3 82bf 577d c03e aed6 cbbf
00000270: 99af 883f 68e8 97bf 8e87 913f a7a4 82bf
00000280: 0d4d 823f ced4 b6bf bbc0 6dbf e5ec 95be
00000290: 4495 8cbf 8f7a 713f 261a 0f40 029c 8c3f
000002a0: 4f9a 73bf 07f5 67bf 3ba5 61bf ceed 873f
000002b0: 4ec6 1c3e fea7 63bf 9f69 613f 9dfc 843f
000002c0: 4eeb 5dbf 513e 7bbf 4ada 833f 53c2 263f
000002d0: a329 803f 56d0 a5bf 119d 8b3f 18c8 71bf
000002e0: 1819 a9be 50e9 9c3d 48d3 33bf 3ac6 84be
000002f0: 6728 4bbf 3473 81bf 17e3 f33f 1ad7 943f
00000300: 56c7 7abf 9e05 7ebf a81e 84bf 968b 6f3f
00000310: 56ec e23f 45a2 7b3f 8bc7 743f 2805 803f
00000320: 2aa9 70bf b670 6d3f cf4d c23e 0073 a3bf
00000330: f9ba 813f dde6 da3c e913 92bf 1e43 6fbf
00000340: b17d 113f b5d3 45bf d07d 353f 77e1 1140
00000350: 0319 23bf 2ab3 81bf f1a8 1ebf 86d2 ee3e
00000360: f196 883f f205 893f df1d 7ebf 4870 853f
00000370: 9ea6 fd3f 1787 67bf 24b8 733f 5bc7 84bf
00000380: 9144 7dbf 3ebd 773f 3f2c 273d e28c 153f
00000390: 6a94 6e3f e5c0 a4bd 8554 93bf 7099 77bf
000003a0: 8df0 963f 7a70 b9bf ab10 8b3f 9e9d d8be
000003b0: ec73 5ebf a515 7f3f 0c96 1abf ebf8 973f
000003c0: ea92 73bf 5003 7abf 90e4 663f 3ed3 81bf
000003d0: 6c60 a43e 5380 7e3f 4107 843f d9d7 883f
000003e0: 78d7 7dbf 96c2 6e3f e4fd d4bf 9ac3 b9bf
000003f0: 243f 8a3f d5fd 783f 416d 973f 9669 8fbf
1.0190015 0.9245425 -0.8778178 -1.0530239 -0.16350833 -1.0143653 0.9856826 1.0811273
-1.0087713 -0.96360904 -1.0501403 -1.3160347 1.0616477 1.3274629 -0.9464525 -1.006249
0.47297034 0.64925826 -0.9674078 0.87735033 -0.6100228 -0.9201929 -0.7213243 0.9102578
-1.0241293 -0.87688076 -0.87702847 -0.9996041 -0.124472715 0.9569897 0.99439466 -0.95700264
-0.89319634 -1.0149273 -0.69621724 0.76062065 0.96943444 1.3255631 -0.8358118 -1.0234746
0.9746447 1.0528309 -1.2660501 1.3530813 -0.7400384 0.97765505 -0.6297016 0.6977196
0.97497374 0.9618253 1.0172892 0.9619306 1.5536205 -0.8944586 0.9591768 0.8066513
-0.91308767 -0.99357957 -0.2621251 -1.5129737 0.9532608 0.13271403 0.92025244 -1.0582619
0.77002007 -2.3872907 0.94652975 -0.25839058 0.04517072 0.95104015 1.268867 1.1211829
-0.9857885 -0.9921458 1.0010902 0.95129526 1.5490017 0.8501861 0.9639779 -1.0953989
-0.9857768 -1.0235856 0.24473505 0.6623784 1.0363563 0.0513164 0.9149935 -1.0279098
0.8393417 -1.077401 0.9121373 0.19488198 0.33976442 -0.9100285 1.0176661 1.0468895
1.0815343 0.92308074 1.1250573 -0.9760173 -0.98403263 0.9768748 1.0671355 -1.0128264
-0.96042275 -1.0858015 -0.6043332 -1.219485 0.9534911 -0.42545563 -1.077826 -1.0837963
1.4394243 -0.0792766 0.51852936 2.7360423 -0.31023696 -0.9199989 -0.965249 0.29016706
-0.9761029 -0.83385146 1.0166055 -0.9601993 -1.0195303 -0.9463706 0.978385 0.8943114
-0.8553855 -0.9727502 0.022816518 0.9167385 0.98388684 -0.54544437 -1.1399192 -1.0556306
0.82215405 0.8434155 0.9342558 1.2128067 -0.72390467 0.9214971 -0.72635275 0.6545882
0.96911615 0.97092724 -0.9507745 0.985686 0.07019788 0.906261 0.9081564 -0.86697876
-0.9596008 -1.0215931 0.37595627 -1.592489 1.0678588 -1.18678 1.1369493 -1.0206498
1.0179764 -1.4283693 -0.9287221 -0.292823 -1.0983052 0.94327635 2.235971 1.098511
-0.9515733 -0.9060826 -0.88142747 1.0619447 0.15310022 -0.8892821 0.8805179 1.0389591
-0.8668717 -0.9814196 1.0300992 0.65140265 1.0012707 -1.2954204 1.0907308 -0.94445944
-0.33026958 0.07661688 -0.70244265 -0.25932485 -0.79358524 -1.0113282 1.9053677 1.1628144
-0.9796041 -0.9922732 -1.0321856 0.93572366 1.7728374 0.9829448 0.9561698 1.0001574
-0.94008124 0.9275011 0.37949988 -1.276947 1.0135185 0.026721412 -1.1412326 -0.9346179
0.56832415 -0.77276164 0.708951 2.2793863 -0.6371004 -1.0132802 -0.61976534 0.46644992
1.0671064 1.0704939 -0.9926433 1.042489 1.9816473 -0.90440506 0.9520285 -1.0373338
-0.9893275 0.96773136 0.04081368 0.58418095 0.9319521 -0.08044604 -1.1510168 -0.967185
1.179216 -1.448745 1.0864462 -0.42307752 -0.8689563 0.996424 -0.60385203 1.1872839
-0.9514605 -0.97661304 0.9019251 -1.0142591 0.32104814 0.9941456 1.0314714 1.0690871
-0.99156904 0.93265665 -1.6639981 -1.4512818 1.0800519 0.97262317 1.1830217 -1.1204097

output.bias f4 [1024]
00000000: 3147 cc40 e75b 4c40 98dd b3c0 22e2 8ec0
00000010: 3fc7 1a40 233e 203e 6bec 903f c638 a53f
00000020: abb8 95bf b597 25c0 4f6b df3f 6610 ed3f
00000030: fe28 7740 5f0e 40c0 f57c ef3f a54f 07c0
00000040: 095c a13f 12c6 1140 ec77 b9c0 1867 39c0
00000050: adb4 dd3f 92d8 58c0 2c8a 6840 2d7c 5a3f
00000060: 776c 04bf 69e1 82c0 efde 9a3e 8ba1 c3bc
00000070: 7cd9 0640 b0aa 31c0 6593 bdbc b105 28c0
00000080: ca92 6a3f 1c6c 8fc0 ab5b b83f 351d 32c0
00000090: d5e6 0ac0 192e 8ac0 c8bd 6e3f 50ca fb3f
000000a0: 89a1 07c0 8ea7 7ac0 ffbe 15c0 01d7 ccbf
000000b0: ef30 9940 235c 2240 a653 a0c0 07ba 8bc0
000000c0: 9c79 e23f 6999 6dc0 64ee ebbf dd0d 83c0
000000d0: d1dd abbf f6df 82c0 938d 66bf 9943 09c0
000000e0: 467c e1bf 4108 cec0 e473 b5bf 9219 84c0
000000f0: 4725 0f40 a07a 3540 1197 d6c0 db34 67c0
00000100: bbfd c8bd 6cf5 a7bc 453c 983d 09f8 37c0
00000110: f24e 7340 327d a440 b965 26bf 6b3e 18c0
00000120: f079 5640 6433 cabf 9a5c 0040 9ba5 92c0
00000130: 5944 94c0 6345 46c0 b5c0 9040 285d 5840
00000140: 7eb3 0abf 93b0 0fc0 98e5 c2bd 2914 85c0
00000150: 61ba cf3f c467 9140 3453 14c0 461c 0dc0
00000160: a773 1540 b411 0cbd d9f2 bebf f771 bac0
00000170: 2469 1dc0 e8c5 81c0 900c 8840 1645 8ebf
00000180: a607 a6c0 cf56 6ac0 a48a 0e40 bee8 643f
00000190: f492 3b40 2910 ebbf efb2 853f f797 bdc0
000001a0: cb9b 2abf 0f48 953f bdc9 9dc0 9f04 c9c0
000001b0: b1a6 403f f134 8f3e 637f a3bf c7a5 5ec0
000001c0: ee84 8bc0 a199 b2c0 7ea8 0f40 bd70 a5bf
000001d0: 16c8 f43d 3104 c8bf 5329 0bc0 e432 b5c0
000001e0: 420c 7bc0 9ce7 65bf d749 acc0 9030 9dc0
000001f0: 8091 9ebf 6cf7 33c0 2417 433e e904 81c0
00000200: 6f34 703e a7ef 673e e324 5940 ab9f 1d3f
00000210: 93f9 c640 44b0 d040 35ca 00c0 0d22 7ac0
00000220: 84ce 503f 7874 4dc0 a0f9 4140 c9be 3bc0
00000230: 79e9 bbbf 7c52 053d e580 9f40 6e79 5c40
00000240: 124a 933e 3858 1cc0 a1c0 7640 c43a 00c0
00000250: c8cd 1540 2ebf e040 8cea 80c0 a3d8 3fc0
00000260: 9c5b ac3e 8bd4 93bf 6237 13bf 11e8 8fc0
00000270: 9a49 423e 21bb b6be 4a28 2440 d471 75bb
00000280: 2ec9 69c0 56bb 27c0 3ee7 b33e c1e1 34bf
00000290: 2879 0640 fc6d aabf 3e7d 7540 2d09 30c0
000002a0: 34ce 6e40 d8f9 6340 eb9c 9cc0 256a d7c0
000002b0: 13da 65bf ba32 a1bf b037 9a3e 90a4 17c0
000002c0: 528d 5fc0 85f7 6bc0 eab3 ce3e 118f 43c0
000002d0: ce69 7c3f 2c00 81bf 3f50 c73f 02f9 37c0
000002e0: d6ad 1fbf 4aa3 3240 0fc5 b3c0 e3d4 9bc0
000002f0: 8329 15c0 d418 93c0 9bcd 1640 a228 4fc0
00000300: d5b9 a540 0686 5940 5a34 42c0 9517 dfbf
00000310: ab0f 8440 60fb 343f 24e2 edbd 1df3 89bf
00000320: 03d3 6bc0 990e 82c0 e195 963f 99f8 6240
00000330: 5797 f140 374e 8cbf 9cbd e43f 417b 13c0
00000340: b323 973f 7452 bd3f a72f 37c0 4af0 58bf
00000350: 0a8c 3340 afac 2dc0 567e dc3f 3c25 81bf
00000360: 23a5 27c0 6c79 bfc0 e6a2 0440 e56b 5c3f
00000370: f2d9 8e40 b444 a23e 3b90 9abf bf49 22c0
00000380: acfb 2d40 0f88 90c0 f833 5abf 95fe 9bc0
00000390: 5179 4ac0 8e4b 78c0 c376 4440 d12a bf40
000003a0: be19 cb3f 5d94 07c0 45bf 0ac0 d82e 1dc0
000003b0: f5c3 0040 7f66 253f 606e 86c0 2a35 5ac0
000003c0: 77bd e83f 357f 25c0 89fb 95c0 048d b9c0
000003d0: bb9c 9ebf 5c2e 8fc0 7347 0140 f1e1 2b3f
000003e0: 4e17 4f3d 1c35 83c0 cfc0 f9bf 4a0a 7cc0
000003f0: 0947 af3c 3790 a0be 2bfd b8c0 4e08 48c0
6.3836904 3.1931093 -5.6208 -4.465104 2.418411 0.15648703 1.1322149 1.2907951
-1.1696981 -2.5873845 1.7454623 1.852063 3.861877 -3.0008771 1.8710009 -2.114236
1.2606212 2.2777143 -5.795889 -2.8969173 1.7320763 -3.3882184 3.6334333 0.8534573
-0.51728004 -4.090016 0.3024821 -0.02388074 2.1070242 -2.776043 -0.023141572 -2.6253474
0.9163023 -4.481947 1.4402975 -2.7830327 -2.1703389 -4.318127 0.93258333 1.9671116
-2.1192343 -3.9164767 -2.3397825 -1.6003114 4.7872233 2.5368736 -5.010211 -4.3664584
1.7693362 -3.7124884 -1.8432126 -4.0954423 -1.3427068 -4.089839 -0.90059775 -2.1447508
-1.761605 -6.4385076 -1.4175992 -4.1281214 2.2366502 2.8356094 -6.7059407 -3.612601
-0.0981402 -0.020502768 0.074333705 -2.8745139 3.8016934 5.1402826 -0.64998966 -2.3788097
3.3511925 -1.5796933 2.005652 -4.5827155 -4.633343 -3.097985 4.523524 3.3806858
-0.54180133 -2.2451522 -0.09516448 -4.158711 1.6228753 4.5439167 -2.3175783 -2.2048507
2.3351839 -0.03419657 -1.4917861 -5.8264117 -2.4595423 -4.0554085 4.2515335 -1.1114833
-5.1884336 -3.6615484 2.227212 0.89417636 2.9308443 -1.8364307 1.0445231 -5.9248004
-0.6664397 1.1662616 -4.9308763 -6.281814 0.7525435 0.2797008 -1.277325 -3.4788682
-4.359977 -5.5812535 2.244659 -1.292503 0.11952226 -1.5626279 -2.1743972 -5.662462
-3.9226232 -0.8980653 -5.3840137 -4.912178 -1.2388153 -2.8119764 0.19051796 -4.0318494
0.23457502 0.22650014 3.3928764 0.6157176 6.2179656 6.521517 -2.0123417 -3.9083283
0.8156512 -3.2102337 3.030861 -2.9335196 -1.4680625 0.032549366 4.984484 3.4449115
0.2876745 -2.4428844 3.8555071 -2.0035868 2.340685 7.0233374 -4.028631 -2.9975975
0.33663642 -1.1549238 -0.5750638 -4.4970784 0.1897339 -0.35689643 2.564959 -0.003745188
-3.652904 -2.620809 0.3513736 -0.70656973 2.1011448 -1.3314815 3.8357692 -2.75056
3.7313356 3.5621243 -4.894155 -6.731707 -0.8978588 -1.2593606 0.3012061 -2.369419
-3.4930005 -3.6869824 0.4037164 -3.055607 0.98598945 -1.0078177 1.5571364 -2.8745732
-0.6237463 2.7912164 -5.617805 -4.869737 -2.3306587 -4.596781 2.3562992 -3.236855
5.1789346 3.3988051 -3.0344453 -1.7429072 4.1269126 0.7069607 -0.116153985 -1.0777317
-3.6847541 -4.064282 1.176449 3.5464232 7.549724 -1.0961369 1.7870364 -2.3043978
1.180777 1.4790788 -2.8622835 -0.8474165 2.8054223 -2.7136648 1.7226055 -1.0089488
-2.6194541 -5.983572 2.0724425 0.86102134 4.4641047 0.3169304 -1.2075266 -2.535751
2.7184858 -4.5166087 -0.8523555 -4.874827 -3.1636546 -3.8796115 3.0697486 5.9739766
1.5867231 -2.1184304 -2.1679242 -2.455984 2.0119603 0.6460952 -4.2009735 -3.4094949
1.818282 -2.585889 -4.686955 -5.798464 -1.239158 -4.474409 2.019986 0.67141634
0.050559334 -4.100233 -1.9511966 -3.938128 0.021396177 -0.31360027 -5.7809043 -3.1255069
