Result/Model/Parity26_10/24_ft_cpu/SLNN_deleted551_order15.pth (torch, 107280 bytes, 4 tensors)

hidden.weight f4 [24, 26]
000000 fd b5 13 bf 00 00 00 00 00 00 00 00 00 00 00 00
       -0.5769957 0.0 0.0 0.0
000010 00 00 00 00 00 00 00 00 00 00 00 00 00 00 00 00
       0.0 0.0 0.0 0.0
000020 00 00 00 00 00 00 00 00 00 00 00 00 00 00 00 00
       0.0 0.0 0.0 0.0
000030 00 00 00 00 95 52 f5 be 00 00 00 00 00 00 00 00
       0.0 -0.47914568 0.0 0.0
000040 00 00 00 00 00 00 00 00 d4 65 9a 3e 28 2d e4 be
       0.0 0.0 0.30155814 -0.445657
000050 00 00 00 00 00 00 00 00 00 00 00 00 88 49 7d 3e
       0.0 0.0 0.0 0.24735081
000060 00 00 00 00 00 00 00 00 00 00 00 00 00 00 00 00
       0.0 0.0 0.0 0.0
000070 00 00 00 00 00 00 00 00 00 00 00 00 00 00 00 00
       0.0 0.0 0.0 0.0
000080 00 00 00 00 00 00 00 00 00 00 00 00 00 00 00 00
       0.0 0.0 0.0 0.0
000090 00 00 00 00 00 00 00 00 00 00 00 00 00 00 00 00
       0.0 0.0 0.0 0.0
0000a0 00 00 00 00 64 27 2f 3e 00 00 00 00 00 00 00 00
       0.0 0.1710487 0.0 0.0
0000b0 00 00 00 00 00 00 00 00 00 00 00 00 00 00 00 00
       0.0 0.0 0.0 0.0
0000c0 00 00 00 00 7b f6 85 3e 00 00 00 00 08 e5 4c bf
       0.0 0.26164612 0.0 -0.80036974
0000d0 00 00 00 00 00 00 00 00 00 00 00 00 00 00 00 00
       0.0 0.0 0.0 0.0
0000e0 46 f1 f1 bc 00 00 00 00 00 00 00 00 00 00 00 00
       -0.029533993 0.0 0.0 0.0
0000f0 00 00 00 00 00 00 00 00 00 00 00 00 00 00 00 00
       0.0 0.0 0.0 0.0
000100 00 00 00 00 00 00 00 00 00 00 00 00 7d 2a aa 3e
       0.0 0.0 0.0 0.3323554
000110 00 00 00 00 e0 92 ed 3e 00 00 00 00 00 00 00 00
       0.0 0.4640112 0.0 0.0
000120 00 00 00 00 00 00 00 00 00 00 00 00 e5 d3 25 3f
       0.0 0.0 0.0 0.6477645
000130 00 00 00 00 00 00 00 00 00 00 00 00 00 00 00 00
       0.0 0.0 0.0 0.0
000140 00 00 00 00 00 00 00 00 00 00 00 00 00 00 00 00
       0.0 0.0 0.0 0.0
000150 00 00 00 00 00 00 00 00 00 00 00 00 00 00 00 00
       0.0 0.0 0.0 0.0
000160 00 00 00 00 00 00 00 00 00 00 00 00 00 00 00 00
       0.0 0.0 0.0 0.0
000170 00 00 00 00 00 00 00 00 00 00 00 00 00 00 00 00
       0.0 0.0 0.0 0.0
000180 00 00 00 00 00 00 00 00 df a5 c6 bd 00 00 00 00
       0.0 0.0 -0.09699606 0.0
000190 4a 05 50 3f ba 8d 53 3e 00 00 00 00 00 00 00 00
       0.8125807 0.20659533 0.0 0.0
0001a0 00 00 00 00 00 00 00 00 00 00 00 00 00 00 00 00
       0.0 0.0 0.0 0.0
0001b0 00 00 00 00 00 00 00 00 00 00 00 00 9b b4 87 be
       0.0 0.0 0.0 -0.2650498
0001c0 00 00 00 00 ed 5f a1 3e 00 00 00 00 00 00 00 00
       0.0 0.31518498 0.0 0.0
0001d0 00 00 00 00 00 00 00 00 00 00 00 00 00 00 00 00
       0.0 0.0 0.0 0.0
0001e0 00 00 00 00 00 00 00 00 97 98 2a 3f 00 00 00 00
       0.0 0.0 0.66639084 0.0
0001f0 00 00 00 00 00 00 00 00 00 00 00 00 00 00 00 00
       0.0 0.0 0.0 0.0
000200 00 00 00 00 00 00 00 00 00 00 00 00 00 00 00 00
       0.0 0.0 0.0 0.0
000210 00 00 00 00 00 00 00 00 00 00 00 00 00 00 00 00
       0.0 0.0 0.0 0.0
000220 00 00 00 00 00 00 00 00 00 00 00 00 00 00 00 00
       0.0 0.0 0.0 0.0
000230 00 00 00 00 00 00 00 00 00 00 00 00 00 00 00 00
       0.0 0.0 0.0 0.0
000240 5e 06 0d 3f 00 00 00 00 00 00 00 00 00 00 00 00
       0.5508784 0.0 0.0 0.0
000250 9d 9a 50 3e 63 7c 31 3f 00 00 00 00 00 00 00 00
       0.2037148 0.69330424 0.0 0.0
000260 00 00 00 00 fd 97 63 3e ef 87 14 3e 00 00 00 00
       0.0 0.22225948 0.1450498 0.0
000270 00 00 00 00 00 00 00 00 ff 1b 56 bf 00 00 00 00
       0.0 0.0 -0.8363647 0.0
000280 00 00 00 00 00 00 00 00 00 00 00 00 00 00 00 00
       0.0 0.0 0.0 0.0
000290 00 00 00 00 6b aa 00 3e 00 00 00 00 00 00 00 00
       0.0 0.1256501 0.0 0.0
0002a0 00 00 00 00 00 00 00 00 00 00 00 00 00 00 00 00
       0.0 0.0 0.0 0.0
0002b0 00 00 00 00 71 96 8d bd 00 00 00 00 00 00 00 00
       0.0 -0.0691346 0.0 0.0
0002c0 00 00 00 00 00 00 00 00 00 00 00 00 f9 6d 52 3e
       0.0 0.0 0.0 0.20549764
0002d0 00 00 00 00 00 00 00 00 00 00 00 00 00 00 00 00
       0.0 0.0 0.0 0.0
0002e0 00 00 00 00 00 00 00 00 00 00 00 00 00 00 00 00
       0.0 0.0 0.0 0.0
0002f0 00 00 00 00 00 00 00 00 00 00 00 00 00 00 00 00
       0.0 0.0 0.0 0.0
000300 00 00 00 00 00 00 00 00 00 00 00 00 00 00 00 00
       0.0 0.0 0.0 0.0
000310 00 00 00 00 00 00 00 00 00 00 00 00 00 00 00 00
       0.0 0.0 0.0 0.0
000320 da 43 a2 3d 00 00 00 00 51 7a 49 bf 00 00 00 00
       0.07923098 0.0 -0.78702265 0.0
000330 00 00 00 00 00 00 00 00 00 00 00 00 00 00 00 00
       0.0 0.0 0.0 0.0
000340 00 00 00 00 00 00 00 00 00 00 00 00 00 00 00 00
       0.0 0.0 0.0 0.0
000350 00 00 00 00 79 4f 4b 3f 00 00 00 00 00 00 00 00
       0.0 0.7941814 0.0 0.0
000360 00 00 00 00 00 00 00 00 00 00 00 00 00 00 00 00
       0.0 0.0 0.0 0.0
000370 00 00 00 00 00 00 00 00 00 00 00 00 00 00 00 00
       0.0 0.0 0.0 0.0
000380 00 00 00 00 00 00 00 00 00 89 1a 3e 00 00 00 00
       0.0 0.0 0.15091324 0.0
000390 00 00 00 00 00 00 00 00 00 00 00 00 ca 53 0a 3e
       0.0 0.0 0.0 0.13508525
0003a0 00 00 00 00 00 00 00 00 00 00 00 00 00 00 00 00
       0.0 0.0 0.0 0.0
0003b0 00 00 00 00 00 00 00 00 00 00 00 00 00 00 00 00
       0.0 0.0 0.0 0.0
0003c0 ee e0 39 3f 00 00 00 00 00 00 00 00 00 00 00 00
       0.7260884 0.0 0.0 0.0
0003d0 00 00 00 00 00 00 00 00 00 00 00 00 00 00 00 00
       0.0 0.0 0.0 0.0
0003e0 00 00 00 00 56 83 bb 3e 00 00 00 00 00 00 00 00
       0.0 0.3662364 0.0 0.0
0003f0 00 00 00 00 00 00 00 00 00 00 00 00 00 00 00 00
       0.0 0.0 0.0 0.0

hidden.bias f4 [24]
000000 dd 7d 55 40 7a 3e 14 40 0d f0 4d 40 eb 58 0c 40
       3.335807 2.3163133 3.2177765 2.1929271
000010 d3 ee 5a 40 8c 34 44 40 44 58 14 40 fb e3 ff 3f
       3.4208267 3.0657072 2.3178873 1.9991449
000020 0a 64 0b 40 ef c2 08 40 a2 a4 31 40 6c e9 30 40
       2.177981 2.1368978 2.7756734 2.764247
000030 3b a1 2b 40 ab c5 0c 40 9b 73 df 3f d7 20 05 40
       2.6817157 2.1995647 1.7457155 2.0801294
000040 ee 53 d6 3f f3 cc 22 40 e3 0d 14 40 04 ae 17 40
       1.6744363 2.543759 2.3133476 2.369996
000050 9c 21 38 40 61 24 2b 40 c4 47 0d 40 cc 0e 20 40
       2.8770514 2.6740954 2.2075052 2.5009031

output.weight f4 [1024, 24]
000000 92 df cb 3f ec 0e 7b 3f 80 7b 96 bf d5 1f 68 bf
       1.5927603 0.98069644 -1.1756439 -0.9067357
000010 b9 71 83 bf 95 a5 41 be c6 e8 71 3f 8e dd 8c 3f
       -1.026908 -0.18910821 0.9449581 1.1005113
000020 ee 17 54 bf e7 d8 20 bf 16 4b f5 be 6d 25 53 bf
       -0.82849014 -0.62830967 -0.4790885 -0.8247898
000030 87 fc bd bd 16 db c7 3f a7 bf 83 bf 42 9d 5b bf
       -0.092766814 1.5613735 -1.0292863 -0.8578683
000040 68 1d 71 bf ec e9 11 3e 2a cb 90 3f 60 54 87 3f
       -0.94185495 0.1424939 1.1312001 1.0572624
000050 98 36 98 3e 85 77 f1 bf a4 86 7d bf 9f cf 4f bf
       0.29729152 -1.88646 -0.9903357 -0.8117618
000060 40 60 04 bf 4f 3e 64 bf 67 5c 15 bf 99 e2 50 bf
       -0.51709366 -0.89157575 -0.5834412 -0.8159576
000070 0b 8e ea be 51 19 52 3f 59 c4 87 3f ac 1c f2 be
       -0.45811495 0.8206988 1.0606796 -0.472875
000080 fe e1 67 bf 52 06 4e bf 32 ab 2f be a3 64 db 3e
       -0.9057921 -0.80478394 -0.1715515 0.42850217
000090 27 92 fb 3f 17 96 b0 3f 60 bc 68 bf e7 8e 6d bf
       1.9653977 1.3795804 -0.9091244 -0.92796177
0000a0 49 92 62 bf 13 d6 2f bf b3 42 61 bf db 2b 8b 3f
       -0.88504463 -0.68686026 -0.879924 1.0872759
0000b0 2e 1c 1d 3f 6e 64 8f 3e 66 86 5e bf b3 49 59 bf
       0.61371124 0.2800631 -0.86923826 -0.8487808
0000c0 c5 15 aa 3f 0a 4c 50 3f 5e 0f 0c bf b1 e5 4b 3f
       1.3287894 0.81366026 -0.5471095 0.79647356
0000d0 cf e4 24 bf 4a a8 11 be a3 57 44 3f 1d 2d 80 3f
       -0.64411634 -0.14224353 0.76696223 1.0013767
0000e0 7f 6d 6a bf 7d 49 6b bf 9c ac b6 3f c2 33 91 bf
       -0.9157333 -0.9190901 1.4271426 -1.134392
0000f0 0f 50 b3 3b 28 3e 94 3f 62 83 87 3f 02 9c 9c bf
       0.00547219 1.1581469 1.058697 -1.223511
000100 c7 e8 5c 3f 7f 1b 71 bd a3 92 82 bf 40 78 64 3f
       0.8629269 -0.058864113 -1.0201 0.89245987
000110 ae 7b 35 3f 6e a7 c6 3e 55 9f 4a 3f be 46 68 bf
       0.70891845 0.38799614 0.7914937 -0.90732944
000120 14 e1 df be 34 b9 82 bf 18 e1 b4 3e 6d a5 5b 3f
       -0.43726408 -1.021277 0.35327983 0.85799295
000130 a3 c2 0c 3e f9 56 1d 3f c1 8b 58 3f cc c1 93 bf
       0.13746123 0.61460835 0.8458825 -1.1543517
000140 36 64 88 bf b1 7f 9c bf 74 1b cd 3f f0 a8 c8 3e
       -1.0655582 -1.2226468 1.6024003 0.3919139
000150 dd 59 ca 3f a3 c5 65 3f de 11 2c 3f 88 ad 8b bf
       1.5808674 0.89754695 0.67214763 -1.0912333
000160 4f c9 53 3f cd 9b 57 bf 15 61 6b 3f e6 4a 71 3f
       0.8272905 -0.8422211 0.9194501 0.9425491
000170 81 ed a8 3f 47 ff ed bf b2 e8 33 3f b9 29 62 bf
       1.319748 -1.859353 0.7027694 -0.88344914
000180 51 b7 9f 3f 7b 4f 78 3f f5 1a d4 3f 26 0f 70 bf
       1.2477819 0.9699628 1.6570727 -0.93773115
000190 06 9e f9 bf 1c e5 f9 3f b4 99 65 3f 06 bc 24 bf
       -1.950135 1.9523044 0.8968766 -0.643494
0001a0 cf d6 50 bf 6f 1c d6 be ed 8b 88 3e 3d 99 07 bf
       -0.8157777 -0.41818568 0.26669255 -0.529682
0001b0 84 ad 3c 3d ad 85 ba be 18 90 6d bf 52 46 90 bf
       0.046063915 -0.36430112 -0.92797995 -1.127146
0001c0 d9 c1 84 3f 16 be 92 3e 50 d6 58 bf d1 d6 8d 3f
       1.0371658 0.2866065 -0.84702015 1.1081182
0001d0 c7 76 3c be 4d 79 a1 bf 13 e9 68 bf 26 d0 73 bf
       -0.18404685 -1.2615143 -0.90980643 -0.95239484
0001e0 f9 fd 56 bf c3 29 70 bf 3d 03 cc 3f 82 98 7b bf
       -0.8398128 -0.93813723 1.5938488 -0.98279583
0001f0 8a 4b ee be 14 b7 c9 bf dd 86 52 3f 7e d4 87 3f
       -0.46542007 -1.5758996 0.82237035 1.0611722
000200 fc f0 4d bf 7a 94 61 bf 76 ba 6f 3f de e9 c8 3d
       -0.8044584 -0.8811718 0.9364389 0.098102316
000210 c9 01 fa 3f b6 4e 48 bf e0 7d 99 bf b0 44 7e bf
       1.9531795 -0.78245103 -1.1991539 -0.9932356
000220 1a 3f 81 3f 06 0d 00 bf d9 46 79 3f 24 9d 85 3f
       1.0097382 -0.5001987 0.9737373 1.043858
000230 9e 88 ac bd 34 25 01 40 ba df 71 bf f7 74 5e bf
       -0.08424495 2.0178957 -0.94482005 -0.86897224
000240 9d 92 e1 3f 42 f2 7a 3f ff 11 03 c0 ef bd 7d 3f
       1.7622868 0.98025906 -2.0479734 0.9911794
000250 30 bb 0e bf f3 45 11 40 f1 bc 5f 3f de 68 89 bf
       -0.55754375 2.2698944 0.87397677 -1.0735128
000260 c0 22 3f bf 20 98 5e bf e2 7c 29 3e b7 77 4e bf
       -0.746624 -0.86950874 0.16551545 -0.8065142
000270 fb 15 af be 47 a3 60 bf 5b ca 86 3f 76 ac 8a bf
       -0.34196457 -0.8774914 1.0530504 -1.0833881
000280 1f 99 75 bf e7 0c 11 3c 6d 55 6e 3f 59 80 8e 3f
       -0.9593677 0.008853174 0.930991 1.1132919
000290 74 46 3d c0 93 ff 92 3f 2f 45 a3 3f c8 b7 7b bf
       -2.957425 1.1484245 1.2755488 -0.983273
0002a0 57 79 8f bd c0 3a 78 bf df 0b b0 3e 4e 1c 86 3f
       -0.070055656 -0.96964645 0.34384057 1.0477388
0002b0 24 86 c5 3f 9b d4 a2 bf bf 0a 85 3f 47 73 9d 3f
       1.5431561 -1.2721132 1.0393904 1.2300805
0002c0 5d c0 4c bf d2 62 c2 bf 9e bf 51 be eb d0 49 be
       -0.79981023 -1.5186408 -0.20483252 -0.19708602
0002d0 7d 92 c3 3f 91 a7 d6 bf 0a 2d 9a 3f 9f 4a 7d bf
       1.527908 -1.6769887 1.2044995 -0.9894199
0002e0 50 82 6d bf f1 85 86 bf 1c 21 6d bf 1d a8 8b 3f
       -0.92776966 -1.0509626 -0.92628646 1.0910679
0002f0 9d ec 87 bf ac 90 a7 3d bc 24 8f 3f dc a2 49 bf
       -1.0619084 0.08181891 1.1183085 -0.7876413
000300 9d 3c 0a 40 fb 3d 67 bf bf d4 d0 3f 14 d1 61 3f
       2.1599495 -0.9032895 1.6314925 0.8820965
000310 22 8c d3 3f 22 4f 8a 3e c2 9b 63 3f 73 d2 96 3f
       1.652714 0.270135 0.8890954 1.1782974
000320 ad 04 59 bf 14 2d 0a 3f 61 7d 00 c0 e8 29 48 3f
       -0.8477276 0.53975034 -2.0076525 0.78188944
000330 a0 c9 43 bf 6b 8b c4 3e 34 b0 6f bf 11 c0 4c bf
       -0.7647953 0.38387617 -0.9362824 -0.7998057
000340 53 af 85 3f f1 4a 2d c0 33 43 59 bf 4a e3 83 3f
       1.044413 -2.707699 -0.8486816 1.0303738
000350 d1 ba d2 3c 53 ea b8 bf 42 c1 7c bf 06 d2 64 bf
       0.025723847 -1.444651 -0.9873239 -0.8938297
000360 5c 28 81 3d e4 67 67 3f 29 ed 9e 3e 59 4d 59 3f
       0.06306526 0.903929 0.31040314 0.8488365
000370 68 ee 15 40 35 f2 89 3f 93 0b 57 3f 2a 87 94 bf
       2.3426762 1.0777041 0.84002036 -1.1603749
000380 0b 4c 5e bf 81 43 86 3e e3 9f cd bf 0f dd 08 c0
       -0.8683478 0.26223376 -1.6064419 -2.1384923
000390 14 b1 7b 3f 0a 3b 12 bd c8 4c 90 bf 81 55 67 bf
       0.98317075 -0.035700835 -1.1273432 -0.90364844
0003a0 fa bc 5c 3f 0c ef 7b 3f ba 57 6f 3f c6 d6 6a 3f
       0.86225855 0.9841163 0.93493235 0.9173397
0003b0 b3 98 84 bf 5c 39 58 3f 0f f5 78 bf d2 3a 6c bf
       -1.03591 0.84462523 -0.9724893 -0.9227725
0003c0 06 fb 8c 3f 0b df 7f bf 36 4c 5f be 14 f0 7f bf
       1.1014106 -0.9994971 -0.21806416 -0.99975705
0003d0 63 64 03 c0 b5 c8 bd be ce bf 73 3f 03 14 7d 3f
       -2.053002 -0.3706719 0.95214546 0.9885866
0003e0 5d b9 67 bf 49 ee ce 3f e7 9e fa 3e bd e6 ae 3f
       -0.90517217 1.6166469 0.48949358 1.3664166
0003f0 cc 7e 93 3e 60 f9 ed 3f 14 9b 57 3f 54 61 7d bf
       0.28807676 1.8591728 0.84221005 -0.98976636

output.bias f4 [1024]
000000 ea 0e 1a 41 4a c6 f3 40 39 64 0b c1 a0 36 f8 c0
       9.628641 7.617955 -8.711968 -7.756668
000010 26 96 40 40 43 d5 9b 3d ea d6 c3 3f 89 1a 89 40
       3.0091643 0.07609036 1.5299962 4.284489
000020 7a d4 c1 bf 4c 0b aa c0 6d 29 e6 3e c6 52 da 3f
       -1.5142968 -5.313879 0.4495348 1.705651
000030 ea a7 f4 40 54 1b 77 c0 ec fa 2a 40 da e5 b1 c0
       7.6454973 -3.861043 2.671565 -5.559308
000040 76 84 1d 40 6f ee 95 40 5e 80 26 c1 eb f9 88 c0
       2.4612098 4.6853557 -10.40634 -4.2805076
000050 60 5c 02 3f 2f 36 bf c0 ad 54 dc 40 fa e7 2d 40
       0.50922203 -5.975364 6.8853364 2.7172837
000060 63 09 10 c0 7d 64 ec c0 56 2c 82 3f d3 a4 14 c0
       -2.250573 -7.3872666 1.016978 -2.32256
000070 24 33 8a 40 6e ce 8e c0 8f df 96 bf f0 a8 b1 c0
       4.3187428 -4.462699 -1.1786975 -5.5518723
000080 39 42 83 40 6b 64 f5 c0 05 e8 bc 3f 69 72 ac c0
       4.101834 -7.668508 1.4758307 -5.388966
000090 da c2 2e c0 ea 77 b2 c0 f1 dd 50 40 0e ee 29 40
       -2.7306428 -5.577138 3.2635462 2.6551547
0000a0 e0 ed 98 c0 0b eb e2 c0 bb 1e 35 c0 7d a5 04 c0
       -4.7790375 -7.091192 -2.8300006 -2.0726006
0000b0 0c 19 ea 40 fe 77 8d 40 e6 48 17 c1 a4 73 da c0
       7.3155575 4.4208975 -9.455297 -6.8266163
0000c0 59 e2 76 40 98 3a 8b c0 99 e3 8b c0 17 51 04 c1
       3.8575652 -4.3509026 -4.371533 -8.269797
0000d0 82 61 ff 3e e6 fc c3 c0 b7 12 98 bf 87 22 25 c0
       0.4987908 -6.1246214 -1.1880711 -2.5802324
0000e0 62 1a 64 c0 88 be 2b c1 53 e7 1a c0 e0 eb a4 c0
       -3.5641103 -10.734016 -2.420369 -5.1537933
0000f0 53 be f9 3f 19 f7 a6 40 33 2d 3d c1 f4 b1 d9 c0
       1.9511207 5.2176633 -11.823535 -6.802973
000100 73 3c af 3f 61 e9 79 3f bf 2a 18 c0 8f b2 89 c0
       1.3690323 0.9762173 -2.377609 -4.3030467
000110 a9 e9 03 40 6a db b3 40 80 9d 05 3d d8 8f fe bf
       2.0611365 5.620534 0.032620907 -1.9887648
000120 16 a7 33 40 7d 20 9c c0 01 aa 66 40 fd 38 0b c1
       2.807073 -4.878966 3.6041262 -8.701413
000130 cd 62 a9 c0 71 c7 97 c0 e7 62 98 40 22 d2 30 40
       -5.2933106 -4.743096 4.762073 2.7628255
000140 4a 95 5e be da 24 c0 bf 9e 20 b1 bf d5 fb 04 c1
       -0.21736637 -1.5011246 -1.3838079 -8.311482
000150 b0 c2 88 be 6a 59 94 40 41 cf 66 c0 74 18 06 c0
       -0.26711035 4.635915 -3.6063998 -2.0952425
000160 99 dc 22 40 63 a3 01 c0 be 84 79 c0 7d 8d 21 c1
       2.5447142 -2.0255973 -3.898727 -10.097043
000170 6b 92 2b c0 c0 a7 a5 c0 c4 0d 46 40 a5 c5 aa c0
       -2.6808116 -5.1767273 3.0945902 -5.3366265
000180 b8 fe e7 c0 75 79 9a c0 8b 75 b6 3f 67 37 de bf
       -7.2498436 -4.8273263 1.4254621 -1.7360657
000190 97 4d ae 40 6c 90 5e c0 d2 fd 15 40 5a 09 13 c1
       5.4469714 -3.4775648 2.343617 -9.189783
0001a0 e3 13 e5 bf 34 96 ca be 48 3c ff c0 07 15 0f c1
       -1.7896694 -0.3956772 -7.9761086 -8.942634
0001b0 59 96 92 3f 15 24 30 40 af 42 8b c0 73 2c f2 c0
       1.1452132 2.7522023 -4.35189 -7.567926
0001c0 54 b8 ac c0 d7 c9 0a c1 3d 68 a8 3f 76 8b a1 c0
       -5.397501 -8.674277 1.3156811 -5.048274
0001d0 e5 47 34 3f d0 f6 0e c0 b4 7b b4 bf bb c5 0b c1
       0.704222 -2.2338142 -1.4100251 -8.735774
0001e0 e0 39 01 c1 e7 3a 1c c0 78 10 f4 c0 e9 e7 cf c0
       -8.07663 -2.441095 -7.6270103 -6.4970593
0001f0 59 ec a1 bf aa 10 89 c0 81 16 18 c0 a4 d1 ef c0
       -1.2650253 -4.283284 -2.3763735 -7.494341
000200 80 b6 b7 3f ce 17 55 3f d0 48 57 40 9f 63 00 3d
       1.435257 0.8323945 3.3638191 0.031345006
000210 ff 1a 03 41 c0 ee 03 41 ee 7b 40 3e d8 51 9f c0
       8.194091 8.245789 0.18797275 -4.9787407
000220 22 32 88 3c c3 0d b0 c0 cb ab c8 40 db a0 89 c0
       0.016625468 -5.50168 6.270971 -4.3008857
000230 55 53 3e bf 0c d5 89 3f 0d 21 8e 40 a2 b3 72 40
       -0.74345905 1.0768142 4.4415345 3.792214
000240 aa bf d4 3f ff bd 13 c0 2b b4 a4 40 21 fc 97 c0
       1.6620991 -2.3084714 5.146993 -4.7495275
000250 0e b5 88 40 1f 5d 0d 41 11 f7 92 c0 fc ae 6a c0
       4.2721014 8.835235 -4.5926595 -3.6669302
000260 0a fe c6 3e b6 60 2b c0 18 e4 d4 be 46 c0 d1 c0
       0.3886569 -2.6777778 -0.41580272 -6.554721
000270 a2 46 ea 3f 97 d8 a5 3f 5f 78 e3 3f 55 c2 5a c0
       1.8302805 1.2956723 1.7771109 -3.418111
000280 dd 5e 39 c0 bf 56 96 bc b7 5e eb be 84 0c 04 c0
       -2.896415 -0.01835191 -0.459707 -2.063264
000290 00 ee 8b 40 26 4b 27 c0 cb fa cd 40 f6 d4 22 c0
       4.3728027 -2.6139617 6.4368644 -2.544248
0002a0 15 ea a0 40 75 73 64 40 f5 45 d1 c0 fc 50 17 c1
       5.0285745 3.569547 -6.5397897 -9.457272
0002b0 1c 47 f4 be f6 d0 dd 3e bd 3a a6 3e ae 91 8f c0
       -0.47710502 0.43323487 0.3246669 -4.486533
0002c0 38 5d 56 c0 fe cf 75 c0 2a 15 81 bf a6 12 a6 c0
       -3.3494396 -3.8408198 -1.0084584 -5.1897764
0002d0 c1 49 d6 3e 9b 4b e2 bf 9f 4d 48 40 19 1c 6a c0
       0.41853145 -1.7679323 3.1297376 -3.657965
0002e0 e5 04 28 c0 7e c0 29 40 ca 51 e6 c0 c8 b6 f3 c0
       -2.6252987 2.6523738 -7.197484 -7.616062
0002f0 e6 7a 00 c0 02 c3 d7 c0 97 5d 36 40 ad 43 aa c0
       -2.0075011 -6.7425547 2.8494623 -5.320761
000300 72 0f 0c 41 6c 7b 9d 40 3d c5 a3 c0 73 3a 83 c0
       8.753771 4.921316 -5.117827 -4.100885
000310 e3 d3 e3 40 14 7c 9f 3f 27 47 ba 3e 90 c8 24 bf
       7.119615 1.2459741 0.3638241 -0.64368534
000320 70 c3 bb c0 bf aa dd c0 a1 b9 bb 3f 03 1a ab 40
       -5.867607 -6.927093 1.4666024 5.3469253
000330 d2 38 37 41 b6 a1 76 3d 4b 25 1e 3f 7b 3a c3 c0
       11.451372 0.060212813 0.61775655 -6.1008887
000340 da 80 0d 40 32 bc d2 3f d4 b6 bf c0 b7 4d 8c bf
       2.2109895 1.6463683 -5.991068 -1.0961217
000350 63 e8 56 40 c2 bd 90 c0 8a 22 81 40 1f b8 be bf
       3.3579338 -4.523164 4.035466 -1.4899939
000360 3f cc aa c0 f6 b7 1e c1 13 c4 3e 40 39 6f 3f 3e
       -5.3374324 -9.919912 2.9807174 0.18694772
000370 f3 36 e5 40 eb ac cc 3d 08 bf 85 c0 45 b1 9f c0
       7.1629577 0.09993919 -4.1795692 -4.9903893
000380 98 57 c6 40 11 cf a8 c0 2f 95 25 c0 f8 3a ee c0
       6.1981926 -5.2752767 -2.5872304 -7.4446983
000390 53 b1 ad c0 45 2e b1 c0 27 7c af 40 1d b8 0b 41
       -5.427896 -5.536898 5.4839053 8.73245
0003a0 bb ab 0f be 23 64 7a c0 87 47 12 c0 e1 a7 87 c0
       -0.14030354 -3.9123619 -2.2856157 -4.239243
0003b0 cb 78 7f 40 62 19 bf 3d 49 b5 c5 c0 d7 96 a5 c0
       3.9917476 0.09331013 -6.1783795 -5.174663
0003c0 19 6b 83 40 c1 d7 90 bf a1 23 00 c1 aa 49 1a c1
       4.1068234 -1.1315843 -8.008698 -9.642984
0003d0 ee 56 be bf 83 d7 e4 c0 d7 f9 f6 3f f8 e5 bd 3f
       -1.4870279 -7.1513076 1.9294995 1.4835806
0003e0 96 2e a5 3e f3 52 01 c1 5d 69 4e c0 52 88 dc c0
       0.32262105 -8.082751 -3.2251809 -6.8916407
0003f0 73 d8 2f 3f a9 7e 66 3f c4 14 08 c1 ea f1 ad c0
       0.6868965 0.9003702 -8.50507 -5.4357805
