Result/Model/MLNN_hiddenlayer[50, 50]_CUDA/MLNN_model_BER0.pth (torch, 15256 bytes, 6 tensors)

hidden0.weight f4 [50, 7]
000000 29 b4 0c 3f 46 06 44 bf 01 e8 85 be 59 b4 12 bf
       0.549624 -0.7657207 -0.26153567 -0.5730644
000010 39 86 e9 bc ec b3 4a bd ee f6 06 3f f2 32 cd 3e
       -0.028506385 -0.049487993 0.52720535 0.4007793
000020 c7 1f b1 be 69 f3 f3 3d 00 df 25 bf 1e 6c 8d 3e
       -0.34594557 0.11911661 -0.64793396 0.2762155
000030 d6 88 e7 3e 52 65 c3 3e 53 7b e9 3d 73 19 f3 be
       0.45221585 0.3816324 0.11400475 -0.47480354
000040 f6 f4 f9 be c5 1c f4 be 47 44 0d bf a6 ba c5 bd
       -0.48819703 -0.476782 -0.5518231 -0.09654741
000050 a8 c4 47 be 2c bc f4 3e 51 89 1d bf dc e3 60 3e
       -0.19508612 0.47799814 -0.61537653 0.21961921
000060 d1 da 19 be 13 c6 9c 3e af b4 f1 be ed 3b 8c 3d
       -0.15024878 0.3061987 -0.47208163 0.068473674
000070 67 71 38 3c 1c cb c6 3e 74 f8 0b 3e 09 a0 ca be
       0.011257506 0.38826835 0.13668996 -0.39575222
000080 f9 8a 0d bf ba c9 d5 3d f8 8d c1 be 6c 77 a7 3d
       -0.5529018 0.10438867 -0.37803626 0.08177075
000090 40 e8 ef 3e a8 f5 46 3d 4c 57 aa 3e c9 5c 05 be
       0.4685688 0.04857412 0.33269727 -0.13023676
0000a0 6c 9b 2b 3f 65 64 f6 3d 4f 5e eb 3e df 0b 37 3e
       0.6703403 0.120308675 0.4597039 0.17875622
0000b0 bb 1b 16 bf f9 8a 84 be 19 fa a9 bd b4 ee 26 3f
       -0.58636063 -0.25887278 -0.082996555 0.6520798
0000c0 0d 24 1e 3e 53 d2 41 3f 1a 24 23 3f 02 99 25 3d
       0.1544344 0.75711554 0.6372696 0.040429123
0000d0 97 14 14 3f ca da ca 3c f8 a7 87 bd f2 73 4c 3f
       0.5784392 0.02476253 -0.06623834 0.7986442
0000e0 0f 09 40 bf fe 1a 31 bf 1f ab df 3e 92 b7 e2 be
       -0.7501382 -0.6918181 0.43685243 -0.44280678
0000f0 56 0f e6 3e ea 3f ee 3e ce be d2 be c2 d1 c0 bd
       0.44933575 0.46533138 -0.41161197 -0.09415008
000100 42 78 ab be 7d f2 1c bf e0 ee f7 3d be ce ee bd
       -0.33490187 -0.6130751 0.12106109 -0.11660527
000110 de 6a d7 be 74 98 35 3e c0 b6 ae bd 14 eb 05 3f
       -0.4207372 0.17733938 -0.085309505 0.52311826
000120 d8 01 2c bf f3 e8 e7 be 3e a6 2d 3f 20 91 2f be
       -0.67190313 -0.45294914 0.6783179 -0.17145205
000130 9f 3b 4d 3e eb c1 b5 be fe 46 d4 3e f3 9c eb 3d
       0.20042275 -0.3549951 0.41460413 0.11504545
000140 80 f1 03 bf 4f ca 4d be c9 3d 8d be 0e 7e 15 3f
       -0.51540375 -0.20096706 -0.275862 0.5839547
000150 04 02 f9 3e 42 82 50 3f b1 52 02 3f fa 99 3c 3f
       0.4863435 0.8144876 0.5090743 0.7367245
000160 7b 2d fc 3e bd 16 fe 3e c8 c5 c7 3e 38 15 2a 3f
       0.4925345 0.49626723 0.39018083 0.6643863
000170 df 8d 3e 3f a8 95 22 bf c1 90 99 bd 5a 28 71 bc
       0.7443523 -0.6350961 -0.07498313 -0.014719093
000180 86 50 a2 bb 08 05 3f be c3 48 15 be 68 ef 7a 3e
       -0.004953447 -0.18654263 -0.14578538 0.24505389
000190 09 10 2b be 34 b7 1a 3e 95 be e7 be 37 32 36 bf
       -0.16705336 0.15108949 -0.4526259 -0.7117037
0001a0 66 a2 72 be a7 17 d3 be 0f 71 84 3e ab 4a 01 3f
       -0.23694763 -0.41228983 0.25867507 0.5050456
0001b0 a2 14 08 bf 99 45 17 bf 5f 74 13 3f c0 fa f2 3e
       -0.53156483 -0.5909057 0.57599443 0.47456932
0001c0 87 70 34 3f 4c 55 06 bf ce 30 de be b0 13 3d 3f
       0.70484203 -0.524739 -0.4339661 0.73858166
0001d0 c1 5e e9 3e 9c 2e 9b be 74 d9 d2 be e2 f9 12 bf
       0.45580104 -0.30308998 -0.4118153 -0.5741254
0001e0 6e 52 08 bf f3 b2 45 be db ee 15 bf 3c a0 15 bf
       -0.5325078 -0.19306545 -0.5856759 -0.58447623
0001f0 2f ef a0 be d1 9e e0 be ce 6f 2d bf 9b ae 2e bf
       -0.31432483 -0.43871167 -0.67748725 -0.68235177
000200 e0 b8 1a 3a e8 2d 4e 3f 0f 61 7e bc 5d 41 2f bd
       0.00059021823 0.805388 -0.01552607 -0.042786945
000210 45 0a 46 3f 6e 66 0e 3f 07 ba 3b be 68 c6 de 3e
       0.7735942 0.55625045 -0.18332683 0.43510747
000220 6d 80 d0 be 0b 82 13 3f 73 9a 0f bf 12 46 25 3f
       -0.4072298 0.57620305 -0.56095046 0.64560044
000230 5b bd 88 3d 9a b9 96 3e 8f f7 fb 3e 98 d2 29 3e
       0.06676742 0.29438478 0.4921231 0.16584241
000240 d8 92 19 3d 3c 0c 1c bf 34 c9 06 3e cc 8d 22 3f
       0.037493557 -0.6095617 0.1316269 0.63497615
000250 f4 5c ed be 5a 3b 29 bf 1d c6 8d 3d e1 9a 8d be
       -0.4635998 -0.6610619 0.06922553 -0.27657226
000260 ef 78 f5 bc 05 d5 41 3c a8 ca 16 bf 9f fc 17 3f
       -0.029964892 0.011830573 -0.5890298 0.59369844
000270 b3 fc cf 3b 63 19 ca 3e fd 18 18 3e b4 c2 8d 3e
       0.0063472628 0.39472494 0.14853282 0.2768761
000280 e2 df 0c bf 1a de 10 3f ac 4b 72 3e 2a c9 63 3e
       -0.5502912 0.565889 0.23661679 0.22244707
000290 30 8e 91 bd 75 5c 2d bf ee df 58 be e1 17 63 3e
       -0.07107198 -0.67719203 -0.21179172 0.22177078
0002a0 28 7e 83 3e ff fe 00 3e f0 69 6a 3e 34 53 0d 3f
       0.25682187 0.12597273 0.22891974 0.5520508
0002b0 ce 42 3a 3f 2d 6f 84 3b 7a 63 94 be b8 28 76 be
       0.72758186 0.0040415735 -0.28982145 -0.2403897
0002c0 02 1c 1f bf 21 ac 0a bf 7a 2f 89 3e 36 55 33 3e
       -0.6215211 -0.541689 0.26794034 0.17512974
0002d0 28 0d 20 3f c8 e4 16 3f 2b b0 e1 be d7 d2 fd be
       0.62520075 0.5894284 -0.44079718 -0.4957492
0002e0 41 1b ec 3e 64 45 06 3f 82 f3 cf be 7c 74 d6 be
       0.46114543 0.5244963 -0.4061547 -0.41885746
0002f0 89 4d fd 3e 4f 69 1f bf ed 88 22 3f 8e 2a d6 3c
       0.49473217 -0.62270063 0.6349018 0.026143339
000300 84 2f 14 bf 84 7b 93 3e 12 00 7d 3d 71 dc 2a 3f
       -0.57885003 0.28805172 0.061767645 0.66742617
000310 39 62 2c bf 62 dc 1a 3f 9e e1 72 3f f4 25 46 bc
       -0.67337376 0.6049253 0.94875515 -0.01209401
000320 5e 14 58 3d 09 58 ae 3d 41 f0 82 bd 48 4e cb be
       0.0527538 0.08512885 -0.06393481 -0.3970816
000330 0d b4 60 be 02 3c 5e 3e cf 1f 9a 3e c9 9f 05 3f
       -0.21943684 0.21702579 0.30102393 0.5219694
000340 51 76 ba 3e 4f 6c 3e 3e 46 52 61 be 54 0a 08 3d
       0.36418393 0.18596004 -0.22004041 0.033212975
000350 81 ba b8 be 8d 0d a5 bd f5 29 07 3f ed f3 a3 3c
       -0.3607979 -0.08059225 0.52798396 0.020013774
000360 8f 93 f4 be bb 0d 45 be 8c 5c 5c be 84 9e 68 3e
       -0.47768828 -0.19243519 -0.21519679 0.22716719
000370 bf 7e 0d 3f 5c 41 45 bf de 2a 28 3e d4 18 01 be
       0.55271524 -0.77052855 0.16422603 -0.12607127
000380 03 56 17 3f aa fe f7 be 72 99 f5 3e 12 89 03 3f
       0.5911562 -0.4843648 0.47968632 0.5138103
000390 a2 ed 7e be da bc e5 3e 2a 95 87 be 41 da 8b be
       -0.24895337 0.44870645 -0.2648099 -0.27314952
0003a0 29 c6 5e be b2 af 4e bf ff 41 1c 3f 70 7f 50 be
       -0.2175528 -0.8073684 0.610382 -0.20361114
0003b0 1d 4a 17 3f f8 64 98 be 15 d2 fb 3e 00 d0 f0 3e
       0.5909746 -0.29764533 0.49183717 0.4703369
0003c0 9e ea 01 3e ad f2 0c bf eb ff 93 3e 7c b9 6c be
       0.12687156 -0.55057794 0.28906187 -0.23117632
0003d0 06 38 02 bf e0 76 45 3f d0 96 fe 3e 28 11 30 3e
       -0.50866735 0.77134514 0.49724436 0.17194045
0003e0 3e 62 0b bf af c4 04 39 03 b8 d1 3d 5f 96 19 bf
       -0.5444678 0.00012661771 0.102401756 -0.59995073
0003f0 45 06 9d be 25 e0 d1 be ca 6a 3a 3d c3 1f c2 be
       -0.30668846 -0.4099132 0.045512 -0.37914857

hidden0.bias f4 [50]
000000 15 b8 89 be 50 3e f0 3d d5 e3 17 bd bf 1b 05 bf
       -0.26898256 0.11730635 -0.037082512 -0.5199546
000010 b3 ca 54 3e 19 f8 e3 3e 8c d8 46 bb c7 91 39 be
       0.20780449 0.4452522 -0.0030341474 -0.18122016
000020 d8 cc ba bf f5 0f 38 3f bc 9f 24 bf 21 1d b3 3d
       -1.4593763 0.7189935 -0.64306235 0.0874579
000030 68 a8 a4 bf f9 ef 91 be 64 81 ad 3e bb 82 43 bf
       -1.2863894 -0.28503397 0.3388778 -0.76371354
000040 65 2c 9e bf f9 2a cc bf b3 e3 23 bd 7c b8 06 bf
       -1.2357298 -1.5950614 -0.040012073 -0.5262525
000050 04 c6 ac 3e a1 d4 88 3e 18 bd 2d 3d a6 a1 c7 3e
       0.33744824 0.26724723 0.042416662 0.38990515
000060 11 07 e3 3e d8 d1 8b bf fa 9b 9b bf 55 63 b5 be
       0.4434133 -1.0923414 -1.2156975 -0.35427347
000070 3a 1f 83 bc f1 e9 68 3e e8 3a 28 3f 25 4c a1 3c
       -0.0160061 0.22745492 0.65714884 0.019689629
000080 58 98 b5 bf 79 54 20 be 4a a5 c3 be 83 e6 37 3e
       -1.4187117 -0.15657224 -0.38212043 0.17959027
000090 9b 61 29 3f 03 57 84 bf dc 0f fc 3e ae 14 51 be
       0.6616456 -1.0339054 0.4923085 -0.20418045
0000a0 c1 9f 49 3f 2f 9b 6f 3f 10 57 61 3e 81 af 61 3f
       0.7875939 0.93596166 0.22005868 0.8815842
0000b0 a0 82 a8 bd cf 2a d0 3e da 38 a4 3a 45 56 00 3f
       -0.0822804 0.4065766 0.001252915 0.50131637
0000c0 c9 e6 19 bf c8 f1 0e 3f
       -0.60117775 0.5583768

hidden1.weight f4 [50, 50]
000000 c2 3e 3d bd c5 a8 38 3e e9 79 de bd e3 77 0a be
       -0.04620243 0.1803313 -0.10863096 -0.13522296
000010 10 a4 15 bd f7 a6 5b bd e8 b8 b8 3c 23 9b e9 3d
       -0.036533415 -0.053626027 0.022549108 0.11406543
000020 84 88 9a 3c ab 0a ae 3e 98 f1 af 3e 6c 35 7b be
       0.018863924 0.33992514 0.3436401 -0.24532098
000030 65 e3 4f be 7b 26 80 3e 6b 3a 0d bc df 2d d4 bd
       -0.20301588 0.25029358 -0.008619885 -0.10360312
000040 ee ee 80 3e 0a c0 92 3e 13 a0 4e bd f4 79 3d be
       0.2518229 0.2866214 -0.050445627 -0.18503553
000050 4a 56 01 bf 37 ce 87 3d a7 99 f0 bd fc 8a 2b 3c
       -0.5052229 0.06631129 -0.11748057 0.010470148
000060 f5 72 a7 3e e3 76 21 be 76 ba ee bc b3 2a 15 bd
       0.32704893 -0.15768008 -0.029141646 -0.036417674
000070 0b f3 89 3d c8 2a 2b be a0 57 af 3e 1e 90 eb 3e
       0.0673581 -0.16715539 0.3424654 0.4600839
000080 8b f9 a6 bd 50 28 07 bf 4f db 43 bd 7d 4c b6 bd
       -0.08153065 -0.52795887 -0.04781657 -0.08901308
000090 ea 37 80 3e d6 ed 3e be 6e 42 e5 bd 2d 00 b2 be
       0.2504266 -0.18645415 -0.11194311 -0.3476576
0000a0 95 c5 1d 3e 16 45 58 3e ce b5 10 bd f7 93 65 3e
       0.15407403 0.21120104 -0.035329632 0.22419725
0000b0 37 c3 6c be cc a9 ae bd 66 7b 21 bd 94 ca 0e 3e
       -0.23121344 -0.0852848 -0.039424323 0.13944465
0000c0 f9 11 7c be 7a 89 95 bd 66 74 69 3d 22 a1 c3 bd
       -0.24616231 -0.07301612 0.05699577 -0.09552218
0000d0 c4 72 47 be bb 4a a4 3e 0d aa 85 be b8 f8 b4 be
       -0.19477373 0.32088265 -0.261063 -0.35346007
0000e0 79 0c 66 be 71 61 e0 bd ca dd b7 bd de ce 8c be
       -0.22465695 -0.109560855 -0.0897785 -0.27501577
0000f0 f1 87 e2 3e 4a 41 8e 3e 66 f2 f3 be 97 83 1b be
       0.4424434 0.27784187 -0.47645873 -0.15186916
000100 a2 31 1d 3e 1d 66 28 be c2 f1 8c be 29 b9 7d 3e
       0.15350965 -0.16445203 -0.27528197 0.24777664
000110 d8 55 c0 bd 99 29 df 3e 57 7b 48 be d8 7f 7c be
       -0.093913734 0.43586424 -0.195783 -0.24658144
000120 99 5b 23 3e 3d a0 c6 be 74 8f 08 bd 08 b0 7a be
       0.1595291 -0.38794127 -0.033339933 -0.24481213
000130 af 2b 96 3e a5 83 17 3e 92 2c 90 ba 9e 3e e1 be
       0.29330203 0.14796312 -0.0010999611 -0.43993086
000140 0d 8d 48 3d 80 7e ad 3e c2 6f 10 bb c8 41 db bd
       0.04896264 0.33885574 -0.002203927 -0.10705906
000150 d8 dc 87 3c 83 48 0e 3d 84 09 4d be e3 63 df bc
       0.016584799 0.03473712 -0.20023161 -0.02726931
000160 58 6f ec bd c0 b3 aa 3e fa 43 7f 3e 3d f4 2c 3e
       -0.11544675 0.33340263 0.24928275 0.16890045
000170 3c 00 ec 3d 79 05 b1 be 5d 9e 08 be a1 8f ad bd
       0.11523482 -0.34574488 -0.13341661 -0.08474661
000180 6b b0 3c 3d 08 2c f7 3e cc b8 0d be f7 44 92 3e
       0.046066683 0.4827578 -0.13840026 0.2856824
000190 bb b3 2a be aa 48 99 3e 30 6b f1 bd ef db 7a be
       -0.16670124 0.2993825 -0.117880225 -0.2449796
0001a0 69 d9 3d be a8 ee 40 3e 3b 38 63 3e 68 3f 72 3e
       -0.18539967 0.1884104 0.22189419 0.23657
0001b0 6e b7 d8 3c 8d a9 f0 bd 61 95 83 3a 0a e0 e0 bd
       0.026454654 -0.11751089 0.0010039025 -0.10980232
0001c0 14 4a 2d bb af c3 65 be ca 9f 92 be 2c 95 7c bb
       -0.002644186 -0.22437929 -0.28637534 -0.0038541062
0001d0 46 c9 4b be 43 1b b6 bd 3e e8 4e be 5d de 9e be
       -0.19900998 -0.088919185 -0.20205781 -0.31029025
0001e0 a9 cb 95 3e 0f 99 a7 be af 3e 1b 3d 0d db cd 3c
       0.29256943 -0.32733962 0.037901577 0.025128866
0001f0 a5 8d f3 3d 6f 73 9f bd 06 a4 24 be 56 57 c7 3a
       0.11892251 -0.07785689 -0.16078195 0.0015208523
000200 06 ff c9 3e 0e cc ba bd 86 df 70 3e 0d 73 9c bb
       0.3945238 -0.091209516 0.23522767 -0.0047744573
000210 69 88 47 bd 77 69 49 be af 9a 4e be 61 f6 99 be
       -0.048714075 -0.19669138 -0.20176195 -0.30070785
000220 2f 94 28 3e 4d ba 1f be d6 8c ae 3d a8 b6 e0 bd
       0.16462778 -0.15598412 0.08522956 -0.10972339
000230 d4 57 2b bc f6 9d 1e bd b3 63 d2 3e 4e 72 b8 3e
       -0.010457952 -0.038724862 0.4109169 0.36024708
000240 9e 14 92 3e 9a d8 67 bd 94 38 6e 3e 28 aa 42 3d
       0.28531355 -0.05660305 0.2326377 0.047525555
000250 9e df c1 3d 51 3e e1 bd 4d 32 d4 bd a8 a7 74 be
       0.0946648 -0.10998214 -0.103611566 -0.23892081
000260 dd b8 94 be 18 89 af be b7 97 d2 3e b7 22 9f bb
       -0.2904729 -0.34284282 0.41131374 -0.0048564333
000270 6b f5 09 be 82 a9 f5 bd 62 94 87 bd 38 5c 78 3e
       -0.13472526 -0.11995222 -0.06620099 0.24253929
000280 a1 47 09 3f 66 bd 98 3e ad ca 15 bf 8a e3 66 be
       0.5362492 0.29832 -0.58512384 -0.22547737
000290 67 6d cf bd 12 99 a1 3b 6a c7 a6 bc 65 51 12 bd
       -0.10128289 0.0049315775 -0.02035876 -0.035722155
0002a0 da 9b 56 3e fb 43 cd be 38 71 53 bc 43 3b 57 be
       0.2095789 -0.40090927 -0.012905411 -0.210187
0002b0 05 74 3d 3d 11 ba aa 3b f8 cc 56 be d9 5d ce 3e
       0.046253223 0.005210169 -0.20976627 0.40305975
0002c0 5b 52 5a 3e ab 51 33 3e 14 6c 50 3d 40 5e 35 3e
       0.21320479 0.17511623 0.05088432 0.17711735
0002d0 c9 15 9f 3e c1 57 43 3e 44 31 67 bd 82 11 28 3c
       0.31071308 0.19076444 -0.056443468 0.01025808
0002e0 d8 e5 76 bd 0e 82 44 be 5a c3 49 3d a3 58 8b 3b
       -0.06027779 -0.19190237 0.049258567 0.0042525097
0002f0 24 3b 79 be 79 06 8e be 3d ee af 3e a7 ff 56 3d
       -0.24338967 -0.27739313 0.3436145 0.052489903
000300 8a 36 b4 be 5b 3e 5a be 7c e5 a1 be 93 03 0b bd
       -0.3519786 -0.21312849 -0.31620395 -0.033938956
000310 08 51 92 3e e2 98 60 3d 73 d6 76 be 7b 6d 5e 3e
       0.28577447 0.0548333 -0.24105243 0.21721451
000320 86 ca 13 3f 84 f2 1c 3e 80 2c db 3e 04 ac df bd
       0.577309 0.15326887 0.42807388 -0.10921481
000330 6e 6b 6f be 91 7e a8 3d 10 4e b0 3e 39 f0 26 be
       -0.23380825 0.082272656 0.34434557 -0.16302575
000340 1e 26 48 be 0b 1c 78 be 1a 58 59 be 08 80 42 3e
       -0.1954579 -0.24229448 -0.21225014 0.18994153
000350 56 01 28 be 18 d9 a2 be da 4a 6c be 7f 6a 31 3e
       -0.1640676 -0.31806254 -0.23075429 0.17325781
000360 c9 5f b3 be 6a 0c 25 be 15 42 0b be 4d 12 8e be
       -0.35034016 -0.16118017 -0.13599427 -0.27748337
000370 31 32 f0 3b de ee 00 3f f8 f6 41 3d 3b 3e 7f 3e
       0.007330202 0.5036448 0.04735467 0.24926083
000380 b1 95 99 be 19 4c 93 3e 07 d5 7b be 4f 35 8e 3c
       -0.29997018 0.28768995 -0.24592982 0.017359404
000390 2f 98 7a 3f 0d 5d a9 be 13 4d 8a be 2c f3 99 bd
       0.97888464 -0.33078805 -0.27011928 -0.075170845
0003a0 4e a7 a7 be 73 99 a3 be a6 c7 33 bd 0a fb a8 be
       -0.3274483 -0.3195301 -0.04389157 -0.33004028
0003b0 44 84 ad 3d f5 4c 40 bd d7 81 3c 3e 46 9e e6 be
       0.08472493 -0.046948392 0.18408905 -0.45042628
0003c0 1c 64 ca bc 6d b3 c4 be 91 de 49 be b9 15 b8 3b
       -0.024705939 -0.3841814 -0.19713809 0.005617824
0003d0 3b 6b e4 bd 2b 47 a9 be 26 64 90 be c1 a9 08 bd
       -0.11153265 -0.3306211 -0.28201407 -0.033365015
0003e0 1b 26 98 be b2 81 c4 be 30 e2 35 be 61 f3 8b bd
       -0.29716572 -0.383802 -0.17762065 -0.0683353
0003f0 00 9a 0b bd 58 a5 9b be 3c db 08 be ba 49 3a be
       -0.034082413 -0.30399585 -0.13364881 -0.18192187

hidden1.bias f4 [50]
000000 35 1d 2f 3c df a9 df 3c 21 62 a6 bc 4a df c7 3e
       0.010688116 0.02730268 -0.020310463 0.39037544
000010 f7 78 53 be 48 d7 b5 bc d3 aa 5b be 89 d7 95 3e
       -0.20651613 -0.02219738 -0.21451883 0.29266003
000020 7f 45 09 3e 8b 27 9c 3d 01 43 7c be a5 f3 8f bc
       0.13405417 0.0762473 -0.24634935 -0.017572233
000030 cc 40 2f be 84 ac 0b 3e 6b e9 86 bd 22 b5 21 3e
       -0.17114562 0.13640028 -0.0658749 0.15791753
000040 90 f1 08 bd 20 22 c4 bd ae 3e 22 bc d3 db 90 bd
       -0.033433497 -0.09576821 -0.009902639 -0.07073178
000050 94 9d 00 bf 59 d5 33 3e 51 0c 5b 3d f8 0c a9 be
       -0.50240445 0.17561854 0.053478543 -0.33017707
000060 33 d5 21 3e 11 b2 67 be ad fe 4f 3c ff 82 93 bd
       0.15803985 -0.2262652 0.012694997 -0.0720272
000070 23 4e 7f 3e e2 71 32 bd c6 62 ef 3a 60 06 ae 3d
       0.2493215 -0.04356564 0.001826369 0.0849731
000080 ef e6 81 be 23 67 dc 3d 68 54 0c 3e 06 4e 21 be
       -0.253715 0.10761859 0.13704073 -0.1575242
000090 46 04 9a bd 1f 89 87 bd 5e 50 64 be 71 71 5c 3e
       -0.07520346 -0.06617951 -0.22296283 0.2152765
0000a0 45 46 9f 3b 72 c8 8f 3e fb 8e a1 3d d5 ee b7 be
       0.0048606717 0.28082615 0.078885995 -0.35924402
0000b0 40 57 8f bd 60 88 06 be fe 9a cc 3e c9 3b cb 3e
       -0.069990635 -0.1313796 0.39962 0.3969405
0000c0 b9 85 2c bf a2 12 6c be
       -0.67391545 -0.23053983

output.weight f4 [4, 50]
000000 9c 59 31 be 16 27 2e 3a 2f b3 e0 3e 75 1f f0 bd
       -0.1731934 0.00066433975 0.43886706 -0.1172475
000010 62 85 67 be b6 8c 8b 3e 60 82 f3 be c6 74 a0 3e
       -0.22609475 0.2725579 -0.47560406 0.3133909
000020 42 f8 ba 3e 1e ac 1f 3e 03 d3 15 bf 49 7d f2 bd
       0.3651753 0.15593001 -0.58525103 -0.118403025
000030 c9 23 bb 3e 99 2f 61 3e 8c 2c cc be da 05 8f be
       0.3655074 0.21990813 -0.39877737 -0.27934152
000040 f2 0f 11 bd ab 35 23 bf da 94 a7 be af ff b5 be
       -0.035415597 -0.63753766 -0.32730752 -0.35546634
000050 10 d9 3a 3e 76 a9 9b bd bd d4 8f be 3c ea d2 3d
       0.18246865 -0.076006815 -0.28091994 0.10298583
000060 b1 45 ba 3e 3d 65 6d 3e 91 76 78 be 00 a8 94 be
       0.36381295 0.2318315 -0.2426398 -0.29034424
000070 fc 82 93 bc f0 23 39 3e fb 82 35 be e1 d4 c4 3e
       -0.018006794 0.18080115 -0.17725746 0.38443664
000080 46 b8 e7 be 36 27 ac be 32 97 6c be 90 1f b3 3e
       -0.45257777 -0.33623666 -0.23104551 0.34985018
000090 04 53 42 3f 62 6a 3f bf f2 63 ab be 92 01 d8 3e
       0.7590792 -0.747717 -0.3347469 0.42188698
0000a0 e8 d5 15 3e f9 98 ce 3e 87 d4 1b 3e 91 b3 2d 3f
       0.1463238 0.40351084 0.15217791 0.6785212
0000b0 6d 9e 72 3e 53 70 86 bd 11 9c ff 3d 29 ca bf 3e
       0.23693247 -0.06564393 0.12480939 0.37458923
0000c0 a4 2e eb be 0e 19 0f 3f 40 17 39 3d 6d 83 5e 3e
       -0.4593402 0.55897605 0.04518819 0.21729822
0000d0 ad 22 be 3e 42 e4 00 bd 85 91 fe be ac 3c cc 3e
       0.3713583 -0.031467684 -0.49720398 0.3989004
0000e0 87 15 ec ba 5c 32 af 3e a0 03 d3 3d 8c e9 fe be
       -0.0018011787 0.3421811 0.10303426 -0.49787557
0000f0 f6 9e 5f be 83 5e df bc 8d b5 40 be 76 5c 94 3e
       -0.21837983 -0.027266746 -0.18819256 0.28976792
000100 51 8f 33 bd f3 42 02 bf fa ce f3 3e e9 00 0c 3f
       -0.04383785 -0.50883406 0.47618848 0.5468889
000110 20 c9 eb be fb ef 40 3f a6 d2 73 be 94 58 45 be
       -0.46051884 0.7536618 -0.23810825 -0.19272071
000120 94 19 44 be 67 73 98 3e c9 33 aa 3b 64 6b e6 bd
       -0.19150382 0.29775545 0.0051941616 -0.11250952
000130 64 3c 3f 3e eb 8e 70 be 86 ab b7 be 8b 68 1e 3e
       0.18675381 -0.23492019 -0.3587305 0.15469567
000140 13 15 e8 3d 45 89 14 3f 8d d0 a9 bd 04 ef a0 3e
       0.113321446 0.58021957 -0.08291731 0.31432354
000150 19 10 bd 3e 33 f9 2b be 4e c3 d8 be 35 c6 e7 3d
       0.36926344 -0.1679428 -0.42336506 0.11317102
000160 a0 c5 2e be ca 06 aa be c4 cd c3 3d 4f 81 25 be
       -0.17067575 -0.33208305 0.09560731 -0.16162609
000170 15 70 9b 3c c7 34 e2 3e a8 be 0a 3e f0 17 f3 be
       0.018974343 0.4418089 0.13549292 -0.474792
000180 a5 db d9 bd 6a b7 b2 be 60 27 02 bf 7c 41 11 bf
       -0.10637597 -0.3490556 -0.5084133 -0.56740546
000190 72 be 2e 3e a1 2c 04 bc 44 62 8b 3d 07 6b 6b 3c
       0.17064837 -0.008067281 0.06805852 0.014368779
0001a0 0e e9 14 3f 10 ba 90 3e f5 4e bd bd 70 ec e8 bd
       0.58168113 0.28266954 -0.092435755 -0.11373222
0001b0 ed e3 36 3e 54 b2 94 3e cf 10 ee 3e d7 6b 5f bd
       0.17860384 0.29042304 0.464972 -0.054546203
0001c0 f2 e6 b1 bc f0 67 e6 be 13 f1 c8 be 96 dd 35 3e
       -0.021716569 -0.45001173 -0.39246425 0.1776031
0001d0 df 5c b7 3e 23 14 10 3f 61 f1 42 be f6 49 b5 be
       0.35813043 0.56280726 -0.19037391 -0.3540799
0001e0 55 73 f1 be 8b e3 84 3c 3b ef ae 3e e7 20 f8 be
       -0.47158304 0.016221782 0.34166893 -0.48462602
0001f0 37 4d a8 3e 39 89 b6 be 9b a2 d1 be df a7 fc bd
       0.3287141 -0.35651568 -0.4094437 -0.12336706
000200 54 7e bf 3e 1c 10 a3 b8 82 98 f0 bd 26 61 ff 3e
       0.37401068 -7.775446e-05 -0.117478386 0.49878806
000210 ac 0a a3 3e b1 d0 fc 3d cf 2a 0b be 5d b0 04 bd
       0.3184408 0.12344492 -0.13590549 -0.032394756
000220 2f 5e 2d 3e c9 c9 a3 be 4a d8 cc be f4 3c 8a be
       0.1693046 -0.31989887 -0.40008765 -0.2699963
000230 31 e6 f0 be b1 c5 f8 3e 84 dc 54 be 01 01 1c bf
       -0.47050622 0.48588327 -0.20787245 -0.6093903
000240 b5 1b 98 3e 23 9e ad be c2 37 9c 3e c0 52 a1 3c
       0.2970864 -0.3390971 0.3051129 0.019692779
000250 d7 42 01 bf f6 cc 10 bf 02 47 f4 be 8d 87 3f 3f
       -0.50492615 -0.56562746 -0.47710425 0.7481621
000260 28 86 99 bd 9a 02 2e 3f 94 7e f9 3e 38 95 37 bf
       -0.074962914 0.6797272 0.48729384 -0.71712065
000270 24 3d d0 3d 69 65 d8 3e e6 72 a6 3e f5 67 02 bf
       0.10167912 0.4226487 0.32509536 -0.50939876
000280 be 41 01 3d 52 5a b3 3d 54 09 06 bf f5 e6 2f be
       0.031556837 0.087574616 -0.52357984 -0.17177947
000290 fb 85 8c be 87 75 19 3d b1 4e c5 3d 11 fe f0 3d
       -0.2744597 0.0374656 0.0963415 0.11767209
0002a0 0f 28 e2 be d7 f2 80 3d ad a7 5d bf a8 16 f7 3e
       -0.44171187 0.06296318 -0.8658398 0.48259473
0002b0 0a 67 8d 3e 1f 4a d6 be 80 a2 64 be 69 0a 02 3f
       0.27617675 -0.41853425 -0.22327614 0.50797135
0002c0 95 d5 9c be 6c 35 46 be ea f6 f1 bd b9 4d f3 3e
       -0.306317 -0.19356316 -0.11814673 0.47520235
0002d0 c3 78 28 bf 6a 69 78 3d 4b 3c 07 bf ba cc 57 be
       -0.6580927 0.060647406 -0.52826375 -0.2107419
0002e0 3c ee 8e 3e fa 15 a3 be 55 16 c2 3e fe 36 ec 3d
       0.27916133 -0.31852704 0.37907663 0.115339264
0002f0 fc 69 92 3e bb 98 96 3d df aa a2 3e cb 10 3d 3e
       0.28596485 0.0735335 0.3177099 0.18463437
000300 a6 58 c5 3e c3 0a a8 bd 70 64 72 be 1c bc 05 3d
       0.38544196 -0.08205178 -0.23671126 0.0326501
000310 73 9b d4 3e c0 af 66 be 94 a5 89 3e e0 7a 42 3e
       0.41524848 -0.22527981 0.2688414 0.18992186

output.bias f4 [4]
000000 47 43 ef bd 02 94 b8 bd 37 48 c1 bd 0a a5 4e be
       -0.11682754 -0.09012605 -0.09437602 -0.20180145
