Result/Model/Parity26_10/SLNN_hiddenlayer26_deleted_cpu/SLNN_26_deleted577.pth (torch, 115560 bytes, 4 tensors)

hidden.weight f4 [26, 26]
00000000: 0000 0000 888c b43e 0000 0000 0000 0000
00000010: 59ea efbe 0000 0000 6662 f63e 0000 0000
00000020: 0000 0000 0000 0000 0000 0000 0000 0000
00000030: 0000 0000 0000 0000 0000 0000 0000 0000
00000040: 0000 0000 0000 0000 85f4 c0be 0000 0000
00000050: 0000 0000 0000 0000 0000 0000 0000 0000
00000060: 0000 0000 0000 0000 e75d be3e 0000 0000
00000070: 0000 0000 0000 0000 0000 0000 add2 e53e
00000080: 0000 0000 0000 0000 0000 0000 0000 0000
00000090: 0000 0000 0000 0000 0000 0000 0000 0000
000000a0: 0000 0000 0000 0000 0000 0000 0000 0000
000000b0: 0000 0000 0000 0000 0000 0000 04a1 04bf
000000c0: 53cd c2be 0000 0000 0000 0000 0000 0000
000000d0: 0000 0000 0000 0000 0000 0000 0e8b f53e
000000e0: 0000 0000 0000 0000 0000 0000 0000 0000
000000f0: 0000 0000 0000 0000 0000 0000 0000 0000
00000100: 0000 0000 0000 0000 0000 0000 0000 0000
00000110: b250 e3be 0000 0000 0000 0000 0000 0000
00000120: 0000 0000 3e3e cabe 0000 0000 0000 0000
00000130: 0000 0000 0000 0000 0000 0000 0000 0000
00000140: 0000 0000 0000 0000 ae39 05bf 0000 0000
00000150: 0000 0000 e4c8 3d3f 0000 0000 0000 0000
00000160: 0000 0000 0000 0000 0000 0000 e0ae e63e
00000170: 0000 0000 0000 0000 0000 0000 0000 0000
00000180: 0000 0000 0000 0000 0000 0000 7380 b9be
00000190: 0000 0000 0000 0000 0000 0000 0000 0000
000001a0: 2773 a23e 0000 0000 0000 0000 31b6 acbe
000001b0: 0000 0000 0000 0000 0000 0000 0000 0000
000001c0: 0000 0000 8123 a9be 0000 0000 1f00 ba3e
000001d0: 0000 0000 0000 0000 6a00 363f 0000 0000
000001e0: 0000 0000 0000 0000 0000 0000 0000 0000
000001f0: 0000 0000 0000 0000 0000 0000 f9fa c53e
00000200: 0000 0000 0000 0000 0000 0000 0000 0000
00000210: 0000 0000 0000 0000 0000 0000 444a 0cbf
00000220: 0000 0000 0000 0000 0000 0000 255d bb3e
00000230: 0000 0000 0000 0000 0000 0000 0000 0000
00000240: 0000 0000 0000 0000 0000 0000 0000 0000
00000250: 0000 0000 0000 0000 0000 0000 0000 0000
00000260: 0000 0000 0000 0000 0000 0000 0000 0000
00000270: 0000 0000 0000 0000 0000 0000 0000 0000
00000280: 0000 0000 0000 0000 0000 0000 0000 0000
00000290: 0000 0000 0000 0000 0000 0000 0000 0000
000002a0: 0000 0000 0000 0000 0000 0000 0000 0000
000002b0: 3cf4 fe3e d32e df3e 0000 0000 19b2 f0be
000002c0: 0000 0000 7756 c93e 0000 0000 0000 0000
000002d0: 0000 0000 0000 0000 0000 0000 0000 0000
000002e0: 0000 0000 0000 0000 0000 0000 0000 0000
000002f0: 0000 0000 0000 0000 0000 0000 0000 0000
00000300: 0000 0000 0000 0000 0000 0000 0000 0000
00000310: 0000 0000 7f49 f2be 0000 0000 0000 0000
00000320: 0a8f dfbe 190c b0be 0000 0000 0000 0000
00000330: 2051 b1be 063a c0be 0000 0000 0000 0000
00000340: 0000 0000 0000 0000 0000 0000 0000 0000
00000350: 0000 0000 0000 0000 0000 0000 0000 0000
00000360: 7c50 da3e 0000 0000 0000 0000 513f cdbe
00000370: 0000 0000 9ec6 0bbf 0000 0000 0000 0000
00000380: 0000 0000 0000 0000 0277 bc3e 0000 0000
00000390: 0000 0000 0000 0000 0000 0000 fc87 cfbe
000003a0: 0000 0000 0000 0000 5a78 f5be 0000 0000
000003b0: 0000 0000 0000 0000 0000 0000 0000 0000
000003c0: 0000 0000 0000 0000 0000 0000 0000 0000
000003d0: 0000 0000 0000 0000 0000 0000 0000 0000
000003e0: 0000 0000 0000 0000 0000 0000 0000 0000
000003f0: fb41 0abf 0000 0000 0000 0000 0000 0000
0.0 0.35263467 0.0 0.0 -0.4685848 0.0 0.48121947 0.0
0.0 0.0 0.0 0.0 0.0 0.0 0.0 0.0
0.0 0.0 -0.37686554 0.0 0.0 0.0 0.0 0.0
0.0 0.0 0.37181017 0.0 0.0 0.0 0.0 0.44887295
0.0 0.0 0.0 0.0 0.0 0.0 0.0 0.0
0.0 0.0 0.0 0.0 0.0 0.0 0.0 -0.5180819
-0.38047275 0.0 0.0 0.0 0.0 0.0 0.0 0.47957653
0.0 0.0 0.0 0.0 0.0 0.0 0.0 0.0
0.0 0.0 0.0 0.0 -0.44397503 0.0 0.0 0.0
0.0 -0.39500612 0.0 0.0 0.0 0.0 0.0 0.0
0.0 0.0 -0.5204114 0.0 0.0 0.7413466 0.0 0.0
0.0 0.0 0.0 0.45055294 0.0 0.0 0.0 0.0
0.0 0.0 0.0 -0.3623081 0.0 0.0 0.0 0.0
0.3172848 0.0 0.0 -0.3373275 0.0 0.0 0.0 0.0
0.0 -0.330349 0.0 0.36328217 0.0 0.0 0.7109438 0.0
0.0 0.0 0.0 0.0 0.0 0.0 0.0 0.3866804
0.0 0.0 0.0 0.0 0.0 0.0 0.0 -0.5480082
0.0 0.0 0.0 0.365945 0.0 0.0 0.0 0.0
0.0 0.0 0.0 0.0 0.0 0.0 0.0 0.0
0.0 0.0 0.0 0.0 0.0 0.0 0.0 0.0
0.0 0.0 0.0 0.0 0.0 0.0 0.0 0.0
0.0 0.0 0.0 0.0 0.4979571 0.43590412 0.0 -0.47010878
0.0 0.3932378 0.0 0.0 0.0 0.0 0.0 0.0
0.0 0.0 0.0 0.0 0.0 0.0 0.0 0.0
0.0 0.0 0.0 0.0 0.0 -0.47321698 0.0 0.0
-0.43663818 -0.3438423 0.0 0.0 -0.34632206 -0.37544268 0.0 0.0
0.0 0.0 0.0 0.0 0.0 0.0 0.0 0.0
0.4263953 0.0 0.0 -0.4008737 0.0 -0.5459994 0.0 0.0
0.0 0.0 0.36809546 0.0 0.0 0.0 0.0 -0.40533435
0.0 0.0 -0.47943383 0.0 0.0 0.0 0.0 0.0
0.0 0.0 0.0 0.0 0.0 0.0 0.0 0.0
0.0 0.0 0.0 0.0 -0.5400693 0.0 0.0 0.0

hidden.bias f4 [26]
00000000: e1e5 8240 29c5 8140 a97a 8340 8d63 8440
00000010: 73fe 7f40 4545 8540 14f2 8940 a6c2 7e40
00000020: f81f 8640 0273 8840 4ece 6f40 5c29 8740
00000030: 5f9b 8840 89f3 8540 3d82 8140 97b2 8340
00000040: 7d1f 7c40 8315 8540 510d 8440 0fcd 7940
00000050: 6983 8140 b268 8940 2dc0 8340 3953 8940
00000060: d352 8540 50c8 7740
4.0905614 4.0553174 4.108723 4.137152 3.9999053 4.1647058 4.3108006 3.9806304
4.1914024 4.264039 3.7469668 4.2237988 4.268966 4.1859784 4.047148 4.1155505
3.939422 4.158876 4.1266255 3.9031408 4.0472913 4.29403 4.117209 4.291409
4.1663604 3.871601

output.weight f4 [1024, 26]
00000000: 02ea d53e 4dd5 0ebf c47d 33be 6188 593e
00000010: 0153 51bf 7fbb e03d f256 88bf 1617 9e3f
00000020: 96c7 e63d 29cf 1f3f 4b4d d3bd 375e 38bf
00000030: 9402 be3e d74c 913e 8d0f 403f 99a4 c03e
00000040: 2548 033f 3a47 a4bd 91a2 373f 42e5 f23e
00000050: 22a0 12bf 8142 27bf 68f1 66bf 6562 d73d
00000060: edb3 66bf 15ef e83e ef36 37bd 7a06 ecbe
00000070: 5553 67bf 2d7b 373f 2ff7 d4be f13e 21be
00000080: 30c4 9dbf 5242 433f 4e9a 5abf 8708 3c3f
00000090: 5dd4 393f 55ab c7be 9a6e c73e 1770 733f
000000a0: fb59 cebd 1c27 4b3d 2c94 b73e 70cf f8bd
000000b0: 465a 87be ee2e 86bf 4b6e e93e 203f 37bf
000000c0: a305 2c3f d17c 353f 98ba 323c 3b65 013e
000000d0: e502 d9be 5dce d9be 57b7 80be 8c5b 4dbe
000000e0: f4e5 38be df54 1b3f b7cc 16be 4e67 66bf
000000f0: 1b4e 7c3e 7656 c0be 6027 41be 09ed 183f
00000100: e061 be3e e310 f63e e48b 3e3f 5b4e 40be
00000110: 42da 343f efc7 60be 8dc4 993e 1a4b 9b3e
00000120: cc60 fe3e e9b7 46bf b2dc 61bf 3eb0 1fbf
00000130: 1c16 11bf 16c4 db3f 8c24 93be 6837 41bf
00000140: e780 81bf b1ae c93d 6020 9e3d 5c36 0c3f
00000150: 7a65 4bbf 41bd aabf f777 f7bc f63b 433d
00000160: a61f 40bc ca84 353b 9d2b 5f3f aa4e 7ebe
00000170: 8d8f 323f d2d5 663e c578 4cbe dd16 243e
00000180: dda8 84be 0a9e 72bf c2d2 78be dd45 233f
00000190: b015 893e 9475 8d3e 7c89 5a3f b5e3 a13f
000001a0: 567a b1be fb0c 90be a239 5dbe 83a6 653f
000001b0: 8653 043f 5e29 223f 1481 7ebe 891e 2fbe
000001c0: 5bae 03bf a1d5 a53f c546 c03d b35b f4bd
000001d0: 0bd6 17be 3ef6 29bf b90a 98bc 3364 503f
000001e0: a955 8ebd bac2 3d3f 8f06 56bf 3fcf af3e
000001f0: 4474 20be 4111 ccbf 72d9 8abe 9c00 8b3d
00000200: 79a6 14be f9a9 073f 6cc1 f63e 4c44 d4be
00000210: e2e4 59be a2a1 c03f 0771 42bf cbde 4c3d
00000220: c1d6 8e3e 2d55 0abf ceec e1be 0d4a 233f
00000230: 1639 d6be de8c 51bf 7d45 65bf 2847 c4bc
00000240: d129 8d3f dda8 383f 3935 543f f102 703e
00000250: 7c6f 933d b38e 43bf 214d 693e 67e3 95be
00000260: 5590 9fbd cdb4 2dbf 5d18 de3c 43b6 ec3d
00000270: 09a4 d6bd 8d53 9dbf d047 22bf 3e00 dc3e
00000280: 7aee 8ebe 50e7 9abd 34a4 71be d183 53be
00000290: 098b 993f 7f80 9d3e f715 933c c187 f7bc
000002a0: 7e19 a63f a64d 7ebd d4f5 ed3c 8614 3cbf
000002b0: ea59 1dbd 12ea 163f 2b36 94bf fd92 253f
000002c0: 4195 473f fe32 c1be 094c 72be 8211 ee3e
000002d0: e601 babe 0309 2fbd ac97 143e f274 abbf
000002e0: df45 38be 4d22 a03f 0e66 0abf 0b26 c03e
000002f0: 737c 393e a7a0 6ebe 19f7 bb3e 0ed1 8fbf
00000300: 13df 263f 77a9 93bc e5cd 093f 9f49 b0be
00000310: 2cc4 ea3e 697c 86bf ced4 563f 53d1 ea3e
00000320: 8a59 f73e f8ca b8be 09ce bfbe 8c67 31be
00000330: 55fe e93e c4cd 383e 8353 0dbf e2d3 6abd
00000340: 2506 233f 6f44 44be 5385 b9bd 251b cd3e
00000350: 5665 473f 8648 543e 1e1c 11be 1e3b 86bf
00000360: d3e8 21bf 099b 4bbe e576 043f 19bd bbbf
00000370: 2f18 5c3f aac6 10bd b524 c1be 0ee9 093e
00000380: 2be9 6b3f fb8e 2f3f 8ee5 e53e f45c 03bf
00000390: 960f b8be c4f2 69be 8594 ad3b d89c cfbe
000003a0: 901f 46bf 1771 7a3f 3c1c 8e3f 01b1 a6be
000003b0: e6c8 84bd 1883 493c e3ff 73bf cff9 303f
000003c0: 5a7f 1cbd 1825 62bf 1018 b03d 564b ba3e
000003d0: 3f0c 113e e7e8 99bf 3a29 263f 0bd7 c23e
000003e0: a986 82be e689 253e 9c42 6cbf 4ed0 013f
000003f0: 641c a4be a158 21bd 5a62 803f a7eb 40bf
0.41780096 -0.5579422 -0.17528445 0.2124343 -0.8176728 0.10973262 -1.0651534 1.2350795
0.11268537 0.62425476 -0.10317477 -0.7201876 0.37111342 0.28378937 0.7502373 0.37625578
0.5128196 -0.08021398 0.7173243 0.47440535 -0.57275593 -0.6533585 -0.90212107 0.10516814
-0.90118295 0.45494905 -0.044730123 -0.4609869 -0.9036153 0.71672326 -0.41594836 -0.15746666
-1.2325497 0.7627307 -0.853917 0.7345051 0.72589666 -0.38997903 0.3895157 0.9509291
-0.10075756 0.049597844 0.35855234 -0.121489406 -0.2643606 -1.0483072 0.4559196 -0.71580696
0.671961 0.7089358 0.010908745 0.12636273 -0.4238502 -0.42540255 -0.25139877 -0.20054454
-0.1805647 0.6067638 -0.1472653 -0.9000138 0.2463917 -0.37565964 -0.18862677 0.59736687
0.37184048 0.4805976 0.74432206 -0.1877989 0.70645535 -0.21951269 0.3003277 0.30330735
0.49683225 -0.77624375 -0.8822738 -0.623783 -0.5667436 1.7169216 -0.2873882 -0.7547517
-1.0117463 0.09847773 0.07721019 0.54770446 -0.79451716 -1.3339006 -0.03020857 0.047664605
-0.011726296 0.0027697557 0.87175924 -0.24834695 0.6975029 0.22542503 -0.19967945 0.16024347
-0.25910082 -0.947724 -0.24299148 0.6377848 0.2677436 0.27628767 0.85366035 1.2647616
-0.34663647 -0.28134903 -0.21604016 0.897072 0.51689947 0.6334437 -0.24853927 -0.17101492
-0.5143792 1.2955819 0.09388498 -0.11931553 -0.14827745 -0.6639136 -0.0185598 0.8140289
-0.06949932 0.74125254 -0.8360376 0.34337804 -0.15669352 -1.5942765 -0.27119023 0.067872256
-0.1451663 0.5299373 0.48194444 -0.41458356 -0.21278718 1.5049326 -0.75953716 0.05001716
0.2789822 -0.5403622 -0.4412598 0.6378487 -0.41840428 -0.8185557 -0.89559156 -0.023959711
1.1028386 0.72132665 0.8289371 0.23438622 0.07198998 -0.76389617 0.22783329 -0.29275057
-0.07791201 -0.67854005 0.027111227 0.11558201 -0.10480506 -1.2291123 -0.6339083 0.42968935
-0.27916318 -0.075636506 -0.23597795 -0.20655753 1.1995555 0.30762097 0.01795481 -0.0302161
1.297653 -0.06208577 0.029047884 -0.73468816 -0.038415827 0.5895091 -1.1579031 0.6467741
0.7796212 -0.37734216 -0.23661818 0.46497732 -0.36329573 -0.042733204 0.14510983 -1.3395064
-0.17995404 1.2510468 -0.54061973 0.37529024 0.1811388 -0.23303472 0.36711958 -1.1235673
0.65184134 -0.018025143 0.53829795 -0.34431168 0.45852792 -1.0506717 0.83918464 0.45862827
0.483105 -0.36092353 -0.3746188 -0.17324656 0.45701852 0.18047243 -0.55205554 -0.057330973
0.6368125 -0.1916673 -0.09058633 0.40059772 0.77889 0.2073079 -0.14170882 -1.0486791
-0.63245887 -0.1988336 0.5174392 -1.4667083 0.859744 -0.03534571 -0.37723318 0.1346781
0.9215266 0.68577546 0.449017 -0.5131371 -0.3594939 -0.22846514 0.005297246 -0.4054935
-0.7739191 0.9782881 1.1102366 -0.32556918 -0.06483631 0.012299322 -0.9531233 0.6913118
-0.03820739 -0.8833785 0.085983396 0.36385602 0.14164828 -1.2024201 0.64906657 0.3805469
-0.25493363 0.16165885 -0.9228914 0.5070847 -0.3205291 -0.039391164 1.0030015 -0.75359577

output.bias f4 [1024]
00000000: e22d 25be 3ff5 433e 689a 56be d17e b8bd
00000010: 671d d73d aee0 a23d 56a6 0b3e db5c 0d3e
00000020: f14d 26be 684f 5c3d e4f8 c3bc 00e1 3cbd
00000030: 4bd8 fd3a 3c95 1b3e 0227 0bbd 49c5 30be
00000040: 166e 443d 2618 28be 867b 3c3d a1af 49bd
00000050: a1c7 113e 706e 56bc a176 05be fd56 0dbb
00000060: 8392 53bd de9d 61bd cceb 3b3e ed9c cd3d
00000070: 89d5 0abe a210 b93d 4104 973c d946 1b3e
00000080: 2e59 153d e480 91bd 151b 90bd 0e27 4bbe
00000090: 9f1b 93bd 5ab5 e2bc 8624 9a3d d815 cd3d
000000a0: fecd dabd f518 9bbd 7f60 043d 9ce3 5ebd
000000b0: 2823 c53d befb 4ebd ede7 d23d 8975 a3ba
000000c0: 37e2 c4bd e9de 85bd 4401 21be 8d85 073d
000000d0: 844d 62be 1eae d4bd 2aff 89bd 4999 0fbe
000000e0: bf51 073e 55bb 013e 732b 6f3d 1c2f 20bd
000000f0: f4ed 1f3e b75c 0dbe 429b 303e 6e0f 633d
00000100: 514b 01be 67e9 88bd fc5b 79bd 9fb5 f33d
00000110: c5b8 403e ee0d 4f3e 810f 193e a253 2cbe
00000120: cf11 1e3e 36d0 90bb 61b5 0d3e 09ca 5ebd
00000130: ac07 1fbe 5a6f 353e ae94 a33d 2746 cbbd
00000140: c421 19be 329b bfbd 1815 82bd fc9b 403d
00000150: 641a b0bd 7997 283e cb44 2c3b 0f52 48be
00000160: 2554 2fbe 9efd c0bc f716 c439 05e9 4f3d
00000170: 06ee 35be 0c87 b63d 476f b93d 8610 1cbe
00000180: 0129 82bc 1639 733d 1bd3 473d e63c 57be
00000190: a717 2ebe 8b35 e73d b2f7 1bbd 30b5 4d3e
000001a0: 4b6d f93d 55ac 90bd 0281 c5bc 2d6f a8bd
000001b0: 23b7 04bd f208 d2bc a9ce 333e edb5 e0bd
000001c0: 54f7 3bbe ba6d 85bd 3299 cf3d 6472 23be
000001d0: 67fb 54be 5480 7e3a ee14 783d dde3 bcbc
000001e0: 2df0 bfbd d0c9 cabd 4b6e c3bd 2437 0cbe
000001f0: ce0a 19bd 0aa1 23be 2cb7 a13c 8202 55be
00000200: 1175 853d f64d 133e e11c 2fbe cfb0 e5bd
00000210: 92a8 6e3d 4822 133e ca42 a83d 2a71 7e3d
00000220: 8753 b43d 91c8 623d 6dc5 0b3e fed2 77bd
00000230: 7553 28bd 1b09 b0ba 2dd0 763c e7d8 d4bd
00000240: 04c4 3fbd 5d19 b43d fef6 293e 1874 bd3d
00000250: 4497 08be 9a2f acbd b0b3 023e 5b0f 43be
00000260: a4fb d4bc a12a 3e3e 1588 1f3d c728 fdbd
00000270: 2333 62bd 815b e3bd a63f 4b3b fb55 11bd
00000280: 2e6f cc3d 821e f9bc ff0b d8bd 061a 2b3d
00000290: 89f4 02be ecf3 18be 5f13 333e 9416 06bd
000002a0: 13a0 083d c357 503d 8a78 0c3e 62a5 0e3d
000002b0: d7a7 e93d 60dd ab3d eb02 abbd 569e dfbd
000002c0: 15c6 18be 29b8 15bd 7bc9 ab3b d4b7 b0bb
000002d0: 52f0 da3d 9df2 a6bd ac1b 63bd d610 a1bc
000002e0: 7f8c 1dbe 6ccb f43c 2d00 27bb 1c94 063e
000002f0: c611 8d3d bb4f 303d 265f eb3d 107e 2f3d
00000300: 0a75 f7bc ea5d 383e d31c 903d aa2b 01be
00000310: cbb2 f2bc 93e3 acbd 889e e2bd 42dd 2dbd
00000320: b36c 643e 4f41 a7bd f042 b33d 6223 e9bc
00000330: 52f1 3a3e bfe7 213e 8c4e 6fbd 5a30 81bd
00000340: 9d50 873d e84c 5fbb 5e0a 10be b500 783e
00000350: 9db0 4dbd 368a c2bd 24fb 003e f81c bdbd
00000360: e14a d8bc f06a 243d a68e 5a3d c839 513d
00000370: 76b0 79bc fafc 2b3d 7b91 783e 2154 33be
00000380: 1e47 6fbd e172 19be 734e 063e 9de5 3bbd
00000390: 4c97 7abd 53e1 d9bd 7dce 88bd 2fb0 c43d
000003a0: 7b0a 17be baa7 663d 5fd8 863d 0aad 2e3e
000003b0: 4ebd 4d3d aa18 153d 9df0 97bd 6887 8e3c
000003c0: 30a7 27bd b8b0 b4bc 1f03 b9bd 1ba3 383d
000003d0: 3593 833d bcd3 28be 1d8c 1bbe 5b75 a33d
000003e0: b2fb 04be d1ed 0abe 002f 86ba 23f6 33be
000003f0: dd84 1bbe 7106 1bbd a13e fb3b b88d 1a3e
-0.16130784 0.19136523 -0.20957339 -0.09008563 0.10503655 0.079530105 0.13637671 0.13804953
-0.1624067 0.053786665 -0.023922391 -0.046113014 0.0019366828 0.15193647 -0.033972748 -0.17262758
0.04795655 -0.16415462 0.04601624 -0.04923976 0.14236309 -0.013087854 -0.13033535 -0.0021566742
-0.051653396 -0.055082195 0.18351668 0.10039697 -0.1355802 0.090363756 0.018434646 0.15163745
0.036462 -0.07104662 -0.070364155 -0.19839117 -0.07183003 -0.027674366 0.075264975 0.10013932
-0.10683821 -0.075731196 0.03231859 -0.054416284 0.09625846 -0.05053305 0.102981426 -0.0012470941
-0.096134596 -0.06536657 -0.15723139 0.03308635 -0.22099882 -0.10384773 -0.06738122 -0.14023317
0.13214777 0.12669118 0.058391046 -0.039107427 0.15618116 -0.13804899 0.17246726 0.055434637
-0.12626387 -0.06685143 -0.06087874 0.11899876 0.18820484 0.20220158 0.1494732 -0.16828778
0.15436481 -0.004419352 0.13838722 -0.054391894 -0.1553027 0.17718259 0.07987343 -0.0992549
-0.14954287 -0.09355773 -0.063516796 0.04702376 -0.085987836 0.16464032 0.002628612 -0.19562553
-0.17121942 -0.023558434 0.00037401143 0.050759334 -0.1776658 0.08912477 0.090544276 -0.15240678
-0.015888693 0.059380613 0.04878531 -0.21019325 -0.1700121 0.112895094 -0.038078018 0.20088649
0.12179049 -0.0706412 -0.024109367 -0.0822433 -0.032401215 -0.025639031 0.17559303 -0.109721996
-0.18356067 -0.06515069 0.101366416 -0.15961605 -0.20799027 0.00097084534 0.060566835 -0.023057872
-0.09371982 -0.09901774 -0.09542521 -0.1369291 -0.03736382 -0.159794 0.019740663 -0.20801738
0.06516469 0.14385208 -0.1710086 -0.11215364 0.05826623 0.14368546 0.08215864 0.06211964
0.08804994 0.055367056 0.1364953 -0.060503952 -0.041095216 -0.0013430448 0.015064281 -0.10392933
-0.046817794 0.087939 0.16598126 0.09250659 -0.13338953 -0.08407517 0.12763858 -0.19048826
-0.025998898 0.18570949 0.038948137 -0.12361293 -0.05522455 -0.11101437 0.003101328 -0.035482388
0.09982143 -0.030410055 -0.10549163 0.041772865 -0.12788595 -0.14936799 0.17487858 -0.032736376
0.033355784 0.050864946 0.13717857 0.03482569 0.11408966 0.08391833 -0.08350166 -0.10918872
-0.14919312 -0.036552582 0.005242524 -0.005393008 0.10690369 -0.081517436 -0.05544631 -0.019661348
-0.15385626 0.029882155 -0.0025482283 0.13142437 0.06888156 0.043044787 0.114927575 0.042844832
-0.030207176 0.18004575 0.07036748 -0.12614313 -0.02962627 -0.08441844 -0.11065394 -0.042447336
0.2230709 -0.081667535 0.08753002 -0.028459255 0.18256119 0.1581106 -0.058424518 -0.063080505
0.06607173 -0.003407294 -0.14066455 0.2421902 -0.05021726 -0.09499018 0.12595803 -0.09234041
-0.026402893 0.040141046 0.053358696 0.051080495 -0.0152398255 0.041989304 0.24274246 -0.17512561
-0.058417432 -0.14985229 0.13115864 -0.045873273 -0.061179444 -0.1063868 -0.066800095 0.09603917
-0.14750092 0.0563123 0.06584238 0.17058197 0.050229363 0.036400475 -0.0741894 0.017398551
-0.040930927 -0.022056922 -0.090337984 0.045077424 0.06424562 -0.1648702 -0.15190168 0.07981368
-0.12986639 -0.13567282 -0.0010237396 -0.17574362 -0.15187402 -0.03784794 0.007667378 0.15093124
