Hamming74/Result/Model/SLNN_modified_neuron7_cpu_hidden.weight/SLNN_model_modified_hiddenlayer7_threshold31_BER0.pth (torch, 3296 bytes, 4 tensors)

hidden.weight f4 [7, 7]
0	0x3f14a7ee	0.5806874
1	0x00000000	0.0
2	0x3f383275	0.7195199
3	0x00000000	0.0
4	0x00000000	0.0
5	0x3f342ed5	0.7038396
6	0x00000000	0.0
7	0x00000000	0.0
8	0x00000000	0.0
9	0x00000000	0.0
10	0x3f441160	0.7658901
11	0x00000000	0.0
12	0x3f380e5e	0.7189692
13	0x00000000	0.0
14	0x00000000	0.0
15	0x00000000	0.0
16	0x00000000	0.0
17	0x00000000	0.0
18	0xbf8ea09b	-1.1142763
19	0x00000000	0.0
20	0x00000000	0.0
21	0x3efe78b5	0.49701467
22	0x00000000	0.0
23	0xbee66fe8	-0.45007253
24	0x00000000	0.0
25	0x00000000	0.0
26	0x00000000	0.0
27	0xbf6657be	-0.89977634
28	0x00000000	0.0
29	0x3f9a4af8	1.2054129
30	0x00000000	0.0
31	0x00000000	0.0
32	0x00000000	0.0
33	0x00000000	0.0
34	0x00000000	0.0
35	0x3f272132	0.6528503
36	0x00000000	0.0
37	0x3f290bfa	0.660339
38	0x3f1ba55c	0.60799193
39	0x00000000	0.0
40	0xbf0c42a0	-0.5478916
41	0x00000000	0.0
42	0xbf28012a	-0.65626776
43	0x00000000	0.0
44	0x3f0aee9e	0.5427035
45	0x00000000	0.0
46	0x00000000	0.0
47	0x00000000	0.0
48	0xbf1fbe7d	-0.6240004

hidden.bias f4 [7]
0	0x4020e615	2.514043
1	0x402baf94	2.6825914
2	0x4028f0be	2.6396937
3	0x402c515e	2.6924663
4	0x4021c79e	2.5278087
5	0x40242feb	2.5654247
6	0x403214a6	2.7825103

output.weight f4 [16, 7]
0	0xbf6e9a0e	-0.9320382
1	0xbfa2a67e	-1.2707059
2	0x3f90e637	1.1320256
3	0x3f85f42e	1.0465143
4	0xbf6272b6	-0.88456285
5	0xbf2bd1ff	-0.67117304
6	0x3f26e6c4	0.6519587
7	0xbf8b78bd	-1.0896221
8	0x3f4d3011	0.8015147
9	0x3f678441	0.9043618
10	0x3e847256	0.2586848
11	0x3f48413d	0.78224546
12	0x3f6f84ad	0.9356182
13	0xbfbab32b	-1.4585928
14	0xbf5406f4	-0.8282311
15	0x3f6e200f	0.9301767
16	0xbdcc4705	-0.099744834
17	0x3f767141	0.9626656
18	0x3f82ecd0	1.022852
19	0xbf44bbbc	-0.7684896
20	0x3f8ebcbf	1.1151351
21	0x3f55b319	0.83476406
22	0x3f4a7636	0.79086626
23	0x3f78159d	0.9690798
24	0x3ee38bbe	0.44442552
25	0xbf8dfc41	-1.1092607
26	0xbf6e1515	-0.9300092
27	0xbfa90df5	-1.3207384
28	0xbf6d8609	-0.92782646
29	0xbea9465c	-0.33061492
30	0xbf9d096c	-1.22685
31	0x3fad91b2	1.3560088
32	0xbf5b43e1	-0.8565045
33	0x3fa644d7	1.2989758
34	0xbf19550f	-0.59895414
35	0xbf7becde	-0.98408306
36	0xbf90f5bf	-1.1324996
37	0x3de795c1	0.1130786
38	0xbf6d2cb3	-0.9264633
39	0x3f7822ee	0.969283
40	0xbf34eb1d	-0.70671254
41	0xbf81764c	-1.0114226
42	0x3f6db47c	0.9285352
43	0xbf1755a6	-0.59115064
44	0xbfa2ac50	-1.2708836
45	0x3f9f1e53	1.2431129
46	0x3f68bda2	0.90914357
47	0xbf387a62	-0.7206174
48	0xbf6fd73b	-0.9368779
49	0xbf55467a	-0.83310664
50	0x3fa3d121	1.2798196
51	0xbf9162cd	-1.1358277
52	0xbf3486c1	-0.7051812
53	0xbf40fac4	-0.7538264
54	0xbf213235	-0.62967235
55	0x3b8b14e0	0.004244432
56	0x3f53ba2a	0.8270594
57	0xbfc7c16d	-1.5605904
58	0x3f79573a	0.9739872
59	0x3f2a27f6	0.66467226
60	0x3f40f8f2	0.7537986
61	0x3f8027b7	1.001212
62	0xbb2baac9	-0.0026194325
63	0xbf6ebede	-0.9325999
64	0x3ead1dd5	0.33811823
65	0x3f8e9db0	1.1141872
66	0xbfa7a617	-1.3097562
67	0xbf7b9d73	-0.98287123
68	0x3f8dd7f2	1.1081526
69	0x3f723632	0.94613945
70	0x3f7bfc17	0.98431534
71	0x3f5b3731	0.8563109
72	0xbe8bb4ca	-0.2728637
73	0x3f531ab1	0.824626
74	0xbf5fd0c7	-0.87427944
75	0x3f867de6	1.0507171
76	0x3f65eff3	0.8981926
77	0x3f7480d5	0.9550908
78	0x3dc957ea	0.098312214
79	0x3f8031a0	1.0015144
80	0xbfb8731a	-1.4410126
81	0x3f630157	0.8867392
82	0xbf6fb95c	-0.9364221
83	0x3f0e752d	0.55647546
84	0xbf4c7208	-0.798615
85	0xbf870e87	-1.0551308
86	0xbf88d4aa	-1.06899
87	0xbee7541f	-0.45181367
88	0x3f90dfc5	1.1318289
89	0x3f9d8c30	1.2308407
90	0x3fa5abb2	1.2943022
91	0x3f5ee3f0	0.87066555
92	0xbf9c924d	-1.2232147
93	0x3cb3a60b	0.021929761
94	0xbf891d15	-1.0712
95	0xbf811307	-1.0083932
96	0x3f94fb18	1.1639128
97	0xbf8e074f	-1.109598
98	0x3f8768d5	1.0578867
99	0xbf8536df	-1.040737
100	0xbf892a28	-1.071599
101	0xbead7117	-0.33875343
102	0xbf48206c	-0.7817447
103	0xbf1fa50c	-0.62361217
104	0x3fb83431	1.4390928
105	0x3f6b36cb	0.9188048
106	0x3f793f1a	0.9736191
107	0xbfa4cf75	-1.2875811
108	0xbf8ff201	-1.1245729
109	0x3f696ac8	0.9117856
110	0x3f82872e	1.0197504
111	0xbf24e86e	-0.6441716

output.bias f4 [16]
0	0x3ffbac50	1.9661961
1	0xc04d0c90	-3.2038918
2	0xc0c9625d	-6.293257
3	0x3f348808	0.7052007
4	0x404020e7	3.0020082
5	0x4115e9be	9.369566
6	0x3f81d597	1.0143307
7	0x40deca8e	6.962226
8	0xc0d960db	-6.793073
9	0xbf87eda2	-1.0619395
10	0xc115c72f	-9.361129
11	0xc03efea9	-2.9842932
12	0xbf390050	-0.722661
13	0x40c85157	6.259929
14	0x4046cbe6	3.106195
15	0xbffe5542	-1.9869769
