Result/Model/SLNN/SLNN_7/SLNN_model_BER4.0.pth (torch, 2976 bytes, 4 tensors)

hidden.weight f4 [7, 7]
000000 4d 63 35 be 2e 5c ec bd c0 67 0b 40 44 54 ec bd
       -0.17713661 -0.115410194 2.1782074 -0.1153951
000010 01 4d 0e 3e af ed 54 be 87 6c 0d 3e 29 9e 4b be
       0.13896562 -0.20793794 0.13810931 -0.19884552
000020 16 ef 91 bd 33 85 8a 3d 5b 2e 8c bf 4f e1 95 3f
       -0.0712568 0.06763687 -1.0951647 1.1709384
000030 d2 c5 92 bf 57 23 64 bf 14 5e 55 be d7 70 5f be
       -1.146662 -0.89116424 -0.20836669 -0.21820389
000040 a7 d6 55 3e a2 81 92 bf 1f e3 9b 3f 4c 82 4f 3f
       0.20882665 -1.1445811 1.2178687 0.8105819
000050 be 16 91 3f 82 dd 0d c0 fe 0e 4e bd 99 3e 28 3d
       1.1335065 -2.2166448 -0.050307266 0.041075323
000060 2a a7 df bd 0e 3b 82 3e e6 45 f9 bd 44 93 bf 3d
       -0.10920556 0.2543568 -0.12171535 0.093542606
000070 27 06 6c be 4b df 0c c0 ae 66 99 3e 92 fb c7 bd
       -0.23049222 -2.2011287 0.2996115 -0.0976478
000080 af 8a 4b 3e 2b 82 5f be 1b 14 0a 3e 52 1d 55 be
       0.19877122 -0.21826999 0.13484232 -0.20811966
000090 b4 02 9c bd 7e 56 c8 3d 1d 5a 68 3f f9 6d 95 3f
       -0.07617703 0.09782122 0.907625 1.1674186
0000a0 05 8e 9a bf 52 26 96 3f e9 d2 6a be fa 1c 0a be
       -1.2074591 1.1730444 -0.22932018 -0.13487616
0000b0 cb ec 04 3e f6 e4 9a bf 58 d8 47 bf 55 41 9d bf
       0.12980954 -1.2101123 -0.7806449 -1.2285563
0000c0 8d 96 97 3f
       1.184282

hidden.bias f4 [7]
000000 92 0b 3d 40 ec ba 45 40 12 71 3c 40 54 c2 42 40
       2.9538312 3.0895338 2.9444013 3.0431108
000010 66 19 3b 40 1c ba 40 40 5b c8 3b 40
       2.9234252 3.0113592 2.9341037

output.weight f4 [16, 7]
000000 98 c1 b8 bf 59 14 a9 3f 6a 5d ba bf fd d1 a0 3f
       -1.443408 1.3209335 -1.4559758 1.2564083
000010 20 ce a1 3f 58 f8 cb bf 9c c1 b3 3f ae eb 8d bf
       1.2641029 -1.5935163 1.404346 -1.1087549
000020 f5 19 83 bf 6a 9d 8c bf cc 89 86 bf cd 49 9f bf
       -1.0242296 -1.0985539 -1.0510802 -1.2444397
000030 47 2a d1 3f 42 52 c5 3f ec 72 6c bf 21 db 64 bf
       1.6341027 1.5415728 -0.92362857 -0.89396864
000040 db ba 79 bf 15 04 fb 3f 30 8e 80 bf ce 7d 61 bf
       -0.97550744 1.9610621 -1.0043392 -0.8808259
000050 70 b1 71 bf 06 2d ca bf 8e cb ad bf 9a 82 c2 3f
       -0.94411373 -1.579499 -1.3577745 1.5196106
000060 09 68 a8 bf 46 aa 9c 3f f7 a9 b1 bf 35 a8 be 3f
       -1.3156749 1.2239463 -1.3879994 1.4895083
000070 d4 1e b2 bf c4 24 cb 3f 7a 41 88 bf be f8 b7 bf
       -1.3915658 1.5870595 -1.0644982 -1.4372785
000080 75 4b ca 3f f5 3e bd 3f 14 22 ba bf 89 21 cd bf
       1.5804278 1.4784838 -1.454165 -1.6025859
000090 fd 5f 90 3f ee ab a6 3f ec 69 85 3f 66 36 c9 bf
       1.1279293 1.3021219 1.042295 -1.5719726
0000a0 09 8e 8e 3f 3e e6 95 3f 03 2e a1 bf 8a a2 e2 3f
       1.1137096 1.1710889 -1.2592167 1.7705853
0000b0 69 d9 df 3f e0 6d 8c bf 71 e4 a9 bf dd 49 95 bf
       1.7488223 -1.0971031 -1.327284 -1.1663166
0000c0 ca e2 9b bf 18 78 cf bf ce 82 c2 bf 62 94 bc 3f
       -1.2178586 -1.6208525 -1.5196168 1.4732783
0000d0 3b ea 9f 3f cb 99 a8 3f c0 34 ac 3f de 79 b0 bf
       1.2493356 1.3171934 1.3453598 -1.3787191
0000e0 74 8b bb 3f aa 0b cc 3f 24 22 9d bf 88 ef a1 bf
       1.4651933 1.594106 -1.2276044 -1.2651224
0000f0 43 95 ad bf 7a cd b1 bf dd 93 b3 3f 17 e9 8f 3f
       -1.3561176 -1.3890831 1.4029499 1.1243008
000100 f7 cf dc bf 16 ea bc bf 32 91 8b 3f 71 ef 99 3f
       -1.7250966 -1.4758937 1.0903685 1.2026197
000110 db 0a 88 3f 55 6b 95 3f 78 a8 b9 3f b4 2c 8b bf
       1.0628313 1.167338 1.4504538 -1.0873017
000120 f7 d0 85 bf b3 c3 93 bf 47 dd c5 3f 2f 09 8f bf
       -1.0454396 -1.1544098 1.5458153 -1.1174678
000130 41 0b 97 bf 3b a0 a1 3f 0c 80 ca bf 13 d1 ab 3f
       -1.180031 1.2627023 -1.5820327 1.3423179
000140 a0 57 b3 3f 50 62 cc bf 5d 47 c2 bf ce a5 b7 3f
       1.4011116 -1.5967503 -1.5178028 1.4347475
000150 84 dd b6 3f d6 84 b5 3f 24 12 ac bf a6 af a2 3f
       1.4286351 1.4181163 -1.3443036 1.2709854
000160 59 d9 aa bf 85 7a ab 3f 6d ad c0 bf 9a 48 49 3f
       -1.3347579 1.3396765 -1.5052925 0.78626406
000170 21 70 6a 3f e9 67 9a 3f 70 88 f5 bf e7 86 72 3f
       0.91577345 1.2062961 -1.9182262 0.94737095
000180 de fb 5c 3f ef 79 82 3f e9 60 81 3f 6f fe 95 3f
       0.8632182 1.0193461 1.01077 1.1718272
000190 d7 78 a6 3f 79 11 8a 3f 43 0c 92 3f d0 cd db bf
       1.3005627 1.0786582 1.1409992 -1.7172184
0001a0 1c 3e c2 bf dc 7d b1 3f 09 bd a7 bf a6 c2 db 3f
       -1.5175204 1.3866534 -1.3104564 1.7168777
0001b0 b4 19 a3 bf 18 dd b9 bf 07 7c ca 3f 77 2b b4 bf
       -1.2742219 -1.4520597 1.58191 -1.4075764

output.bias f4 [16]
000000 75 9f 16 c0 2e af e7 40 88 e1 30 41 2e 79 89 40
       -2.3534825 7.2401342 11.055061 4.2960424
000010 99 41 fa 3f 90 57 f2 c0 8c 4d e4 40 8e 6c 1b c0
       1.9551269 -7.573189 7.134466 -2.4285007
000020 97 2a 08 40 a4 fe de c0 eb d3 f4 40 96 04 0c c0
       2.1275995 -6.968584 7.650869 -2.18778
000030 c8 f3 97 c0 63 5c 2b c1 c6 a0 e7 c0 90 54 07 40
       -4.7485085 -10.710055 -7.2383757 2.1145363
