Hamming74/Result/Model/SLNN_modified_neuron7_cpu_('hidden.weight', 'output.weight')/SLNN_model_modified_hiddenlayer7_threshold41_BER0.pth (torch, 3296 bytes, 4 tensors)

hidden.weight f4 [7, 7]
0.5806874 0.0 0.7195199 -0.5114601 0.0 0.7038396 0.0 0.0
0.0 0.0 0.7658901 -0.46762607 0.7189692 0.343012 0.0 0.0
0.0 -0.2663102 -1.1142763 -0.3481817 0.31533137 0.49701467 0.0 -0.45007253
0.0 -0.3753906 0.0 -0.89977634 0.0 1.2054129 0.0 0.0
0.0 0.0 0.0 0.6528503 0.0 0.660339 0.60799193 0.0
-0.5478916 0.0 -0.65626776 0.0 0.5427035 0.2939818 -0.3917158 0.0
-0.6240004
00000000: eea7 143f 0000 0000 7532 383f 0def 02bf
00000010: 0000 0000 d52e 343f 0000 0000 0000 0000
00000020: 0000 0000 0000 0000 6011 443f af6c efbe
00000030: 5e0e 383f 459f af3e 0000 0000 0000 0000
00000040: 0000 0000 cf59 88be 9ba0 8ebf df44 b2be
00000050: 1d73 a13e b578 fe3e 0000 0000 e86f e6be
00000060: 0000 0000 3233 c0be 0000 0000 be57 66bf
00000070: 0000 0000 f84a 9a3f 0000 0000 0000 0000
00000080: 0000 0000 0000 0000 0000 0000 3221 273f
00000090: 0000 0000 fa0b 293f 5ca5 1b3f 0000 0000
000000a0: a042 0cbf 0000 0000 2a01 28bf 0000 0000
000000b0: 9eee 0a3f c884 963e f98e c8be 0000 0000
000000c0: 7dbe 1fbf

hidden.bias f4 [7]
2.514043 2.6825914 2.6396937 2.6924663 2.5278087 2.5654247 2.7825103
00000000: 15e6 2040 94af 2b40 bef0 2840 5e51 2c40
00000010: 9ec7 2140 eb2f 2440 a614 3240

output.weight f4 [16, 7]
-0.9320382 -1.2707059 1.1320256 1.0465143 -0.88456285 -0.67117304 0.6519587 -1.0896221
0.8015147 0.9043618 0.0 0.78224546 0.9356182 -1.4585928 -0.8282311 0.9301767
0.0 0.9626656 1.022852 -0.7684896 1.1151351 0.83476406 0.79086626 0.9690798
0.0 -1.1092607 -0.9300092 -1.3207384 -0.92782646 0.0 -1.22685 1.3560088
-0.8565045 1.2989758 0.0 -0.98408306 -1.1324996 0.0 -0.9264633 0.969283
-0.70671254 -1.0114226 0.9285352 0.0 -1.2708836 1.2431129 0.90914357 -0.7206174
-0.9368779 -0.83310664 1.2798196 -1.1358277 -0.7051812 -0.7538264 -0.62967235 0.0
0.8270594 -1.5605904 0.9739872 0.66467226 0.7537986 1.001212 0.0 -0.9325999
0.0 1.1141872 -1.3097562 -0.98287123 1.1081526 0.94613945 0.98431534 0.8563109
0.0 0.824626 -0.87427944 1.0507171 0.8981926 0.9550908 0.0 1.0015144
-1.4410126 0.8867392 -0.9364221 0.0 -0.798615 -1.0551308 -1.06899 0.0
1.1318289 1.2308407 1.2943022 0.87066555 -1.2232147 0.0 -1.0712 -1.0083932
1.1639128 -1.109598 1.0578867 -1.040737 -1.071599 0.0 -0.7817447 0.0
1.4390928 0.9188048 0.9736191 -1.2875811 -1.1245729 0.9117856 1.0197504 0.0
00000000: 0e9a 6ebf 7ea6 a2bf 37e6 903f 2ef4 853f
00000010: b672 62bf ffd1 2bbf c4e6 263f bd78 8bbf
00000020: 1130 4d3f 4184 673f 0000 0000 3d41 483f
00000030: ad84 6f3f 2bb3 babf f406 54bf 0f20 6e3f
00000040: 0000 0000 4171 763f d0ec 823f bcbb 44bf
00000050: bfbc 8e3f 19b3 553f 3676 4a3f 9d15 783f
00000060: 0000 0000 41fc 8dbf 1515 6ebf f50d a9bf
00000070: 0986 6dbf 0000 0000 6c09 9dbf b291 ad3f
00000080: e143 5bbf d744 a63f 0000 0000 deec 7bbf
00000090: bff5 90bf 0000 0000 b32c 6dbf ee22 783f
000000a0: 1deb 34bf 4c76 81bf 7cb4 6d3f 0000 0000
000000b0: 50ac a2bf 531e 9f3f a2bd 683f 627a 38bf
000000c0: 3bd7 6fbf 7a46 55bf 21d1 a33f cd62 91bf
000000d0: c186 34bf c4fa 40bf 3532 21bf 0000 0000
000000e0: 2aba 533f 6dc1 c7bf 3a57 793f f627 2a3f
000000f0: f2f8 403f b727 803f 0000 0000 debe 6ebf
00000100: 0000 0000 b09d 8e3f 17a6 a7bf 739d 7bbf
00000110: f2d7 8d3f 3236 723f 17fc 7b3f 3137 5b3f
00000120: 0000 0000 b11a 533f c7d0 5fbf e67d 863f
00000130: f3ef 653f d580 743f 0000 0000 a031 803f
00000140: 1a73 b8bf 5701 633f 5cb9 6fbf 0000 0000
00000150: 0872 4cbf 870e 87bf aad4 88bf 0000 0000
00000160: c5df 903f 308c 9d3f b2ab a53f f0e3 5e3f
00000170: 4d92 9cbf 0000 0000 151d 89bf 0713 81bf
00000180: 18fb 943f 4f07 8ebf d568 873f df36 85bf
00000190: 282a 89bf 0000 0000 6c20 48bf 0000 0000
000001a0: 3134 b83f cb36 6b3f 1a3f 793f 75cf a4bf
000001b0: 01f2 8fbf c86a 693f 2e87 823f 0000 0000

output.bias f4 [16]
1.9661961 -3.2038918 -6.293257 0.7052007 3.0020082 9.369566 1.0143307 6.962226
-6.793073 -1.0619395 -9.361129 -2.9842932 -0.722661 6.259929 3.106195 -1.9869769
00000000: 50ac fb3f 900c 4dc0 5d62 c9c0 0888 343f
00000010: e720 4040 bee9 1541 97d5 813f 8eca de40
00000020: db60 d9c0 a2ed 87bf 2fc7 15c1 a9fe 3ec0
00000030: 5000 39bf 5751 c840 e6cb 4640 4255 febf
