Result/Model/Hamming7_4/MLNN_cpu/MLNN_hiddenlayer16.pth (torch, 2984 bytes, 4 tensors)

hidden.weight f4 [16, 7]
-0.74496955 0.7606273 0.53361034 -0.6404313 -0.6974889 0.55244017 0.65323615 -0.7782276
-0.7080309 0.7169968 0.7734467 -0.66965914 -0.5784424 0.6280481 -0.73435235 0.7318957
-0.6429339 -0.70692 0.54442084 -0.39847764 0.6036117 0.07180319 -0.3393232 0.013321769
-0.6007464 0.40816203 0.7931983 0.8852931 0.7331365 0.8375978 -0.6335424 -0.79109925
0.69848216 0.5473461 -0.7171253 -0.6850051 0.67896694 -0.71609545 -0.86470723 0.81656694
-0.77403224 0.6293753 0.23744842 0.810222 0.70463 0.12003427 -0.0371008 -0.6514758
0.5835363 0.22169678 0.41920164 -0.5023216 0.5698011 -0.4226783 -0.7251972 -0.90165997
-0.78072447 0.6794088 0.7003896 -0.86734664 -0.6405654 0.54278636 0.73966646 -0.30832085
0.2759511 -0.776891 0.93541795 0.6516249 0.16017431 0.3585364 -0.52217376 0.36748013
-0.79518795 -0.5772098 -0.68840325 0.21644138 0.74388677 0.73422915 0.7396136 0.5463949
-0.6469066 -0.62530863 -0.47984788 -0.52533203 0.50983596 0.18169947 0.03961319 0.41494083
-0.9727533 0.9060796 0.530793 -0.17965832 0.40707192 0.868688 0.4430795 -0.41020572
0.60648763 -0.5986902 0.71875066 0.60012984 0.8097854 -0.95679986 -0.7602892 -0.57485974
-0.71875167 0.5521552 -0.4743144 -0.57733834 -0.58624285 -0.60481006 0.78536546 0.7272429
00000000: 53b6 3ebf 79b8 423f b09a 083f 4ef3 23bf
00000010: a28e 32bf b86c 0d3f 7c3a 273f ed39 47bf
00000020: 8341 35bf 1a8d 373f 9a00 463f c86e 2bbf
00000030: cd14 14bf c3c7 203f 84fe 3bbf 845d 3b3f
00000040: 5197 24bf b6f8 34bf 2a5f 0b3f 4305 ccbe
00000050: 4c86 1a3f 8d0d 933d c5bb adbe 8d43 5a3c
00000060: 84ca 19bf 9dfa d03e 0b0f 4b3f 92a2 623f
00000070: d5ae 3b3f cf6c 563f d62f 22bf 7b85 4abf
00000080: bacf 323f e01e 0c3f 8695 37bf 7f5c 2fbf
00000090: c7d0 2d3f 0852 37bf 745d 5dbf 880a 513f
000000a0: fa26 46bf bd1e 213f ae25 733e b66a 4f3f
000000b0: a262 343f 87d4 f53d 02f7 17bd 1ec7 26bf
000000c0: a362 153f 7b04 633e 99a1 d63e 2698 00bf
000000d0: 7cde 113f 4a69 d8be 86a6 39bf 30d3 66bf
000000e0: 8fdd 47bf bced 2d3f bc4c 333f 6e0a 5ebf
000000f0: 18fc 23bf 0cf4 0a3f c85a 3d3f 3bdc 9dbe
00000100: 7649 8d3e 54e2 46bf 8d77 6f3f e4d0 263f
00000110: bc04 243e 1592 b73e 2ead 05bf 5b26 bc3e
00000120: 7091 4bbf 05c4 13bf 323b 30bf cfa2 5d3e
00000130: 5d6f 3e3f 71f6 3b3f 5157 3d3f 89e0 0b3f
00000140: ac9b 25bf 3a14 20bf 9fae f5be 297c 06bf
00000150: 9c84 023f 6d0f 3a3e 7141 223d 2073 d43e
00000160: 5c06 79bf d5f4 673f 0de2 073f 5af8 37be
00000170: bb6b d03e 5662 5e3f 51db e23e 7c06 d2be
00000180: c642 1b3f c343 19bf 0b00 383f 1ca2 193f
00000190: 194e 4f3f d6f0 74bf 50a2 42bf 022a 13bf
000001a0: 1c00 38bf 0b5a 0d3f 56d9 f2be 72cc 13bf
000001b0: 0314 16bf d5d4 1abf b60d 493f 972c 3a3f

hidden.bias f4 [16]
2.227831 -2.8460643 2.2959418 1.3759413 -2.94646 -2.8185105 2.666703 2.169001
-2.8252583 2.6544359 3.187418 2.0913808 3.0144982 2.585908 -2.9122202 2.632152
00000000: c894 0e40 eb25 36c0 b6f0 1240 d81e b03f
00000010: cd92 3cc0 7a62 34c0 43ab 2a40 ead0 0a40
00000020: 08d1 34c0 47e2 2940 a8fe 4b40 2fd9 0540
00000030: 8aed 4040 847f 2540 d161 3ac0 2e75 2840

output.weight f4 [4, 16]
-0.8326782 1.3952906 1.4196012 -0.23312959 -1.3074423 -1.3786212 1.1861143 -0.34938774
1.2411474 -1.2171755 -1.0311261 -1.0611688 -0.10617402 1.719557 1.5818169 0.91143733
1.318147 -1.2570289 -0.97073627 0.30272278 1.3438181 1.3416889 0.056459546 -0.527142
-1.1158134 1.9029272 -1.245782 0.9073346 -1.6717118 -0.4088287 -1.7086174 0.7559644
-1.1362598 -1.1465999 0.79808474 0.9481321 1.1734762 -1.3617197 -1.4531658 -1.1530424
1.3232166 0.14132218 0.45481887 0.8698919 1.6777781 0.8081239 -1.1453673 -1.3776414
-1.0300834 1.2783942 -1.2853402 0.9799779 -1.387224 1.1096934 0.6827495 -1.3808736
1.345447 0.6311276 1.9064946 0.9776834 0.6181247 -0.8737752 -1.4565548 -1.4892039
00000000: 662a 55bf e298 b23f 7eb5 b53f 86b9 6ebe
00000010: 455a a7bf a976 b0bf 98d2 973f f3e2 b2be
00000020: ebdd 9e3f 68cc 9bbf f1fb 83bf 61d4 87bf
00000030: c471 d9bd 721a dc3f fa78 ca3f f553 693f
00000040: 0ab9 a83f 53e6 a0bf 2c82 78bf 7bfe 9a3e
00000050: 3b02 ac3f 76bc ab3f 2042 673d c7f2 06bf
00000060: f9d2 8ebf 1e93 f33f c975 9fbf 1547 683f
00000070: a7fa d5bf ff51 d1be fab3 dabf e286 413f
00000080: f670 91bf c9c3 92bf 484f 4c3f c9b8 723f
00000090: 7834 963f d54c aebf 5601 babf e596 93bf
000000a0: 295f a93f c3b6 103e 05de e83e 3cb1 5e3f
000000b0: 6fc1 d63f 35e1 4e3f 659b 92bf 8e56 b0bf
000000c0: c6d9 83bf 6ca2 a33f 0786 a4bf d5df 7a3f
000000d0: 8e90 b1bf 6f0a 8e3f acc8 2e3f 77c0 b0bf
000000e0: 9b37 ac3f 9491 213f 0408 f43f 7649 7a3f
000000f0: 6c3d 1e3f bbaf 5fbf 6370 babf 3c9e bebf

output.bias f4 [4]
-1.3296051 0.9454808 -1.2896904 -0.5445647
00000000: 8030 aabf 080b 723f 9314 a5bf 9868 0bbf
