Hamming74/Result/Model/SLNN_modified_CPU/SLNN_model_modified_hiddenlayer31_BER0_threshold0.01.pth (torch, 5688 bytes, 4 tensors)

hidden.weight f4 [31, 7]
000000 25 42 d5 3e 15 8e 12 bf 4e 8f 00 3f 1e 22 3b bf
       0.41652027 -0.5724805 0.50218666 -0.73098934
000010 9a 8b 32 3f 62 82 0a bf c7 4c df 3e 1e db 37 3c
       0.69744265 -0.541052 0.43613264 0.011221675
000020 01 43 c3 be e7 7c 26 bf 65 75 c7 3e a2 0e eb 3e
       -0.38137057 -0.65034336 0.38956752 0.459096
000030 41 2b e3 3d c1 89 b2 be 6e e5 85 be c3 5f ca be
       0.110922344 -0.34870723 -0.26151603 -0.39526185
000040 b7 ca 6e 3e 6e e0 05 3f b3 a6 b9 bd 0b c7 91 be
       0.23319517 0.5229558 -0.090649985 -0.2847217
000050 54 45 9d 3e f8 58 90 3d 4a 6a 80 3d c1 67 df bc
       0.30716956 0.070482194 0.06270273 -0.027271153
000060 19 21 bc be 00 00 00 00 ee 67 00 3e 16 b8 4e bd
       -0.36744002 0.0 0.12539646 -0.050468527
000070 26 a2 28 be eb 92 34 3e 9d de 54 bd e4 35 d5 3d
       -0.16468105 0.1763417 -0.051970113 0.104106694
000080 20 4f a3 3d 88 94 6d bc 41 95 a6 be 22 8d 3a be
       0.07974076 -0.014500745 -0.32535747 -0.182179
000090 cd 29 ae 3e dc 28 2c 3f e6 ca 9f 3e 0b ad 6a 3e
       0.34016266 0.67249846 0.31209487 0.22917573
0000a0 2a c0 e1 3e 94 d2 d9 3e 30 3e 93 3e c3 a3 5e be
       0.44091922 0.4254347 0.28758383 -0.21742158
0000b0 02 67 ac 3e 7d c4 57 be 88 0b 05 be 92 90 6a bd
       0.3367234 -0.21071048 -0.1299268 -0.05726678
0000c0 10 57 3e be a3 13 bb be 92 61 e0 be 77 e8 fa be
       -0.18587899 -0.3653842 -0.4382444 -0.49005482
0000d0 2b 57 31 bf b4 58 88 3e c7 b1 7a be 55 d5 0c bf
       -0.6927363 0.26630175 -0.24481879 -0.5501302
0000e0 0e 9e 81 bf b2 8a 1a bf 0d bd ec 3d 93 da 06 3e
       -1.012636 -0.6036788 0.11559496 0.13169317
0000f0 50 2b 51 bf 7b 94 28 bf 38 9b 10 3e e3 9e a9 be
       -0.81706715 -0.65851563 0.14121711 -0.33129033
000100 0c 7e 13 3f b5 5b 1b bf ab db 44 3f 96 5c 3d bf
       0.5761421 -0.6068681 0.76897687 -0.739694
000110 b1 e3 3b 3f 47 74 eb be b0 fa b4 3e 3b d6 fd 3e
       0.73394305 -0.4598715 0.3534751 0.49577507
000120 30 ed 16 3f 24 ef ca be 5d 2a 28 bf 31 8d a1 be
       0.5895567 -0.39635575 -0.6568964 -0.31553033
000130 93 37 7e bf be 0c 54 3f bf 61 4b bf 33 5f c4 3e
       -0.9930355 0.82831943 -0.79446024 0.3835388
000140 df 5f 22 3f 9a e6 ec be a0 c8 9c 3e 72 3b be be
       0.6342754 -0.46269685 0.30621815 -0.37154728
000150 69 bc 51 bf 09 51 52 3f 91 26 c7 be dd 54 27 bf
       -0.81928116 0.821549 -0.3889661 -0.65363866
000160 8e bc 03 3f 57 71 74 be 70 df db 3e cc b3 24 3e
       0.51459587 -0.2387136 0.42943907 0.16084212
000170 58 19 80 be 1c 6d d0 3e e7 b6 99 be 10 0b 93 3e
       -0.25019336 0.40708244 -0.30022356 0.28719378
000180 92 a4 c5 be 43 60 a1 3e b8 a6 79 be 64 5a 6b be
       -0.3860212 0.31518754 -0.24380004 -0.229837
000190 a9 f3 94 be 61 e1 8f be a1 04 62 be c3 d2 d5 be
       -0.29092148 -0.28101638 -0.22072078 -0.4176236
0001a0 ad 5f ab be 00 00 00 00 24 ec d8 bd 88 e8 ca 3e
       -0.33471432 0.0 -0.10591915 0.39630532
0001b0 ab 20 5b 3e aa 3c 30 3f 82 77 a1 be 48 f7 f0 be
       0.2139918 0.68842566 -0.3153649 -0.4706366
0001c0 e9 4e bb be a6 7d fe be 64 56 11 bf 53 78 d3 3e
       -0.3658364 -0.49705237 -0.56772447 0.41302738
0001d0 12 ac 29 3f 4c 41 97 3e 79 b8 7d 3f 7d ac 8b bd
       0.66278183 0.29542005 0.9910961 -0.06820009
0001e0 f8 7d 44 3e 5b 0c d9 be c7 9f 79 be af a8 2d bf
       0.19188678 -0.4239224 -0.24377356 -0.67835516
0001f0 3a 9f 9d 3e 13 53 da 3e 5a 7a ac 3e 7f 4b c0 be
       0.30785543 0.42641506 0.33687097 -0.375576
000200 8f 94 44 be 1c f0 19 3f a2 a8 b9 3e bd 75 44 be
       -0.19197296 0.60132 0.3626147 -0.19185539
000210 8a 2b 42 be ee 27 41 bf c5 37 06 bf 34 b6 20 3f
       -0.18961921 -0.7545155 -0.5242885 0.6277802
000220 91 13 a0 be 3a c7 96 3e 69 d2 86 3f 76 e4 da be
       -0.31264928 0.29448873 1.0532962 -0.42752427
000230 ae ef 60 3e a3 fe 82 be 69 42 2e bf e2 cb 93 be
       0.2196643 -0.25584897 -0.68070084 -0.28866488
000240 64 aa 33 be f8 e3 ac be 93 9e 00 bf 0a bc 55 bd
       -0.17545468 -0.33767676 -0.50241965 -0.05218128
000250 e4 87 d5 3e a5 d6 40 3f fc e7 be be 9b 27 db be
       0.4170524 0.7532752 -0.37286365 -0.42803654
000260 21 9f 22 be 58 54 ae 3e 41 b9 f0 3e 5f e8 11 3f
       -0.15881015 0.34048724 0.47016338 0.56995195
000270 98 70 ca be fa a5 1d bf ee ef a6 3e 24 37 ea 3e
       -0.39539027 -0.61581385 0.32604927 0.45745194
000280 38 29 dd be 2c 0c 9e be 1f c4 e6 3e 0a 4a 8e 3e
       -0.4319551 -0.3086866 0.45071504 0.27790862
000290 d7 2a 13 bf 93 c0 cb be 1e 21 8a 3e 19 4f 41 3e
       -0.57487243 -0.3979536 0.2697839 0.1887783
0002a0 37 d0 97 be 58 0b 93 3e 92 47 ad be 02 8c 72 3e
       -0.29651043 0.28719592 -0.33843666 0.23686221
0002b0 2c 82 49 3e ea 37 c3 3c ff 02 ea 3d 2a cb 01 3f
       0.19678563 0.023830373 0.11426353 0.5070063
0002c0 5b df f2 be 4f 3d a0 be 62 f5 1e bf 5e 26 0b bf
       -0.47436032 -0.31296775 -0.62093174 -0.5435542
0002d0 17 93 03 3f 83 c4 1a 3f 7f 55 6f 3f e2 99 11 3f
       0.51396316 0.60456103 0.9348983 0.5687543
0002e0 74 05 f6 bd 3a 30 85 bd 22 a5 39 3f 5b 00 25 3f
       -0.12012759 -0.06503339 0.725176 0.6445367
0002f0 30 2f a1 bd 0d 7b d7 3e 07 da ff 3e 9f 5b 05 3f
       -0.078703284 0.42086068 0.4997103 0.5209293
000300 16 95 3c 3f b0 50 8d be ab 7d 86 3e d2 a6 21 3f
       0.7366499 -0.27600622 0.26267752 0.6314517
000310 93 2b 20 3e e4 f9 93 be 19 6c 7d be 63 90 e9 bd
       0.15641622 -0.2890159 -0.24748267 -0.11404493
000320 ce 43 27 be 33 2c 68 3e c4 46 7f bd 76 61 40 3f
       -0.16334459 0.2267311 -0.062323347 0.75148714
000330 fc 9f 0c 3f 61 4f 1b bf 37 9d aa 3e d7 a5 69 be
       0.54931617 -0.60668 0.3332307 -0.22817169
000340 d3 92 8a bf da 76 e8 3e 9f 7d 05 bf ac 8e 0f 3f
       -1.0826057 0.45403177 -0.5214481 0.56077075
000350 83 99 bf 3e 7b 81 2c 3f 2d 5a 05 3f e9 f4 16 bf
       0.37421808 0.6738507 0.5209072 -0.58967453
000360 04 e0 2a bf
       -0.6674807

hidden.bias f4 [31]
000000 b4 06 d3 bd ff 2c 28 3e a2 cc 3d 3e 13 35 99 3d
       -0.10304013 0.16423415 0.18535092 0.07480826
000010 c4 2b 5f bd a3 c2 50 bc 93 2d 0a 3e 23 ce 09 3e
       -0.054485098 -0.0127417175 0.13493948 0.13457541
000020 56 a2 ce bd 05 16 7a 3c 5e af 5e 3d ba ec 89 bd
       -0.10089557 0.015264039 0.054366462 -0.06734605
000030 7b b4 24 3d cb a7 2f be 3c 2d ab be ff e7 b3 bd
       0.040211182 -0.17153852 -0.3343295 -0.08784484
000040 3e 76 78 bd 1d 6e 9c 3c 99 19 4f bd 00 00 00 00
       -0.06065964 0.019095475 -0.05056152 0.0
000050 d5 f6 7f bc 8e db 6d be d1 65 08 bf 5d f7 a1 bd
       -0.015622814 -0.23228285 -0.5328036 -0.07908509
000060 9e bc ee bd a8 b7 16 3d 9d e7 93 3d fc d7 6c be
       -0.116570696 0.036796242 0.07221911 -0.23129267
000070 3c a5 19 be 5b 83 a7 bd c1 19 d0 bd
       -0.15004438 -0.08179351 -0.10161162

output.weight f4 [16, 31]
000000 ba 58 54 bd a8 6c dc 3d 04 84 96 bd d1 3e c2 3d
       -0.05184243 0.10762912 -0.07349399 0.094846375
000010 00 00 00 00 2f 2d 85 bf 42 c1 68 3d 9d 07 73 3f
       0.0 -1.0404414 0.05682493 0.9493349
000020 5b d1 70 3f 38 bb 9d 3d 07 9f a9 3e 47 af fb bd
       0.9406945 0.07701725 0.3312914 -0.12289291
000030 44 26 37 3e 3c 54 12 be 67 15 1e 3f 4c 35 e6 bd
       0.17885691 -0.14289945 0.6175141 -0.11240634
000040 c7 b4 95 be e3 5b 5f 3e 00 00 00 00 4a 99 98 3d
       -0.29239485 0.21812396 0.0 0.074511126
000050 89 07 30 3f f2 7e 5f be 26 70 59 bd 08 97 f2 bc
       0.687615 -0.2182577 -0.05308547 -0.029613033
000060 d8 7b 28 bd e9 e4 fe 3d a5 cb 8c bf b4 9e 62 bf
       -0.04113373 0.12446005 -1.0999647 -0.8852341
000070 c6 31 ce 3d 1f 9f 9d bd dd 73 ac bd 16 7a b3 be
       0.10068087 -0.076963656 -0.08420537 -0.35054082
000080 b2 1d 27 be 0b f1 82 3d f2 6d 66 be 6b c8 f4 bd
       -0.16319922 0.063936315 -0.22502878 -0.11952289
000090 d9 23 07 be 2c d0 b1 be f9 8c 1d bf df cd 3d 3d
       -0.13197269 -0.34729135 -0.6154323 0.046338912
0000a0 13 cc d2 3e c3 cf 30 bd ba 2f 85 3d 6b 22 86 3c
       0.4117132 -0.043166887 0.06503244 0.016373834
0000b0 42 de a5 bd 00 00 00 00 86 29 bc be a9 bc bf 3d
       -0.08099033 0.0 -0.3675043 0.09362156
0000c0 19 ef cb 3e 2c 23 28 3e de ec ab bf fe 80 04 3e
       0.39830855 0.16419667 -1.3431661 0.12939832
0000d0 c4 3d d9 3d 00 00 00 00 00 24 35 bd 99 ad 58 3e
       0.10607484 0.0 -0.044223785 0.21159972
0000e0 b6 72 38 3e a1 95 fc bc 2b 9f 0d 3f 6d 9d 68 be
       0.18012509 -0.030833067 0.55320996 -0.22716303
0000f0 96 6d b7 3f b6 df 63 bd e5 37 e6 bf 34 10 90 3e
       1.4330318 -0.05563327 -1.7985808 0.28137362
000100 4d 95 0a be 50 7e a9 3d 58 39 87 3e ec 06 51 3c
       -0.13533516 0.08276045 0.26410937 0.012757998
000110 21 92 45 be fe 12 89 3d 71 55 06 3e 0a 44 c7 3f
       -0.19294025 0.066930756 0.13118531 1.5567639
000120 9a 43 fe 3d 86 e1 ba bd 82 c1 06 3e 8c 92 53 bf
       0.12415238 -0.091250464 0.13159755 -0.8264549
000130 40 68 9b bc 00 f9 93 be ed 01 19 be 14 85 a8 3e
       -0.018970609 -0.2890091 -0.14942141 0.3291403
000140 42 5f ab bd 20 f3 51 3e 2b 80 a5 3c d3 00 a5 be
       -0.08367778 0.20502901 0.020202717 -0.3222719
000150 03 73 94 3d 1f 46 b9 3d c2 18 b8 3e 02 c4 9b be
       0.07248499 0.09046578 0.3595639 -0.3042298
000160 e7 d3 e1 bd d5 b5 6a bc 50 27 a9 3d 32 ec 61 be
       -0.11026745 -0.014325579 0.082594514 -0.22062758
000170 42 9c d4 3e d7 8e 6a 3d d7 0f 30 bc 36 1f 88 be
       0.41525465 0.05726513 -0.010745964 -0.26586312
000180 32 a0 73 3e 53 ca f0 be f3 94 ba be 10 56 ea 3d
       0.23791578 -0.4702936 -0.36441764 0.11442196
000190 30 0a 39 3d 98 76 b6 bd 69 32 3f bd 41 8f d3 be
       0.04517573 -0.08909339 -0.046678934 -0.41320232
0001a0 4b 8f d5 3e 5e 88 d8 be d3 06 79 3d c1 3a 0b 3d
       0.41710886 -0.4229154 0.060797524 0.03399158
0001b0 55 d5 2c bf ce c4 dc 3e 94 77 44 3f 73 17 cb bd
       -0.6751302 0.431189 0.7674496 -0.09916582
0001c0 bd 2e 37 bd 4b 3b c8 3e 00 00 00 00 a4 8e 92 3d
       -0.044722307 0.39107737 0.0 0.07156113
0001d0 a3 f7 45 3e 43 0d e8 bd 15 30 b3 3f 7d 68 08 3e
       0.19332747 -0.113306545 1.3999048 0.13321109
0001e0 c4 7f 76 bd d1 dd a9 3e a6 6c ca 3c e3 1b 8f bf
       -0.06018044 0.33177045 0.02471001 -1.1180385
0001f0 ae 3c 73 3e a6 bd 43 3f 14 18 00 3e 01 f4 5a bd
       0.23753616 0.76461256 0.12509185 -0.053455357
000200 36 ca c7 3d dc 91 0b bf 6e b1 30 bd 20 74 c9 3e
       0.097553656 -0.5451944 -0.04313796 0.3934641
000210 5b 86 41 be 21 2d 69 be 3e f1 72 be 59 31 0d 3f
       -0.18898909 -0.22771122 -0.23724839 0.55153424
000220 18 a2 08 bf 1a ec c0 bd 20 7b 12 3d fc e4 12 3f
       -0.53372335 -0.09420033 0.035761952 0.5738065
000230 40 8c 35 3e aa 3a 07 bf ba 06 66 3f 10 e8 0f bf
       0.17729282 -0.5282389 0.89854014 -0.56213474
000240 2f fd 06 3f 10 c6 2a bf 7e 2d e3 bc b2 0d 80 bf
       0.5273008 -0.6670847 -0.027731653 -1.000418
000250 84 54 67 bd 48 63 ca be b0 64 4a 3e 1d 9f de be
       -0.056477085 -0.3952887 0.19764972 -0.4348077
000260 ed 53 84 3d 72 27 0d 3f 45 09 c4 3e f2 20 c1 3e
       0.0646132 0.55138314 0.38288322 0.37720448
000270 1c 88 fa 3c 50 ea 0a be 51 1f 0c 3e 00 00 00 00
       0.03058248 -0.13565946 0.13683821 0.0
000280 cf 63 01 be ac 18 cc be fd a2 c4 3e b7 95 03 3d
       -0.1263573 -0.39862573 0.384056 0.0321252
000290 6f ea b3 be be f1 01 bf d0 e7 b8 bf 96 3d ba 3f
       -0.35139796 -0.50759494 -1.4445744 1.4550045
0002a0 f5 06 99 3d 9d b7 c1 3d 7b 18 2b bd b8 64 f8 3e
       0.0747203 0.094588496 -0.041771393 0.48514342
0002b0 33 e3 08 3e 2c 30 84 be a0 85 02 bf 00 00 00 00
       0.1336792 -0.25818002 -0.50985146 0.0
0002c0 dd d2 d1 bc 14 5c bf 3d 87 30 23 3e bd da 99 3e
       -0.025613243 0.093437344 0.1593648 0.30049697
0002d0 9e b1 0a be b6 ca b7 bd c7 f6 ae be 15 89 20 be
       -0.13544318 -0.08974211 -0.3417265 -0.15677293
0002e0 c4 a6 08 3f 8d 6c 3f 3e 5c a0 e0 bd d5 5c 9d 3e
       0.53379464 0.18693753 -0.10968086 0.30734888
0002f0 b5 bc a9 bf 00 98 6e 3e 0f ef cf 3d 35 5a 88 be
       -1.3260714 0.23300171 0.10153019 -0.26631323
000300 00 00 00 00 cd c5 b7 3e 8e bf b5 bf 92 57 17 3e
       0.0 0.35893098 -1.4199083 0.14779499
000310 4d de 4f 3e 58 fd a5 be 0a 6c af 3e f8 ed 29 be
       0.20299645 -0.32419848 0.34262115 -0.16594684
000320 b8 56 87 bc 69 c1 37 3d e4 66 d2 bd 82 04 91 3d
       -0.016520843 0.044862185 -0.10273531 0.07080938
000330 87 6f 6c 3c 49 fe d2 3d 2b f7 1e 3e 92 f0 c2 be
       0.014430887 0.10302407 0.15523975 -0.38074166
000340 94 61 78 3f 65 7a 7d 3c a8 64 17 3d 2e 98 e5 3d
       0.9702389 0.015471076 0.036961228 0.112106666
000350 c3 59 85 3f 37 87 ad be 4a bc 8b 3d f5 c3 2f bd
       1.0418018 -0.33892223 0.06823023 -0.04291149
000360 0c 67 a4 bd ae 46 79 be 2d b6 1c 3f 22 19 50 3e
       -0.08027467 -0.24343368 0.6121548 0.20322087
000370 fd 6d 5d be d6 bc 0a bd 26 ab 4f 3e f9 02 aa be
       -0.21623988 -0.033871494 0.20280132 -0.33205393
000380 4b 18 6a 3d d1 9e 03 3e 2a 86 8d 3e 9a 68 c7 bf
       0.057152074 0.12853552 0.27641422 -1.5578797
000390 e6 d3 a0 bd bb 04 dc 3d 61 e3 68 be 50 fa 2f bd
       -0.078529164 0.1074309 -0.22742988 -0.042963326
0003a0 00 00 00 00 18 a5 b8 3f 30 d3 40 3c 27 44 b4 3e
       0.0 1.4425383 0.011769101 0.35208246
0003b0 00 95 f4 3e 39 1c 84 be 7b 0b 1f bf 5f 72 27 be
       0.47769928 -0.25802782 -0.6212689 -0.16352223
0003c0 8a 50 85 be 4d 81 b3 3e ee 0e f6 3d 3c 20 3a be
       -0.2603801 0.35059586 0.12014566 -0.18176359
0003d0 dc 35 bf bc da 42 23 3e 06 14 fe be ea d6 82 bd
       -0.023341112 0.1594347 -0.49624652 -0.06388648
0003e0 46 5d 7d 3e 37 1c 37 bf 39 a6 a2 be 36 25 08 3e
       0.24742612 -0.7152743 -0.31767443 0.13295445
0003f0 c1 cf 8f bd 41 4e 67 be e8 ae a5 3e 9c fa 4a 3c
       -0.07022048 -0.22588445 0.32360005 0.0123888515

output.bias f4 [16]
000000 05 c9 8d 3d d1 18 c0 3d e0 ae f4 bd 03 52 10 be
       0.06923107 0.09379733 -0.11947417 -0.14093785
000010 8b 6c e1 bd 6e b1 2c 3d 44 5e 50 3e 7c b2 bb bd
       -0.11007031 0.042161398 0.2034846 -0.091649026
000020 d2 8a ad 3d 19 26 2e 3d 33 cd 1d be 53 48 ac 3d
       0.084737435 0.0425168 -0.15410309 0.08412232
000030 00 00 00 00 a8 54 09 3d c4 39 f3 bd b6 aa 1a 3e
       0.0 0.033528 -0.11876252 0.15104184
