Hamming74/Result/Model/SLNN7/SLNN_modified_threshold0.05_cpu_hidden/SLNN_model_modified_hiddenlayer94_BER0.pth (torch, 11528 bytes, 4 tensors)

hidden.weight f4 [94, 7]
00000000: 12fc bcbe aa7d b5be cd51 573e c2f3 b4be
00000010: a6cb d43e 249f a53e 8635 0abf b3a0 86be
00000020: 0000 0000 0000 0000 0b41 b3be b8fe dfbd
00000030: cbdc e63e 090f 8a3e aae8 a6be 6bcf ac3e
00000040: 3303 573e 56a8 853e 4768 a13e 57d1 c43d
00000050: b509 a5be 0000 0000 c63f 663e 0000 0000
00000060: d768 c1be fb4a a1be fe3e 25be 7411 5cbe
00000070: 2bc3 8c3c 0000 0000 7ca0 5b3d 1759 b63c
00000080: 0f11 aabd 8a08 cc3c ffc3 18bd 59d7 71be
00000090: 0000 0000 e354 5abe 9109 bdbe 6f9c 4f3e
000000a0: 0000 0000 a31b ae3e 1675 133e 7b62 933e
000000b0: 8971 65be aa6e 3f3e ee75 d3be 0000 0000
000000c0: 016d 00be 2535 ba3e b775 7cbe ec7c 94be
000000d0: 53c2 ca3e 61ae a4be ab67 06be 0000 0000
000000e0: 3506 b33e c114 463e 0000 0000 1d4e 813e
000000f0: 65e5 bbbe 4ee9 0fbe 287d 96be 5cb8 1f3e
00000100: 5a8a 40be b680 acbe dd5e 28be 6e53 2dbe
00000110: cbd5 033e d652 8e3e 57b3 28be 1d4d a93e
00000120: de68 353e 0000 0000 0eea ba3e ceb9 c3be
00000130: d09c a0be 22bc ce3e d17b c23e 5b44 3c3e
00000140: 486f 8dbe 16f2 a9be 0f92 7bbe 9dd9 97be
00000150: 8be9 debe 9a40 a93e 0000 0000 3cd3 893e
00000160: 28c5 aebe 161b 6c3e 1f75 85be bfad 113e
00000170: 0c35 073f 94e4 0abf db65 78be a312 123e
00000180: dd38 173e 0000 0000 b3de 893e e79c 95be
00000190: 611f 893e 6de4 1b3e 18ae dc3e 6049 b13e
000001a0: 0000 0000 0000 0000 3bd2 71be 0bfd 863e
000001b0: d2a4 cdbe 7727 6e3e 7ff1 923d 6674 123e
000001c0: 0000 0000 0000 0000 3e5f a1bd e59e cbbd
000001d0: d757 8bbe d71d 813e 1b65 cb3e bc39 703e
000001e0: f596 e43e 24e2 b53e 2623 0e3e e248 283e
000001f0: 0673 093e 4939 bd3e f7f8 28be a4b1 633e
00000200: a7e8 a3be f9db bfbe 441f b93e ae91 f4be
00000210: b020 de3e 3124 83be ff19 a1be 54c8 d13e
00000220: 77c7 4f3e 0000 0000 f45c 54be d64f 9c3e
00000230: 1664 6b3e 0000 0000 3394 073e 32ac 58be
00000240: 6865 a6be cd0e b8bd d77c 533e ab7b c1be
00000250: 92ce 9d3e e5a8 0fbe 50c3 633e 71dd ac3e
00000260: 0969 d13d 9c00 dc3d fd5b f53e 6c5b e3be
00000270: 65fb 92be f48d 9abe 0000 0000 0000 0000
00000280: 5819 c63e 0286 2e3e 80b5 8ebe d53f b53e
00000290: 1538 6bbe e3bc 9e3e 4755 77be cc3c c63e
000002a0: 0000 0000 f46e 003f 8a39 60be 1ef1 50be
000002b0: d5f5 873e f666 17be df08 6e3e ed36 09be
000002c0: ff4c 8f3e 457e 2fbe b121 5abe 5abf 993e
000002d0: 0000 0000 1362 adbe 0839 923d 0000 0000
000002e0: 0000 0000 e1c4 c23d bd73 5c3e 36e9 bcbe
000002f0: cf26 bfbe 7416 59be 8078 ddbd f897 cdbe
00000300: 8680 823e 43d4 fb3d f018 733e fd0a c7be
00000310: 487d db3e 0000 0000 ebe2 013e 0000 0000
00000320: 31c9 3a3e 2f25 203f b2b4 aebd 8e5e 4f3e
00000330: 45a6 ba3d d3ec c83e 3685 423e 79b4 bc3e
00000340: b5af 803e 6f2d d13d f3f5 b6be bce8 543e
00000350: b46c ad3e 457b eabe acfc 953e 0000 0000
00000360: 0000 0000 0000 0000 5e87 cb3e 9c69 ac3e
00000370: 4574 843e ddd7 b63e 8ba9 18be e7b6 d03d
00000380: 7ba4 c8be 878b 8c3e 6e35 b23d 0000 0000
00000390: 19bc 303e 6fd7 4e3e e7b2 cb3e 0000 0000
000003a0: 73fc ae3e 47eb 85be 8cf3 c7bd 0000 0000
000003b0: b04a c33e fcfd 84be 12c5 523e 0000 0000
000003c0: 54df f2be 9068 8fbe 01be 883e d98e 3a3e
000003d0: a1a3 6bbe e7bc 79be ac95 24be 3e69 8f3e
000003e0: d253 0abe 9fe9 bebd 4dc5 efbd b07b 983e
000003f0: 295e 553e b119 973e 0000 0000 41fe c93e
-0.36911064 -0.35447437 0.21027298 -0.35342222 0.4156162 0.32347977 -0.5398792 -0.2629448
0.0 0.0 -0.3501056 -0.109372556 0.45090327 0.26964596 -0.32599384 0.33751997
0.20997314 0.26104993 0.3152487 0.09610241 -0.32233968 0.0 0.22485265 0.0
-0.377753 -0.31502518 -0.16137311 -0.21491033 0.017182907 0.0 0.053619847 0.022259278
-0.08304035 0.024906415 -0.03729629 -0.23617305 0.0 -0.21321444 -0.3692136 0.20274518
0.0 0.3400546 0.14400133 0.28786072 -0.22406591 0.18694559 -0.4130091 0.0
-0.12541582 0.3636867 -0.2465428 -0.29001558 0.39601383 -0.3216429 -0.13125484 0.0
0.34965673 0.19343854 0.0 0.25254908 -0.36698452 -0.14053842 -0.29392362 0.15597671
-0.18802777 -0.3369195 -0.16442437 -0.16926357 0.12874524 0.27797574 -0.16474663 0.33066645
0.17715785 0.0 0.36506695 -0.38227695 -0.31369638 0.4037791 0.3798509 0.1838545
-0.27623963 -0.3319251 -0.24567436 -0.29658213 -0.43537554 0.330571 0.0 0.26918972
-0.34134793 0.23057207 -0.2606592 0.14226435 0.5281532 -0.5425503 -0.24257605 0.14264922
0.14767785 0.0 0.2692772 -0.2922127 0.26781753 0.15223856 0.43101573 0.34626293
0.0 0.0 -0.23615353 0.2636493 -0.4016481 0.23257242 0.07174968 0.14302215
0.0 0.0 -0.07879494 -0.09942416 -0.27215454 0.25218078 0.39725575 0.23459524
0.4464642 0.35524094 0.13880596 0.16434053 0.13422784 0.36957768 -0.16501223 0.22235733
-0.32013437 -0.37472513 0.36156666 -0.47767395 0.43384314 -0.2561355 -0.31465146 0.4097315
0.20290934 0.0 -0.20738584 0.3052966 0.22987399 0.0 0.13240127 -0.21159437
-0.32499242 -0.08987198 0.20653091 -0.37789664 0.30821663 -0.14029272 0.22242475 0.33762696
0.10225112 0.10742304 0.47921744 -0.44405687 -0.28707424 -0.30186427 0.0 0.0
0.3869121 0.17043307 -0.2787285 0.35400262 -0.22970612 0.31003484 -0.24153624 0.3871826
0.0 0.501693 -0.2189695 -0.20404479 0.26554742 -0.1478537 0.23245572 -0.13399859
0.2798843 -0.17138012 -0.21301915 0.30028802 0.0 -0.33863887 0.07139784 0.0
0.0 0.09510208 0.21528526 -0.36896676 -0.37334296 -0.21199971 -0.10813999 -0.40155005
0.2548868 0.12296345 0.23739982 -0.3887557 0.4286902 0.0 0.12684219 0.0
0.18240811 0.6255674 -0.08530559 0.20250914 0.09113745 0.39243183 0.18996128 0.3685644
0.25134054 0.10213744 -0.3573452 0.20791906 0.33871996 -0.45797172 0.29294336 0.0
0.0 0.0 0.39751714 0.33674324 0.25869957 0.35711566 -0.14908426 0.10191136
-0.3918799 0.274502 0.08701597 0.0 0.17259254 0.20199369 0.3978493 0.0
0.34176978 -0.26156065 -0.0976325 0.0 0.3814292 -0.25975025 0.20582989 0.0
-0.4743601 -0.28009462 0.2670746 0.18218555 -0.23011638 -0.24388467 -0.1607272 0.2800998
-0.13508537 -0.093219034 -0.11707554 0.29781866 0.208367 0.29511788 0.0 0.39451793

hidden.bias f4 [94]
00000000: 8ca7 79be 2ecf abbd fb40 323e 3714 ad3c
00000010: 5a31 c8be f3c4 0d3d 6f51 023e a6ae b3bd
00000020: 686a a7be 9f75 39be 3fa1 e63d e0f5 dcbd
00000030: 8576 bbbd 7329 933d 9dad 2b3e e935 2e3e
00000040: 034e df3d d134 1e3d dfd1 d23d 676c f8bc
00000050: ed51 143e 3924 9f3d 43ed 99bd 63a4 33be
00000060: 2241 0d3e ecff b6be 821e 72be 5b4f 5e3e
00000070: c57b f2bc 9327 14be 9761 7f3d 04d0 56be
00000080: 2657 09be a229 33be e91a bc3d 4065 d2bd
00000090: 8877 82bd 37f8 39be f76a 0b3c 1ddd 9e3b
000000a0: 3128 44be 76f5 113e b012 c83d d7d1 9abe
000000b0: 0bf4 8fbd 44c0 083e 7cf7 f2bd dc4f 0f3d
000000c0: fece bd3d d130 103d e920 b7be 78c9 d7bc
000000d0: a687 d5bb efb5 35bd f248 cf3c d190 2b3c
000000e0: ef3e 81be 41bd 97be 3623 d1be 3c1f c93c
000000f0: e32c 043e fd4e 023d 85d8 0cbe fff8 4a3d
00000100: 3757 0e3d 121a 1abe cfad 5a3e 0829 43be
00000110: cb1b c7bc 815e 123e a784 89bd 98b7 6abe
00000120: 1ab8 d23d c84a b6be 4b20 1f3d c4bf 9e3d
00000130: 4f71 41bd 90ee 63bd 099f 63be 5887 823d
00000140: 3e71 4bbe c1a3 a8be 3d90 03be 8743 4f3e
00000150: 51f4 283e 7afd af3d c6d8 11be 20e6 2abe
00000160: ae10 0d3e 9b35 3a3d 46aa 833d 4315 6d3e
00000170: 8e50 403e ed13 773d
-0.2438032 -0.08389126 0.174076 0.021127803 -0.39100152 0.034611654 0.12726377 -0.08773546
-0.3269837 -0.18111275 0.11261224 -0.107890844 -0.09153465 0.0718564 0.16765447 0.17012753
0.109035514 0.03862459 0.10293936 -0.030325128 0.14484377 0.07770581 -0.07515957 -0.17543177
0.13794377 -0.35742128 -0.2364445 0.21709959 -0.029600034 -0.14468221 0.06234893 -0.20977789
-0.1341215 -0.1749635 0.0918482 -0.10273218 -0.06370455 -0.18161093 0.008509389 0.004848136
-0.19155957 0.14253792 0.09769189 -0.3023822 -0.070289694 0.13354594 -0.1186361 0.03498827
0.09267996 0.035202805 -0.35767296 -0.026341185 -0.0065164147 -0.04436296 0.025303338 0.010471539
-0.25243327 -0.29636577 -0.40847176 0.024551027 0.12907748 0.03181361 -0.1375447 0.049553867
0.034751143 -0.15049008 0.21355365 -0.19058621 -0.024305245 0.14293863 -0.067147546 -0.22921598
0.10289021 -0.3560393 0.038849156 0.0775142 -0.0472272 -0.055647433 -0.22228636 0.06373471
-0.19867417 -0.32937434 -0.12847991 0.20240603 0.1649945 0.08593269 -0.14242849 -0.16689348
0.13775894 0.04546128 0.064289615 0.23152642 0.18780729 0.060321737

output.weight f4 [16, 94]
00000000: 57ef 353e c6a5 3bbd 95d4 77be 9215 8b3e
00000010: 4cac adba 6899 923c 20c7 b4bc 9256 1f3e
00000020: df1f 6e3d d351 113b 2905 63bd 867d 1cbc
00000030: eb45 083e 8d47 98bd 1a4b debe ae1c aebc
00000040: 84aa adbd ee3a ffbe beb4 663d b57e 38bd
00000050: d99a 573d 9369 6fbe f5e6 a33c 1cf6 67be
00000060: 6445 28be 0b86 23bd d2fd 903d 802e 4d3e
00000070: 7987 e2be 8306 18be bbe3 d7bc 0039 7cbe
00000080: 7b0a 62be 6392 053c 745d 033e b93a ce3d
00000090: 4869 8dbe 6bb7 373f 829a a53e 3b64 98be
000000a0: d82a db3c 5b18 ff3d bc23 67bc bf7f 3fbe
000000b0: 9c8d 4d3e 3c26 a6be d0e7 22be d4e4 333c
000000c0: 9fea e93e 771c 00be 23d4 be3b b4f8 ab3d
000000d0: 679e 9e3d fe87 0bbc fc5f 31bd 43a0 b33d
000000e0: a4af 90be f516 51bd 794d 633d c3b2 3e3d
000000f0: 6b26 9f3e cbb6 933e 6f7b dd3e 4d1c 453f
00000100: 6f43 95bd f7a2 2dbe c64d d6be ee11 63be
00000110: 2768 583e 29ba 62bd b8ac 9b3c 7127 3dbd
00000120: 153f c0be 4eef 353e 561e d7bd 0cf2 f23a
00000130: 4307 77be 78af 5dbd 357b 08bd 0cd6 5dbe
00000140: 7377 cf39 5986 a33e 23d3 cb3d d852 b6bd
00000150: e8ac 033f 7bb8 953d 0018 92bd bf0b 4f3d
00000160: 6443 e0bd b439 d8be 12b3 bf3e 63c3 8c3e
00000170: a8cc b23d 9975 c1bd eea9 11be 2ae4 92be
00000180: 0066 b5be dc1a 5f3d d7f1 6f3d 1968 02be
00000190: 6f70 f73e e670 b23e 7a36 733e 4a0d b13d
000001a0: c564 e3bd daab 613d 6487 4ebc 68e5 643e
000001b0: 198f 83be 1b99 dbbe 588c fe3d 26d2 f33d
000001c0: a543 6b3e a13c 19be 2a4d 213e f4a9 bebc
000001d0: 0967 883d 9bba 50bd e223 463e 9079 90bd
000001e0: 73c1 60bc 4e41 34be 184d 93bd 33e4 65bd
000001f0: aea2 bbbe b795 d0ba 0870 c2bd 5f66 1cbd
00000200: 328a 5abe 9fcc eabd 58c1 2b3f 1e1d 02be
00000210: ea92 81be 5582 cc3d 7de6 2ebe a3ff e2bc
00000220: eb13 cdbe 6eb9 273e 6067 6ebd 63c9 333e
00000230: 7eb7 8bbd 866b 223e 31ac 243e a32c 5cbe
00000240: 7cd4 a5bc 30de e3bd fd3c 5b3e 850b ab3e
00000250: 27fa 07bc 0a46 283f bd69 673e b63c 823d
00000260: 9f5f 31be 9e9a 02bd e5cd 2dbb db5f b7bd
00000270: a597 1a3e 0034 6bbd 6e2c 19bf ccd7 40be
00000280: fbeb 663c f4dc fe3c 7ee2 4cbd abf0 02be
00000290: 5f42 17be dcce 93bd ddb3 20bd b917 9f3c
000002a0: c565 95bc fb5b a03e 0daa 9b3e 6d02 99be
000002b0: 33e8 223d 14e0 453d 49e8 a2bd 19ca 41bd
000002c0: 0d25 d3bc fe1c e63d e768 2fbd 6e63 efbe
000002d0: 9478 82be 00a4 103f 33b0 e33e 7aaa 463e
000002e0: 3323 b5be 2d06 afbe cd1a c63d 09f1 463d
000002f0: 9c30 e9bd fe71 f03c 0a0d 8a3e cd32 653e
00000300: 73be 053d 7e91 e8bd 4867 b83e 4d0c 1a3e
00000310: 0c78 ef3d 95a4 d8bd 3037 a1bc 1480 c7bd
00000320: 0712 213f dba0 273e f937 4fbe 70a1 d2be
00000330: 7646 583d ed1f abbd b48e c6be 995f cbbe
00000340: 9434 93be 2ab3 6b3e 5b8c dcbe 8e19 6ebe
00000350: ccf8 b4bd 00fd 263e b8ef f2bd 3780 0b3f
00000360: d46e d73c 9cf0 e2bd 1880 17be 1dee 9cbd
00000370: 1eb8 9f3d 8494 ba3e 6943 d63b 97a8 20be
00000380: 2ad3 e9bc 2d22 b7bd 83b0 ba3e 458b 71bc
00000390: 6170 6ebd ec4e 3cbe 8973 bcbe ed15 80be
000003a0: d464 2b3e 0a3d 11be 08a4 903e 181d 543d
000003b0: b435 43be 78cf 2cbe b767 2a3e 0960 0b3e
000003c0: 3950 0ebd defa eb3e 141b 3e3e dbd2 d33c
000003d0: 6575 1f3e 9c35 56bc 85f2 bdbd 776f c1be
000003e0: 7fbe 4cbd b2fd fbbd b2f6 f43d 4273 933d
000003f0: 00b0 59bd 52cb 033d 6a29 c13b 8517 d73c
0.17767082 -0.04581239 -0.24202187 0.27164894 -0.0013250201 0.017895415 -0.022067606 0.15560368
0.058135863 0.0022174015 -0.055424843 -0.0095514115 0.13307922 -0.07435522 -0.43416673 -0.02125391
-0.08479789 -0.49849647 0.056324713 -0.045042712 0.05263791 -0.23380117 0.02000759 -0.22652477
-0.1643272 -0.039922755 0.070796624 0.2003727 -0.44243982 -0.14846234 -0.026353708 -0.24631119
-0.2207431 0.008152577 0.12828618 0.10069794 -0.27619386 0.7176425 0.32344443 -0.2976397
0.026753828 0.12455817 -0.014107641 -0.18701075 0.20073551 -0.32451046 -0.15908742 0.01097985
0.45686814 -0.12510858 0.0058236285 0.08397046 0.077450566 -0.00851631 -0.04330443 0.08770802
-0.28259003 -0.051047284 0.055493806 0.0465572 0.31083998 0.28850397 0.43258235 0.7699631
-0.072882526 -0.16956697 -0.4185621 -0.22174808 0.21133481 -0.055353317 0.019003257 -0.046180192
-0.37548128 0.17767069 -0.10503833 0.001853527 -0.24123864 -0.05412242 -0.033320624 -0.21663684
0.00039571113 0.31938437 0.099523805 -0.0890252 0.5143571 0.073105775 -0.07133484 0.05054831
-0.10950354 -0.42231524 0.37441307 0.27492818 0.08730441 -0.09446258 -0.1422498 -0.286897
-0.35429382 0.054468974 0.058580246 -0.12735023 0.48327968 0.3485176 0.2375125 0.08645113
-0.11103205 0.05509553 -0.012605522 0.22353137 -0.25695112 -0.42890248 0.12429112 0.11905317
0.22975023 -0.14964534 0.15752092 -0.0232744 0.066602774 -0.05095921 0.19349626 -0.07054436
-0.013717997 -0.17603037 -0.07192439 -0.05612583 -0.36647552 -0.0015913759 -0.094940245 -0.038183566
-0.2134178 -0.114648096 0.67091894 -0.1270642 -0.253074 0.09985796 -0.17080112 -0.027709788
-0.4005426 0.1637933 -0.058204055 0.17557292 -0.06822108 0.1586133 0.16081311 -0.21501403
-0.020242922 -0.11126363 0.21409984 0.33407226 -0.008299387 0.6573187 0.2259893 0.06359236
-0.17321633 -0.031885736 -0.0026520428 -0.0895383 0.1509691 -0.057422638 -0.5983342 -0.1883232
0.014094348 0.031111218 -0.050020687 -0.1278712 -0.14771412 -0.0721719 -0.03923403 0.019420492
-0.018237004 0.31320176 0.30403176 -0.29884663 0.039772224 0.0483094 -0.07954461 -0.047311876
-0.025774503 0.112359986 -0.042824652 -0.46755546 -0.2548262 0.56500244 0.44470367 0.19400969
-0.35378417 -0.341844 0.096730806 0.048569713 -0.11386225 0.02935123 0.26963073 0.2238266
0.03265233 -0.113558754 0.36016297 0.15043755 0.11692819 -0.105782665 -0.019679636 -0.09741226
0.6291813 0.16369955 -0.20236196 -0.41138792 0.05280157 -0.08355699 -0.3878075 -0.39721373
-0.2875105 0.23017564 -0.43075833 -0.23251936 -0.08836517 0.1630745 -0.11862129 0.54492515
0.026297964 -0.11081049 -0.14794958 -0.07662604 0.077987894 0.36441433 0.0065387976 -0.15689312
-0.028543074 -0.089420654 0.36462793 -0.014742677 -0.05821264 -0.18389481 -0.36806896 -0.25016728
0.16737682 -0.14183441 0.28250146 0.05178556 -0.19063455 -0.16876018 0.16641127 0.13610853
-0.034744475 0.46089834 0.18565017 0.02585738 0.15572126 -0.013074305 -0.092747726 -0.37780353
-0.04998636 -0.12304248 0.11961116 0.07199718 -0.053146362 0.032176323 0.0058948295 0.026256332

output.bias f4 [16]
00000000: e52d 603d 5c80 0e3e 8864 c8bc 6372 db3d
00000010: 9b33 9dbc d86f 583d 9e4e ccbd bfc2 bc3a
00000020: 722d 483d 15f8 ec3c 04a1 de3d a852 133d
00000030: 74fc 7b3d 5c0a fa3c c0ad e4bb 3822 32bd
0.05473127 0.13916153 -0.024462 0.10715177 -0.019189646 0.052841038 -0.099759325 0.00144013
0.048871465 0.028926888 0.10870555 0.0359675 0.061520055 0.030522518 -0.0069787204 -0.043489665
