Result/Model/Hamming7_4/16_ft_cpu/MLNN_deleted46.pth (torch, 2952 bytes, 4 tensors)

hidden.weight f4 [16, 7]
0	0xbf566d36	-0.8376039
1	0xbf7827b8	-0.96935606
2	0xbf7e3de0	-0.99313164
3	0x3f925fc8	1.143548
4	0x3f836adb	1.0266985
5	0x3f5a3696	0.8523954
6	0x3f591f23	0.84813136
7	0x3f9fec1c	1.249393
8	0xbf7e0926	-0.9923271
9	0x3f2820a5	0.6567481
10	0x3f933904	1.1501775
11	0xbf1b5622	-0.60678303
12	0x3f6220d5	0.8833135
13	0xbf6221fe	-0.8833312
14	0x3fa07720	1.2536354
15	0xbf7ec842	-0.9952432
16	0xbf8061e3	-1.0029873
17	0x3f91743f	1.13636
18	0x3f85ee31	1.0463315
19	0xbf4a0de2	-0.78927433
20	0xbf64dbb2	-0.8939773
21	0xbf52a7c5	-0.82287246
22	0xbf7da68f	-0.99082273
23	0x3f283efa	0.65721095
24	0x3f91861a	1.136905
25	0xbf1b0470	-0.60553646
26	0xbf491a4a	-0.7855574
27	0x3f551cb4	0.8324692
28	0xbf530911	-0.8243571
29	0x3f881551	1.0631505
30	0x3f29fe5e	0.6640376
31	0x3f93ed70	1.1556835
32	0x3f82f618	1.0231352
33	0xbf48bf26	-0.7841667
34	0xbf631e03	-0.8871767
35	0xbf522dc8	-0.82101107
36	0x3f8beaa8	1.0930986
37	0x3f270a63	0.65250224
38	0xbf69d8f3	-0.91346663
39	0xbf1d12e6	-0.6135696
40	0x3f596f80	0.8493576
41	0x3f55024b	0.83206624
42	0xbf5577aa	-0.8338572
43	0xbf7977c7	-0.9744839
44	0xbf7cc53a	-0.98738444
45	0xbf70b34d	-0.9402359
46	0xbf1c8cde	-0.61152446
47	0xbf4e330d	-0.8054665
48	0xbf636d12	-0.88838303
49	0x3f9c1026	1.2192428
50	0xbf7f5bcd	-0.9974945
51	0x3f29a382	0.6626512
52	0xbf726a8e	-0.9469384
53	0x3f85d2e9	1.045499
54	0xbf43f21e	-0.76541317
55	0x3f57a25c	0.84232116
56	0x3f9da1f2	1.2315047
57	0x3f8d2f09	1.1029979
58	0x3f27a5ae	0.6548718
59	0xbf706070	-0.9389715
60	0xbf1c9be0	-0.61175346
61	0xbf4d8879	-0.80286366
62	0xbf6610fc	-0.89869666
63	0x3f9ea6c8	1.2394648
64	0xbf7c5b0e	-0.9857644
65	0xbf80b463	-1.005505
66	0xbf6a5886	-0.91541326
67	0xbf1c9c13	-0.6117565
68	0x3f5d3cf9	0.8642116
69	0x3f58f69c	0.84751296
70	0x3f9f546a	1.2447636
71	0x3f89a95d	1.075481
72	0xbf820b4a	-1.0159695
73	0xbf73a211	-0.9516917
74	0x3f8273a3	1.019154
75	0x3f608c20	0.87713814
76	0xbf652fae	-0.8952588
77	0xbf4f9d6e	-0.81099594
78	0x3f89a3e0	1.0753136
79	0xbf7ee2b4	-0.9956467
80	0xbf71eeb3	-0.9450485
81	0x3f8096e8	1.0046053
82	0xbf4a9214	-0.7912915
83	0x3f5643e6	0.83697355
84	0x3f9f494c	1.2444243
85	0x3f8aecbe	1.0853498
86	0xbf807f93	-1.0038933
87	0x3f93d047	1.1547936
88	0xbf1cf512	-0.6131145
89	0xbf4a441f	-0.79010195
90	0x3f56a60a	0.83847106
91	0xbf57924f	-0.84207624
92	0xbf7cc74a	-0.9874159
93	0x3f27c738	0.6553836
94	0xbf6f7c64	-0.9354918
95	0x3f840dbb	1.031669
96	0x3f5d277c	0.86388373
97	0xbf660864	-0.89856553
98	0xbf53d0d2	-0.8274051
99	0x3f8cd0a1	1.1001168
100	0xbf7ac09d	-0.97950155
101	0x3f94fbcd	1.1639344
102	0xbf20abc0	-0.6276207
103	0x3f5d08f4	0.86341786
104	0xbf63cd69	-0.88985306
105	0x3f9fd195	1.2485834
106	0x3f89cb1f	1.0765113
107	0x3f2fd85f	0.6868953
108	0x3f954f09	1.1664745
109	0x3f853c64	1.0409055
110	0x3f613b15	0.8798078
111	0x3f598df2	0.84982216

hidden.bias f4 [16]
0	0x3e269568	0.16267931
1	0x3e06ca62	0.1316314
2	0x3dc3a635	0.09553186
3	0x3e1de2e0	0.15418577
4	0x3e19411c	0.14966244
5	0x3e192ecc	0.14959258
6	0x3e17f79d	0.1484055
7	0x3e15ad67	0.14616929
8	0x3e0d3a21	0.13791706
9	0x3e400947	0.18753539
10	0x3e02791e	0.12741515
11	0x3e5140ca	0.20434871
12	0x3dd4246f	0.10358512
13	0x3e094392	0.13404682
14	0x3e0348ee	0.12820789
15	0x3de6bf00	0.11266899

output.weight f4 [4, 16]
0	0xc0e496ac	-7.1433926
1	0x00000000	0.0
2	0xc0e5e15b	-7.183759
3	0x00000000	0.0
4	0x00000000	0.0
5	0x00000000	0.0
6	0xc0e4751b	-7.139295
7	0x00000000	0.0
8	0x00000000	0.0
9	0xc0e1aeca	-7.0525866
10	0xc0e18003	-7.0468764
11	0xc0e13aa5	-7.0384088
12	0xc0e5031e	-7.1566305
13	0x00000000	0.0
14	0xc0e19614	-7.04957
15	0x00000000	0.0
16	0x40eaa258	7.3323174
17	0x00000000	0.0
18	0x40edbe82	7.4295053
19	0x00000000	0.0
20	0x40ed9a5b	7.425092
21	0x00000000	0.0
22	0x00000000	0.0
23	0x40e91b2b	7.2845664
24	0x00000000	0.0
25	0x00000000	0.0
26	0x40e7196a	7.2218523
27	0x40e6e4b6	7.215419
28	0x00000000	0.0
29	0x40ebd314	7.3695164
30	0x00000000	0.0
31	0x40e6f4b3	7.2173705
32	0x00000000	0.0
33	0x00000000	0.0
34	0x00000000	0.0
35	0x00000000	0.0
36	0x00000000	0.0
37	0x40db3584	6.8502827
38	0x00000000	0.0
39	0x00000000	0.0
40	0x00000000	0.0
41	0x00000000	0.0
42	0x00000000	0.0
43	0x00000000	0.0
44	0x00000000	0.0
45	0x40d97908	6.7960243
46	0x00000000	0.0
47	0x00000000	0.0
48	0x00000000	0.0
49	0x00000000	0.0
50	0x00000000	0.0
51	0x00000000	0.0
52	0x00000000	0.0
53	0x00000000	0.0
54	0x00000000	0.0
55	0x00000000	0.0
56	0x00000000	0.0
57	0x00000000	0.0
58	0x00000000	0.0
59	0x00000000	0.0
60	0x00000000	0.0
61	0x00000000	0.0
62	0x00000000	0.0
63	0x00000000	0.0

output.bias f4 [4]
0	0x3f1b9717	0.6077742
1	0xbf4d5218	-0.8020339
2	0xbe828579	-0.25492457
3	0xbd37bf6a	-0.04486028
